module {
  func.func @main(%arg0: tensor<?x640xi8> {ml_program.identifier = "input_1"}) -> (tensor<?x640xi8> {ml_program.identifier = "Identity"}) {
    %0 = "tosa.const"() <{value = dense<"…"> : tensor<640xi32>}> : () -> tensor<640xi32>
    %1 = "tosa.const"() <{value = dense<"…"> : tensor<640x128xi8>}> : () -> tensor<640x128xi8>
    %2 = "tosa.const"() <{value = dense<"…"> : tensor<128xi32>}> : () -> tensor<128xi32>
    %3 = "tosa.const"() <{value = dense<"…"> : tensor<128x128xi8>}> : () -> tensor<128x128xi8>
    %4 = "tosa.const"() <{value = dense<"…"> : tensor<128xi32>}> : () -> tensor<128xi32>
    %5 = "tosa.const"() <{value = dense<"…"> : tensor<128x128xi8>}> : () -> tensor<128x128xi8>
    %6 = "tosa.const"() <{value = dense<"…"> : tensor<128xi32>}> : () -> tensor<128xi32>
    %7 = "tosa.const"() <{value = dense<"…"> : tensor<128x128xi8>}> : () -> tensor<128x128xi8>
    %8 = "tosa.const"() <{value = dense<"…"> : tensor<128xi32>}> : () -> tensor<128xi32>
    %9 = "tosa.const"() <{value = dense<"…"> : tensor<128x8xi8>}> : () -> tensor<128x8xi8>
    %10 = "tosa.const"() <{value = dense<[10945, 12630, 12251, 12268, 9983, 11335, 13857, 10233]> : tensor<8xi32>}> : () -> tensor<8xi32>
    %11 = "tosa.const"() <{value = dense<"…"> : tensor<8x128xi8>}> : () -> tensor<8x128xi8>
    %12 = "tosa.const"() <{value = dense<"…"> : tensor<128xi32>}> : () -> tensor<128xi32>
    %13 = "tosa.const"() <{value = dense<"…"> : tensor<128x128xi8>}> : () -> tensor<128x128xi8>
    %14 = "tosa.const"() <{value = dense<"…"> : tensor<128xi32>}> : () -> tensor<128xi32>
    %15 = "tosa.const"() <{value = dense<"…"> : tensor<128x128xi8>}> : () -> tensor<128x128xi8>
    %16 = "tosa.const"() <{value = dense<"…"> : tensor<128xi32>}> : () -> tensor<128xi32>
    %17 = "tosa.const"() <{value = dense<"…"> : tensor<128x128xi8>}> : () -> tensor<128x128xi8>
    %18 = "tosa.const"() <{value = dense<"…"> : tensor<128xi32>}> : () -> tensor<128xi32>
    %19 = "tosa.const"() <{value = dense<"…"> : tensor<128x640xi8>}> : () -> tensor<128x640xi8>
    %20 = tosa.fully_connected %arg0, %19, %18 {quantization_info = #tosa.conv_quant<input_zp = 89, weight_zp = 0>} : (tensor<?x640xi8>, tensor<128x640xi8>, tensor<128xi32>) -> tensor<?x128xi32>
    %21 = tosa.rescale %20 {double_round = true, input_zp = 0 : i32, multiplier = array<i32: 1638001719>, output_zp = -128 : i32, per_channel = false, scale32 = true, shift = array<i32: 39>} : (tensor<?x128xi32>) -> tensor<?x128xi8>
    %22 = tosa.clamp %21 {max_fp = 0.000000e+00 : f32, max_int = 127 : i64, min_fp = 0.000000e+00 : f32, min_int = -128 : i64} : (tensor<?x128xi8>) -> tensor<?x128xi8>
    %23 = tosa.fully_connected %22, %17, %16 {quantization_info = #tosa.conv_quant<input_zp = -128, weight_zp = 0>} : (tensor<?x128xi8>, tensor<128x128xi8>, tensor<128xi32>) -> tensor<?x128xi32>
    %24 = tosa.rescale %23 {double_round = true, input_zp = 0 : i32, multiplier = array<i32: 1442659867>, output_zp = -128 : i32, per_channel = false, scale32 = true, shift = array<i32: 36>} : (tensor<?x128xi32>) -> tensor<?x128xi8>
    %25 = tosa.clamp %24 {max_fp = 0.000000e+00 : f32, max_int = 127 : i64, min_fp = 0.000000e+00 : f32, min_int = -128 : i64} : (tensor<?x128xi8>) -> tensor<?x128xi8>
    %26 = tosa.fully_connected %25, %15, %14 {quantization_info = #tosa.conv_quant<input_zp = -128, weight_zp = 0>} : (tensor<?x128xi8>, tensor<128x128xi8>, tensor<128xi32>) -> tensor<?x128xi32>
    %27 = tosa.rescale %26 {double_round = true, input_zp = 0 : i32, multiplier = array<i32: 1185020333>, output_zp = -128 : i32, per_channel = false, scale32 = true, shift = array<i32: 33>} : (tensor<?x128xi32>) -> tensor<?x128xi8>
    %28 = tosa.clamp %27 {max_fp = 0.000000e+00 : f32, max_int = 127 : i64, min_fp = 0.000000e+00 : f32, min_int = -128 : i64} : (tensor<?x128xi8>) -> tensor<?x128xi8>
    %29 = tosa.fully_connected %28, %13, %12 {quantization_info = #tosa.conv_quant<input_zp = -128, weight_zp = 0>} : (tensor<?x128xi8>, tensor<128x128xi8>, tensor<128xi32>) -> tensor<?x128xi32>
    %30 = tosa.rescale %29 {double_round = true, input_zp = 0 : i32, multiplier = array<i32: 1439819856>, output_zp = -128 : i32, per_channel = false, scale32 = true, shift = array<i32: 35>} : (tensor<?x128xi32>) -> tensor<?x128xi8>
    %31 = tosa.clamp %30 {max_fp = 0.000000e+00 : f32, max_int = 127 : i64, min_fp = 0.000000e+00 : f32, min_int = -128 : i64} : (tensor<?x128xi8>) -> tensor<?x128xi8>
    %32 = tosa.fully_connected %31, %11, %10 {quantization_info = #tosa.conv_quant<input_zp = -128, weight_zp = 0>} : (tensor<?x128xi8>, tensor<8x128xi8>, tensor<8xi32>) -> tensor<?x8xi32>
    %33 = tosa.rescale %32 {double_round = true, input_zp = 0 : i32, multiplier = array<i32: 1085889731>, output_zp = -128 : i32, per_channel = false, scale32 = true, shift = array<i32: 37>} : (tensor<?x8xi32>) -> tensor<?x8xi8>
    %34 = tosa.clamp %33 {max_fp = 0.000000e+00 : f32, max_int = 127 : i64, min_fp = 0.000000e+00 : f32, min_int = -128 : i64} : (tensor<?x8xi8>) -> tensor<?x8xi8>
    %35 = tosa.fully_connected %34, %9, %8 {quantization_info = #tosa.conv_quant<input_zp = -128, weight_zp = 0>} : (tensor<?x8xi8>, tensor<128x8xi8>, tensor<128xi32>) -> tensor<?x128xi32>
    %36 = tosa.rescale %35 {double_round = true, input_zp = 0 : i32, multiplier = array<i32: 1442237646>, output_zp = -128 : i32, per_channel = false, scale32 = true, shift = array<i32: 36>} : (tensor<?x128xi32>) -> tensor<?x128xi8>
    %37 = tosa.clamp %36 {max_fp = 0.000000e+00 : f32, max_int = 127 : i64, min_fp = 0.000000e+00 : f32, min_int = -128 : i64} : (tensor<?x128xi8>) -> tensor<?x128xi8>
    %38 = tosa.fully_connected %37, %7, %6 {quantization_info = #tosa.conv_quant<input_zp = -128, weight_zp = 0>} : (tensor<?x128xi8>, tensor<128x128xi8>, tensor<128xi32>) -> tensor<?x128xi32>
    %39 = tosa.rescale %38 {double_round = true, input_zp = 0 : i32, multiplier = array<i32: 1315670656>, output_zp = -128 : i32, per_channel = false, scale32 = true, shift = array<i32: 36>} : (tensor<?x128xi32>) -> tensor<?x128xi8>
    %40 = tosa.clamp %39 {max_fp = 0.000000e+00 : f32, max_int = 127 : i64, min_fp = 0.000000e+00 : f32, min_int = -128 : i64} : (tensor<?x128xi8>) -> tensor<?x128xi8>
    %41 = tosa.fully_connected %40, %5, %4 {quantization_info = #tosa.conv_quant<input_zp = -128, weight_zp = 0>} : (tensor<?x128xi8>, tensor<128x128xi8>, tensor<128xi32>) -> tensor<?x128xi32>
    %42 = tosa.rescale %41 {double_round = true, input_zp = 0 : i32, multiplier = array<i32: 1994356874>, output_zp = -128 : i32, per_channel = false, scale32 = true, shift = array<i32: 37>} : (tensor<?x128xi32>) -> tensor<?x128xi8>
    %43 = tosa.clamp %42 {max_fp = 0.000000e+00 : f32, max_int = 127 : i64, min_fp = 0.000000e+00 : f32, min_int = -128 : i64} : (tensor<?x128xi8>) -> tensor<?x128xi8>
    %44 = tosa.fully_connected %43, %3, %2 {quantization_info = #tosa.conv_quant<input_zp = -128, weight_zp = 0>} : (tensor<?x128xi8>, tensor<128x128xi8>, tensor<128xi32>) -> tensor<?x128xi32>
    %45 = tosa.rescale %44 {double_round = true, input_zp = 0 : i32, multiplier = array<i32: 1105921578>, output_zp = -128 : i32, per_channel = false, scale32 = true, shift = array<i32: 37>} : (tensor<?x128xi32>) -> tensor<?x128xi8>
    %46 = tosa.clamp %45 {max_fp = 0.000000e+00 : f32, max_int = 127 : i64, min_fp = 0.000000e+00 : f32, min_int = -128 : i64} : (tensor<?x128xi8>) -> tensor<?x128xi8>
    %47 = tosa.fully_connected %46, %1, %0 {quantization_info = #tosa.conv_quant<input_zp = -128, weight_zp = 0>} : (tensor<?x128xi8>, tensor<640x128xi8>, tensor<640xi32>) -> tensor<?x640xi32>
    %48 = tosa.rescale %47 {double_round = true, input_zp = 0 : i32, multiplier = array<i32: 1462485049>, output_zp = 96 : i32, per_channel = false, scale32 = true, shift = array<i32: 40>} : (tensor<?x640xi32>) -> tensor<?x640xi8>
    return %48 : tensor<?x640xi8>
  }
}

