#map = affine_map<(d0, d1, d2, d3) -> ()>
#map1 = affine_map<(d0, d1, d2, d3) -> (d0, d1, d2, d3)>
#map2 = affine_map<(d0, d1, d2, d3, d4, d5, d6) -> (d0, d1 * 2 + d4, d2 * 2 + d5, d6)>
#map3 = affine_map<(d0, d1, d2, d3, d4, d5, d6) -> (d3, d4, d5, d6)>
#map4 = affine_map<(d0, d1, d2, d3, d4, d5, d6) -> ()>
#map5 = affine_map<(d0, d1, d2, d3, d4, d5, d6) -> (d0, d1, d2, d3)>
#map6 = affine_map<(d0, d1, d2, d3) -> (d3)>
#map7 = affine_map<(d0, d1, d2, d3, d4) -> ()>
#map8 = affine_map<(d0, d1, d2, d3, d4) -> (d0, d1, d2, d3, d4)>
#map9 = affine_map<(d0, d1, d2, d3, d4, d5, d6) -> (d0, d1 + d5, d2 + d6, d3)>
#map10 = affine_map<(d0, d1, d2, d3, d4, d5, d6) -> (d5, d6, d3, d4)>
#map11 = affine_map<(d0, d1, d2, d3, d4, d5, d6) -> (d0, d1, d2, d3, d4)>
#map12 = affine_map<(d0, d1, d2, d3, d4, d5, d6) -> (d0, d1 + d4, d2 + d5, d6)>
#map13 = affine_map<(d0, d1, d2, d3, d4, d5, d6) -> (d0, d1 * 2 + d5, d2 * 2 + d6, d3)>
#map14 = affine_map<(d0, d1, d2, d3, d4, d5) -> (d0, d1 * 3 + d4, d2 * 3 + d5, d3)>
#map15 = affine_map<(d0, d1, d2, d3, d4, d5) -> (d4, d5)>
#map16 = affine_map<(d0, d1, d2, d3, d4, d5) -> (d0, d1, d2, d3)>
#map17 = affine_map<(d0, d1) -> ()>
#map18 = affine_map<(d0, d1) -> (d0, d1)>
#map19 = affine_map<(d0, d1) -> (d1, d0)>
#map20 = affine_map<(d0, d1, d2) -> (d0, d2)>
#map21 = affine_map<(d0, d1, d2) -> (d2, d1)>
#map22 = affine_map<(d0, d1, d2) -> ()>
#map23 = affine_map<(d0, d1, d2) -> (d0, d1)>
#map24 = affine_map<(d0, d1) -> (d1)>
#map25 = affine_map<(d0, d1) -> (0, 0)>
#map26 = affine_map<(d0) -> ()>
#map27 = affine_map<(d0) -> (d0)>
#map28 = affine_map<(d0, d1) -> (d0)>
#map29 = affine_map<(d0, d1) -> (0, d1)>
#map30 = affine_map<(d0, d1) -> (d0, 0)>
module {
  func.func @main(%arg0: tensor<?x96x96x3xi8> {ml_program.identifier = "input_1_int8"}) -> (tensor<?x2xi8> {ml_program.identifier = "Identity_int8"}) {
    %c1908874355_i64 = arith.constant 1908874355 : i64
    %c8589934592_i64 = arith.constant 8589934592 : i64
    %c34_i64 = arith.constant 34 : i64
    %c137438953472_i64 = arith.constant 137438953472 : i64
    %c1387987940_i64 = arith.constant 1387987940 : i64
    %c38_i64 = arith.constant 38 : i64
    %cst = arith.constant 1.270000e+02 : f32
    %cst_0 = arith.constant -1.280000e+02 : f32
    %cst_1 = arith.constant 1.000000e+00 : f32
    %cst_2 = arith.constant 0.000000e+00 : f32
    %cst_3 = arith.constant -3.40282347E+38 : f32
    %c-5_i32 = arith.constant -5 : i32
    %c1 = arith.constant 1 : index
    %cst_4 = arith.constant dense<"…"> : tensor<256xi8>
    %cst_5 = arith.constant dense<"…"> : tensor<256xi32>
    %cst_6 = arith.constant dense<"…"> : tensor<256xi8>
    %cst_7 = arith.constant dense<"…"> : tensor<256xi32>
    %cst_8 = arith.constant dense<"…"> : tensor<256xi8>
    %cst_9 = arith.constant dense<"…"> : tensor<256xi32>
    %cst_10 = arith.constant dense<"…"> : tensor<128xi8>
    %cst_11 = arith.constant dense<"…"> : tensor<128xi32>
    %cst_12 = arith.constant dense<"…"> : tensor<128xi8>
    %cst_13 = arith.constant dense<"…"> : tensor<128xi32>
    %cst_14 = arith.constant dense<"…"> : tensor<128xi8>
    %cst_15 = arith.constant dense<"…"> : tensor<128xi32>
    %cst_16 = arith.constant dense<"…"> : tensor<128xi8>
    %cst_17 = arith.constant dense<"…"> : tensor<128xi32>
    %cst_18 = arith.constant dense<"…"> : tensor<128xi8>
    %cst_19 = arith.constant dense<"…"> : tensor<128xi32>
    %cst_20 = arith.constant dense<"…"> : tensor<128xi8>
    %cst_21 = arith.constant dense<"…"> : tensor<128xi32>
    %cst_22 = arith.constant dense<"…"> : tensor<128xi8>
    %cst_23 = arith.constant dense<"…"> : tensor<128xi32>
    %cst_24 = arith.constant dense<"…"> : tensor<128xi8>
    %cst_25 = arith.constant dense<"…"> : tensor<128xi32>
    %cst_26 = arith.constant dense<"…"> : tensor<128xi8>
    %cst_27 = arith.constant dense<"…"> : tensor<128xi32>
    %cst_28 = arith.constant dense<"…"> : tensor<128xi8>
    %cst_29 = arith.constant dense<"…"> : tensor<128xi32>
    %cst_30 = arith.constant dense<"…"> : tensor<128xi8>
    %cst_31 = arith.constant dense<"…"> : tensor<128xi32>
    %cst_32 = arith.constant dense<"…"> : tensor<128xi8>
    %cst_33 = arith.constant dense<"…"> : tensor<128xi32>
    %cst_34 = arith.constant dense<[38, 39, 39, 36, 38, 38, 38, 38, 38, 37, 39, 39, 36, 36, 39, 38, 39, 39, 39, 39, 36, 38, 38, 38, 38, 38, 39, 38, 38, 39, 38, 37, 37, 38, 39, 39, 37, 37, 38, 38, 38, 38, 39, 38, 39, 39, 38, 34, 37, 36, 38, 38, 39, 38, 38, 39, 38, 38, 40, 38, 38, 39, 38, 38]> : tensor<64xi8>
    %cst_35 = arith.constant dense<[1430417073, 2026294151, 1927609748, 1797152475, 1162569442, 1119295637, 1425129537, 1091985597, 1648149135, 1389213699, 1543034853, 1851835543, 1472114639, 1795530575, 1634699063, 1322203584, 1646078939, 1621652095, 1186749834, 1889616454, 1598229674, 1520488419, 1628810559, 1715451832, 1181401885, 1256965347, 2118542821, 1180362221, 2032146010, 1875052606, 1521815631, 1172902746, 1172552210, 1206046262, 2008445409, 1683982784, 1264070189, 1214605814, 1427533293, 1137788550, 1310875691, 1557357283, 1958275515, 1109410864, 1545072150, 1800790129, 1239356500, 1280476748, 1147973631, 1730477909, 1703841076, 1186770557, 2131646573, 1494170276, 1307423607, 1987741336, 1973631638, 1797463321, 2086002966, 1143645209, 1758650121, 1662556917, 1215268835, 1756125422]> : tensor<64xi32>
    %cst_36 = arith.constant dense<[39, 39, 39, 58, 39, 39, 39, 38, 38, 39, 38, 38, 57, 57, 38, 39, 38, 38, 38, 38, 40, 38, 39, 39, 38, 38, 39, 38, 39, 38, 39, 40, 39, 38, 38, 38, 39, 39, 40, 38, 39, 39, 38, 38, 38, 38, 39, 57, 40, 40, 39, 38, 38, 39, 39, 39, 39, 39, 38, 39, 39, 38, 39, 39]> : tensor<64xi8>
    %cst_37 = arith.constant dense<[1595487187, 1953384587, 1607700873, 1320764593, 1929698871, 1483112397, 2035934605, 1210112842, 1163299456, 1086611583, 2107533590, 1489252135, 1569364972, 1171292447, 1244071952, 1625796589, 1556516418, 1550030167, 1491284503, 1185098139, 1887302457, 1182389087, 1931743226, 1749417847, 1099799637, 1077716755, 1587026728, 1153081635, 1182490426, 1138820053, 1568653555, 1662319008, 1306552727, 1187332095, 1437018738, 1411609575, 1207045697, 1625780516, 1940934852, 1418616280, 1989423058, 1821774969, 1193021119, 1670069412, 1728374033, 1710556999, 1677558295, 1737221868, 1843064368, 1487160788, 1579481455, 1221566075, 1764568598, 1977737316, 1589708675, 1929099009, 1424620490, 1300771082, 1629953402, 1445467755, 1170984071, 1194994781, 1501137966, 1230961469]> : tensor<64xi32>
    %cst_38 = arith.constant dense<[36, 38, 38, 38, 36, 37, 37, 39, 38, 37, 37, 38, 38, 37, 37, 37, 37, 39, 37, 37, 37, 38, 37, 37, 38, 38, 38, 38, 38, 37, 39, 38, 38, 37, 38, 37, 37, 37, 38, 37, 38, 38, 38, 39, 38, 39, 37, 39, 38, 38, 38, 37, 37, 37, 38, 37, 38, 37, 38, 37, 38, 37, 37, 37]> : tensor<64xi8>
    %cst_39 = arith.constant dense<[1243458175, 1700278421, 2046320159, 1388655650, 1126270643, 1799349941, 1239030393, 2064818134, 1440647447, 1613207706, 1305052744, 1987673645, 1439088061, 1366393262, 1482048890, 1196037649, 1085912379, 1794458510, 1226099630, 1347422139, 1116649633, 2075305652, 1517941885, 1075749327, 1634031274, 1937785050, 1430059626, 1868696104, 1322997912, 1427049768, 1541525946, 1418904433, 1581480717, 1145554580, 1418551218, 1890815382, 1367193029, 1531560714, 2138685417, 1523424624, 1713909661, 2077860220, 1648436445, 1991308625, 1244770350, 2141522784, 1317219835, 1624073515, 1526873056, 1531298305, 2103530132, 1110912210, 1135971945, 1129151196, 1655056588, 1238788374, 1973082304, 1316012777, 1958985768, 1160699235, 2054832766, 1202874102, 1620144843, 1120360348]> : tensor<64xi32>
    %cst_40 = arith.constant dense<[40, 39, 39, 39, 39, 40, 39, 38, 39, 39, 38, 39, 39, 39, 39, 38, 39, 38, 39, 38, 39, 38, 40, 39, 38, 39, 38, 38, 38, 39, 38, 38, 38, 39, 38, 39, 39, 39, 39, 39, 38, 39, 38, 39, 38, 37, 39, 38, 38, 38, 39, 39, 39, 39, 39, 39, 38, 38, 39, 40, 39, 39, 39, 39]> : tensor<64xi8>
    %cst_41 = arith.constant dense<[1955282540, 1579959423, 1447996618, 2084237596, 1275775098, 2081543380, 1450957465, 1423214114, 1759248074, 1100988104, 1700873923, 1845333800, 1230060999, 1108090059, 1313990813, 1316854693, 2005354661, 1806449397, 1866325428, 1075289863, 1457337382, 1134073105, 2134325313, 1619077979, 1492693790, 1752887621, 1296785135, 1180198172, 1143809361, 1897205271, 1650090668, 1080487175, 1319073922, 1788367260, 1449633807, 1078924441, 1598513265, 1143818976, 1437660852, 1717375737, 1626915455, 1361284296, 1299651243, 2080328649, 1643345042, 1099368502, 1550248349, 1407080589, 1257617099, 1655353994, 2036523530, 1203902074, 1786195753, 1815191473, 1538112882, 1693517649, 1490275584, 1100166285, 1371141204, 1765232030, 1750458276, 1893754896, 1842939279, 2128243685]> : tensor<64xi32>
    %cst_42 = arith.constant dense<[36, 38, 36, 38, 37, 37, 38, 38, 38, 36, 38, 37, 38, 38, 38, 38, 38, 37, 37, 38, 38, 38, 38, 39, 38, 38, 38, 39, 37, 39, 39, 37]> : tensor<32xi8>
    %cst_43 = arith.constant dense<[1116805413, 1494305519, 1121370940, 1690084744, 1906525973, 1284359072, 1635062873, 1514385068, 1770799560, 1173429631, 1357211117, 1483780611, 1460491508, 1924919614, 1594828194, 1550701066, 1900772606, 1769830208, 1079777995, 1354317281, 1416057010, 1957586603, 1483576155, 1802264766, 1618203427, 1853050220, 1376695095, 1931000073, 1073982067, 1516074003, 1927345927, 1367153480]> : tensor<32xi32>
    %cst_44 = arith.constant dense<[39, 38, 39, 39, 39, 39, 39, 37, 39, 39, 38, 39, 38, 38, 38, 37, 39, 39, 39, 38, 39, 39, 38, 38, 39, 38, 39, 38, 38, 37, 37, 38]> : tensor<32xi8>
    %cst_45 = arith.constant dense<[1710192701, 2083168648, 1168689860, 2138090880, 1425936817, 1592508877, 1726876036, 1152568772, 2081918229, 1172171892, 1341608583, 2035192600, 1353299434, 1113353591, 2033075073, 1287248599, 2142049407, 1588358317, 1861983372, 1328499583, 1962083382, 1585945877, 1827176390, 1098434695, 1918718774, 1237596889, 1904740777, 1492824162, 1332733252, 1202184971, 1103384616, 1243885754]> : tensor<32xi32>
    %cst_46 = arith.constant dense<[38, 36, 38, 38, 38, 37, 37, 37, 37, 38, 37, 38, 38, 37, 37, 38, 37, 37, 37, 37, 36, 38, 37, 37, 38, 37, 38, 38, 38, 38, 38, 38]> : tensor<32xi8>
    %cst_47 = arith.constant dense<[1977545271, 1489544133, 1462272696, 1113542160, 1275734482, 1484223587, 1406050503, 1205329682, 1078033883, 1191826471, 1097082255, 1730110921, 1802777803, 1211544782, 1341010557, 1235199765, 1405155539, 1147167783, 1114508569, 1265305462, 1413066815, 1542342207, 1370202786, 1443028595, 1748058732, 1857646138, 1583521780, 1829439645, 2081596562, 1527616618, 1980074938, 1256659381]> : tensor<32xi32>
    %cst_48 = arith.constant dense<[39, 40, 38, 38, 39, 39, 39, 38, 38, 38, 38, 38, 37, 38, 38, 39, 38, 39, 38, 39, 39, 38, 39, 38, 37, 40, 39, 39, 38, 38, 38, 38]> : tensor<32xi8>
    %cst_49 = arith.constant dense<[1767411713, 1763559686, 1525844111, 1494493824, 1813769552, 1173590329, 2123988210, 1502771114, 1213741737, 1415458107, 1261352937, 1388146025, 1295061967, 1245209636, 1942248249, 1740164583, 1105266322, 1229387839, 1567480970, 2096859173, 1771123112, 1273897269, 1236698809, 1111124858, 1143862506, 2139635637, 2050267798, 1243261450, 1469351414, 2043273753, 1991967302, 1221293233]> : tensor<32xi32>
    %cst_50 = arith.constant dense<[39, 39, 38, 37, 37, 37, 38, 38, 37, 38, 36, 37, 39, 38, 39, 38]> : tensor<16xi8>
    %cst_51 = arith.constant dense<[1708841872, 2035120732, 1755327149, 1102250035, 2061352956, 1700200755, 1181457292, 1515078530, 1342733388, 1946705614, 1290012645, 1133273217, 1868352483, 2041886983, 1951811605, 1209859860]> : tensor<16xi32>
    %cst_52 = arith.constant dense<[37, 37, 38, 39, 39, 38, 37, 37, 39, 38, 38, 38, 37, 38, 37, 37]> : tensor<16xi8>
    %cst_53 = arith.constant dense<[1740558766, 1549241289, 2047988959, 2067897361, 1571691479, 1340550847, 1424193573, 1829389410, 2072712549, 1218009532, 1496189387, 1430332007, 1762944717, 1272555712, 1403573372, 1663644963]> : tensor<16xi32>
    %cst_54 = arith.constant dense<[39, 38, 39, 38, 38, 36, 38, 38]> : tensor<8xi8>
    %cst_55 = arith.constant dense<[1774938322, 1243371083, 1245972338, 1646402194, 1255879271, 1190494641, 1703681304, 1526575410]> : tensor<8xi32>
    %c127_i8 = arith.constant 127 : i8
    %c127_i32 = arith.constant 127 : i32
    %c-1073741824_i64 = arith.constant -1073741824 : i64
    %c1073741824_i64 = arith.constant 1073741824 : i64
    %c31_i32 = arith.constant 31 : i32
    %c1_i64 = arith.constant 1 : i64
    %cst_56 = arith.constant dense<[38, 39, 39, 39, 40, 41, 39, 40]> : tensor<8xi8>
    %cst_57 = arith.constant dense<[1179182713, 1673859857, 1629160017, 1965349095, 2002280840, 1493832051, 1343198053, 1089360004]> : tensor<8xi32>
    %c-128_i32 = arith.constant -128 : i32
    %c0_i32 = arith.constant 0 : i32
    %c-128_i8 = arith.constant -128 : i8
    %cst_58 = arith.constant dense<"…"> : tensor<3x3x256x1xi8>
    %cst_59 = arith.constant dense<"…"> : tensor<3x3x128x1xi8>
    %cst_60 = arith.constant dense<"…"> : tensor<3x3x128x1xi8>
    %cst_61 = arith.constant dense<"…"> : tensor<3x3x128x1xi8>
    %cst_62 = arith.constant dense<"…"> : tensor<3x3x128x1xi8>
    %cst_63 = arith.constant dense<"…"> : tensor<3x3x128x1xi8>
    %cst_64 = arith.constant dense<"…"> : tensor<3x3x128x1xi8>
    %cst_65 = arith.constant dense<"…"> : tensor<3x3x64x1xi8>
    %cst_66 = arith.constant dense<"…"> : tensor<3x3x64x1xi8>
    %cst_67 = arith.constant dense<"…"> : tensor<3x3x32x1xi8>
    %cst_68 = arith.constant dense<"…"> : tensor<3x3x32x1xi8>
    %cst_69 = arith.constant dense<"…"> : tensor<3x3x16x1xi8>
    %cst_70 = arith.constant dense<[[[[-74], [-113], [-71], [-27], [-40], [-57], [81], [41]], [[-5], [6], [-30], [-18], [-40], [57], [1], [49]], [[-77], [-7], [-11], [-3], [25], [49], [47], [-26]]], [[[108], [78], [16], [17], [52], [23], [-103], [-14]], [[127], [44], [75], [-1], [33], [-127], [-127], [-127]], [[40], [-27], [-25], [-3], [-62], [24], [13], [38]]], [[[42], [127], [127], [-1], [50], [17], [34], [-73]], [[44], [66], [70], [127], [127], [50], [-72], [-63]], [[-91], [-104], [-1], [-46], [-72], [-82], [75], [60]]]]> : tensor<3x3x8x1xi8>
    %cst_71 = arith.constant dense<-5.000000e+00> : tensor<1x1xf32>
    %cst_72 = arith.constant dense<0.0146362185> : tensor<1x1xf32>
    %cst_73 = arith.constant dense<2.560000e+02> : tensor<1x1xf32>
    %cst_74 = arith.constant dense<-1.280000e+02> : tensor<1x1xf32>
    %cst_75 = arith.constant dense<[1463, -1463]> : tensor<2xi32>
    %cst_76 = arith.constant dense<"…"> : tensor<2x256xi8>
    %cst_77 = arith.constant dense<"…"> : tensor<256xi32>
    %cst_78 = arith.constant dense<"…"> : tensor<256x1x1x256xi8>
    %cst_79 = arith.constant dense<"…"> : tensor<256xi32>
    %cst_80 = arith.constant dense<"…"> : tensor<256xi32>
    %cst_81 = arith.constant dense<"…"> : tensor<256x1x1x128xi8>
    %cst_82 = arith.constant dense<"…"> : tensor<128xi32>
    %cst_83 = arith.constant dense<"…"> : tensor<128xi32>
    %cst_84 = arith.constant dense<"…"> : tensor<128x1x1x128xi8>
    %cst_85 = arith.constant dense<"…"> : tensor<128xi32>
    %cst_86 = arith.constant dense<"…"> : tensor<128xi32>
    %cst_87 = arith.constant dense<"…"> : tensor<128x1x1x128xi8>
    %cst_88 = arith.constant dense<"…"> : tensor<128xi32>
    %cst_89 = arith.constant dense<"…"> : tensor<128xi32>
    %cst_90 = arith.constant dense<"…"> : tensor<128x1x1x128xi8>
    %cst_91 = arith.constant dense<"…"> : tensor<128xi32>
    %cst_92 = arith.constant dense<"…"> : tensor<128xi32>
    %cst_93 = arith.constant dense<"…"> : tensor<128x1x1x128xi8>
    %cst_94 = arith.constant dense<"…"> : tensor<128xi32>
    %cst_95 = arith.constant dense<"…"> : tensor<128xi32>
    %cst_96 = arith.constant dense<"…"> : tensor<128x1x1x128xi8>
    %cst_97 = arith.constant dense<"…"> : tensor<128xi32>
    %cst_98 = arith.constant dense<"…"> : tensor<128xi32>
    %cst_99 = arith.constant dense<"…"> : tensor<128x1x1x64xi8>
    %cst_100 = arith.constant dense<[-1479, 9944, -434, 1837, -5117, -577, 197, 711, 10279, -670, -9031, 10509, 2416, -578, -5517, -1395, 16288, -9296, -10300, 13592, 14, -651, -2908, -2118, -3054, 203, -6395, -3608, 14674, -2819, -4765, 5024, -1931, -805, -3280, -815, 4334, -1312, 10166, -2772, 10462, -2073, -6587, -10116, 18390, 17714, -4264, -215, 8907, -119, 57, -390, 15620, -2427, 1380, -5181, 324, -1703, -3909, -3993, 1480, -3968, -5178, 1064]> : tensor<64xi32>
    %cst_101 = arith.constant dense<[895, -14621, 3587, 1073741760, 5272, -2098, 637, -2477, 10261, -16174, -3386, 2551, 1073741824, -1073741824, -9162, 361, 2254, -419, 1171, 1449, -12488, -2305, -4290, -10244, 2962, -4352, -9497, 47, 190, -411, -9975, 21861, 8838, 5818, -2948, 3860, 500, -14437, 9963, -728, -3020, -11482, -1176, -2745, 9377, 3814, 580, -1073741824, 10600, -10374, 9637, 1934, -1016, 1180, -459, -3738, -2658, 10153, -2623, 9812, -1637, 986, 2244, -185]> : tensor<64xi32>
    %cst_102 = arith.constant dense<"…"> : tensor<64x1x1x64xi8>
    %cst_103 = arith.constant dense<[-230, -3345, 3352, -4400, -423, -932, -325, -5482, -3116, 1589, -667, -2888, -6702, -201, 840, -1033, -710, -6680, 910, 3329, -1762, -2358, 2758, 4281, -125, -1928, -3800, 4100, 11712, 371, -5756, 1008, -191, 3458, 4092, -1283, 779, -1433, -6402, -475, 6984, -75, -1175, -6046, -4662, 7947, -1348, -3567, 18, 346, -220, -220, 770, 3828, 4184, -389, -2191, -889, 3340, -1526, -722, 627, 61, 2658]> : tensor<64xi32>
    %cst_104 = arith.constant dense<[15956, 975, 9376, -144, -11245, 6122, 12378, -2234, 2141, 9436, 1510, 11065, 8290, 13436, 10620, 570, -6686, -10103, -2453, -13392, 4228, -4673, 17029, 17946, 6977, 2014, 2116, 4818, 10045, 2746, -895, 12392, -13918, 14911, -11728, 14470, 6843, 6772, 18653, 8138, 4268, 2888, 4412, 5934, -3099, 5267, 9423, 13912, -2986, 5640, 8784, -5368, 11416, 11088, -6580, 20470, 13620, 7383, 3244, 27452, -1336, 7875, -3676, -288]> : tensor<64xi32>
    %cst_105 = arith.constant dense<"…"> : tensor<64x1x1x32xi8>
    %cst_106 = arith.constant dense<[116, 9317, 1182, 1079, 2366, 8784, 440, 9400, 11013, 202, -7340, -395, -1934, 10160, 6805, 10270, 9382, 13314, 10073, 8164, -4276, 10052, -1347, -4775, -2234, -1176, 14306, -158, 7960, 1353, 1159, 6309]> : tensor<32xi32>
    %cst_107 = arith.constant dense<[-5126, 3473, 6204, 2309, 3709, 1513, -717, -2251, 3247, 4328, 3538, 3492, 2294, -2112, -261, 946, 4008, 7364, 8074, -1135, 2049, 6646, -2086, 1950, 1415, 5098, 3866, -2008, -438, -2822, 4983, 2993]> : tensor<32xi32>
    %cst_108 = arith.constant dense<"…"> : tensor<32x1x1x32xi8>
    %cst_109 = arith.constant dense<[-4022, -1190, 3563, -4529, 6490, 2210, -680, 3026, -109, -1759, -300, 1686, 202, 2051, -1403, -3368, -171, -32, -351, -846, 871, -4029, 3766, 57, 4585, 101, -2373, -475, -394, -94, 7402, -4489]> : tensor<32xi32>
    %cst_110 = arith.constant dense<[-2541, 14950, -4824, -4847, 5154, 3978, -693, -9367, 10924, 1481, -2643, -130, -9312, -269, -2186, 3525, -6653, -966, -6803, -1263, 3494, 6204, 350, 5658, -6192, 5517, -22586, 8517, -2158, -4145, 446, -6711]> : tensor<32xi32>
    %cst_111 = arith.constant dense<"…"> : tensor<32x1x1x16xi8>
    %cst_112 = arith.constant dense<[-1678, 11463, 10067, 182, 7018, 703, 417, 11033, 3731, -6483, -303, 13894, -6733, -3723, 10421, 11383]> : tensor<16xi32>
    %cst_113 = arith.constant dense<[-1832, 2518, -909, 3142, 5726, 493, -2770, 3802, 8393, -144, 7745, 3927, -3660, -221, 5163, -327]> : tensor<16xi32>
    %cst_114 = arith.constant dense<"…"> : tensor<16x1x1x8xi8>
    %cst_115 = arith.constant dense<[-1066, -291, -2269, 2239, -115, 3445, 5252, 6322]> : tensor<8xi32>
    %cst_116 = arith.constant dense<[12398, 12434, 33904, 18963, 50193, 77222, 15216, 89048]> : tensor<8xi32>
    %cst_117 = arith.constant dense<"…"> : tensor<8x3x3x3xi8>
    %c0 = arith.constant 0 : index
    %dim = tensor.dim %arg0, %c0 : tensor<?x96x96x3xi8>
    %padded = tensor.pad %arg0 low[0, 0, 0, 0] high[0, 1, 1, 0] {
    ^bb0(%arg1: index, %arg2: index, %arg3: index, %arg4: index):
      tensor.yield %c-128_i8 : i8
    } : tensor<?x96x96x3xi8> to tensor<?x97x97x3xi8>
    %0 = tensor.empty(%dim) : tensor<?x48x48x8xi32>
    %1 = linalg.generic {indexing_maps = [#map, #map1], iterator_types = ["parallel", "parallel", "parallel", "parallel"]} ins(%c0_i32 : i32) outs(%0 : tensor<?x48x48x8xi32>) {
    ^bb0(%in: i32, %out: i32):
      linalg.yield %in : i32
    } -> tensor<?x48x48x8xi32>
    %2 = tensor.empty(%dim) : tensor<?x48x48x8xi32>
    %3 = linalg.generic {indexing_maps = [#map2, #map3, #map4, #map4, #map5], iterator_types = ["parallel", "parallel", "parallel", "parallel", "reduction", "reduction", "reduction"]} ins(%padded, %cst_117, %c-128_i32, %c0_i32 : tensor<?x97x97x3xi8>, tensor<8x3x3x3xi8>, i32, i32) outs(%1 : tensor<?x48x48x8xi32>) {
    ^bb0(%in: i8, %in_247: i8, %in_248: i32, %in_249: i32, %out: i32):
      %294 = arith.extsi %in : i8 to i32
      %295 = arith.subi %294, %in_248 : i32
      %296 = arith.extsi %in_247 : i8 to i32
      %297 = arith.subi %296, %in_249 : i32
      %298 = arith.muli %295, %297 : i32
      %299 = arith.addi %out, %298 : i32
      linalg.yield %299 : i32
    } -> tensor<?x48x48x8xi32>
    %4 = linalg.generic {indexing_maps = [#map6, #map1, #map1], iterator_types = ["parallel", "parallel", "parallel", "parallel"]} ins(%cst_116, %3 : tensor<8xi32>, tensor<?x48x48x8xi32>) outs(%2 : tensor<?x48x48x8xi32>) {
    ^bb0(%in: i32, %in_247: i32, %out: i32):
      %294 = arith.addi %in, %in_247 : i32
      linalg.yield %294 : i32
    } -> tensor<?x48x48x8xi32>
    %dim_118 = tensor.dim %4, %c0 : tensor<?x48x48x8xi32>
    %5 = tensor.empty(%dim_118) : tensor<?x48x48x8xi8>
    %6 = linalg.generic {indexing_maps = [#map1, #map6, #map6, #map1], iterator_types = ["parallel", "parallel", "parallel", "parallel"]} ins(%4, %cst_57, %cst_56 : tensor<?x48x48x8xi32>, tensor<8xi32>, tensor<8xi8>) outs(%5 : tensor<?x48x48x8xi8>) {
    ^bb0(%in: i32, %in_247: i32, %in_248: i8, %out: i8):
      %294 = arith.extui %in_248 : i8 to i32
      %295 = arith.extsi %in : i32 to i64
      %296 = arith.extsi %in_247 : i32 to i64
      %297 = arith.muli %295, %296 : i64
      %298 = arith.extui %in_248 : i8 to i64
      %299 = arith.shli %c1_i64, %298 : i64
      %300 = arith.shrui %299, %c1_i64 : i64
      %301 = arith.addi %297, %300 : i64
      %302 = arith.cmpi sge, %in, %c0_i32 : i32
      %303 = arith.select %302, %c1073741824_i64, %c-1073741824_i64 : i64
      %304 = arith.addi %303, %301 : i64
      %305 = arith.cmpi sgt, %294, %c31_i32 : i32
      %306 = arith.select %305, %304, %301 : i64
      %307 = arith.shrsi %306, %298 : i64
      %308 = arith.trunci %307 : i64 to i32
      %309 = arith.addi %308, %c-128_i32 : i32
      %310 = arith.cmpi slt, %309, %c-128_i32 : i32
      %311 = arith.select %310, %c-128_i32, %309 : i32
      %312 = arith.cmpi sgt, %309, %c127_i32 : i32
      %313 = arith.select %312, %c127_i32, %311 : i32
      %314 = arith.trunci %313 : i32 to i8
      linalg.yield %314 : i8
    } -> tensor<?x48x48x8xi8>
    %dim_119 = tensor.dim %6, %c0 : tensor<?x48x48x8xi8>
    %7 = tensor.empty(%dim_119) : tensor<?x48x48x8xi8>
    %8 = linalg.generic {indexing_maps = [#map1, #map1], iterator_types = ["parallel", "parallel", "parallel", "parallel"]} ins(%6 : tensor<?x48x48x8xi8>) outs(%7 : tensor<?x48x48x8xi8>) {
    ^bb0(%in: i8, %out: i8):
      %294 = arith.cmpi slt, %in, %c-128_i8 : i8
      %295 = arith.select %294, %c-128_i8, %in : i8
      %296 = arith.cmpi sgt, %in, %c127_i8 : i8
      %297 = arith.select %296, %c127_i8, %295 : i8
      linalg.yield %297 : i8
    } -> tensor<?x48x48x8xi8>
    %dim_120 = tensor.dim %8, %c0 : tensor<?x48x48x8xi8>
    %padded_121 = tensor.pad %8 low[0, 1, 1, 0] high[0, 1, 1, 0] {
    ^bb0(%arg1: index, %arg2: index, %arg3: index, %arg4: index):
      tensor.yield %c-128_i8 : i8
    } : tensor<?x48x48x8xi8> to tensor<?x50x50x8xi8>
    %9 = tensor.empty(%dim_120) : tensor<?x48x48x8x1xi32>
    %10 = linalg.generic {indexing_maps = [#map7, #map8], iterator_types = ["parallel", "parallel", "parallel", "parallel", "parallel"]} ins(%c0_i32 : i32) outs(%9 : tensor<?x48x48x8x1xi32>) {
    ^bb0(%in: i32, %out: i32):
      linalg.yield %in : i32
    } -> tensor<?x48x48x8x1xi32>
    %11 = tensor.empty(%dim_120) : tensor<?x48x48x8xi32>
    %12 = linalg.generic {indexing_maps = [#map9, #map10, #map4, #map4, #map11], iterator_types = ["parallel", "parallel", "parallel", "parallel", "parallel", "reduction", "reduction"]} ins(%padded_121, %cst_70, %c-128_i32, %c0_i32 : tensor<?x50x50x8xi8>, tensor<3x3x8x1xi8>, i32, i32) outs(%10 : tensor<?x48x48x8x1xi32>) {
    ^bb0(%in: i8, %in_247: i8, %in_248: i32, %in_249: i32, %out: i32):
      %294 = arith.extsi %in : i8 to i32
      %295 = arith.subi %294, %in_248 : i32
      %296 = arith.extsi %in_247 : i8 to i32
      %297 = arith.subi %296, %in_249 : i32
      %298 = arith.muli %295, %297 : i32
      %299 = arith.addi %out, %298 : i32
      linalg.yield %299 : i32
    } -> tensor<?x48x48x8x1xi32>
    %collapsed = tensor.collapse_shape %12 [[0], [1], [2], [3, 4]] : tensor<?x48x48x8x1xi32> into tensor<?x48x48x8xi32>
    %13 = linalg.generic {indexing_maps = [#map6, #map1, #map1], iterator_types = ["parallel", "parallel", "parallel", "parallel"]} ins(%cst_115, %collapsed : tensor<8xi32>, tensor<?x48x48x8xi32>) outs(%11 : tensor<?x48x48x8xi32>) {
    ^bb0(%in: i32, %in_247: i32, %out: i32):
      %294 = arith.addi %in, %in_247 : i32
      linalg.yield %294 : i32
    } -> tensor<?x48x48x8xi32>
    %dim_122 = tensor.dim %13, %c0 : tensor<?x48x48x8xi32>
    %14 = tensor.empty(%dim_122) : tensor<?x48x48x8xi8>
    %15 = linalg.generic {indexing_maps = [#map1, #map6, #map6, #map1], iterator_types = ["parallel", "parallel", "parallel", "parallel"]} ins(%13, %cst_55, %cst_54 : tensor<?x48x48x8xi32>, tensor<8xi32>, tensor<8xi8>) outs(%14 : tensor<?x48x48x8xi8>) {
    ^bb0(%in: i32, %in_247: i32, %in_248: i8, %out: i8):
      %294 = arith.extui %in_248 : i8 to i32
      %295 = arith.extsi %in : i32 to i64
      %296 = arith.extsi %in_247 : i32 to i64
      %297 = arith.muli %295, %296 : i64
      %298 = arith.extui %in_248 : i8 to i64
      %299 = arith.shli %c1_i64, %298 : i64
      %300 = arith.shrui %299, %c1_i64 : i64
      %301 = arith.addi %297, %300 : i64
      %302 = arith.cmpi sge, %in, %c0_i32 : i32
      %303 = arith.select %302, %c1073741824_i64, %c-1073741824_i64 : i64
      %304 = arith.addi %303, %301 : i64
      %305 = arith.cmpi sgt, %294, %c31_i32 : i32
      %306 = arith.select %305, %304, %301 : i64
      %307 = arith.shrsi %306, %298 : i64
      %308 = arith.trunci %307 : i64 to i32
      %309 = arith.addi %308, %c-128_i32 : i32
      %310 = arith.cmpi slt, %309, %c-128_i32 : i32
      %311 = arith.select %310, %c-128_i32, %309 : i32
      %312 = arith.cmpi sgt, %309, %c127_i32 : i32
      %313 = arith.select %312, %c127_i32, %311 : i32
      %314 = arith.trunci %313 : i32 to i8
      linalg.yield %314 : i8
    } -> tensor<?x48x48x8xi8>
    %dim_123 = tensor.dim %15, %c0 : tensor<?x48x48x8xi8>
    %16 = tensor.empty(%dim_123) : tensor<?x48x48x8xi8>
    %17 = linalg.generic {indexing_maps = [#map1, #map1], iterator_types = ["parallel", "parallel", "parallel", "parallel"]} ins(%15 : tensor<?x48x48x8xi8>) outs(%16 : tensor<?x48x48x8xi8>) {
    ^bb0(%in: i8, %out: i8):
      %294 = arith.cmpi slt, %in, %c-128_i8 : i8
      %295 = arith.select %294, %c-128_i8, %in : i8
      %296 = arith.cmpi sgt, %in, %c127_i8 : i8
      %297 = arith.select %296, %c127_i8, %295 : i8
      linalg.yield %297 : i8
    } -> tensor<?x48x48x8xi8>
    %dim_124 = tensor.dim %17, %c0 : tensor<?x48x48x8xi8>
    %18 = tensor.empty(%dim_124) : tensor<?x48x48x16xi32>
    %19 = linalg.generic {indexing_maps = [#map, #map1], iterator_types = ["parallel", "parallel", "parallel", "parallel"]} ins(%c0_i32 : i32) outs(%18 : tensor<?x48x48x16xi32>) {
    ^bb0(%in: i32, %out: i32):
      linalg.yield %in : i32
    } -> tensor<?x48x48x16xi32>
    %20 = tensor.empty(%dim_124) : tensor<?x48x48x16xi32>
    %21 = linalg.generic {indexing_maps = [#map12, #map3, #map4, #map4, #map5], iterator_types = ["parallel", "parallel", "parallel", "parallel", "reduction", "reduction", "reduction"]} ins(%17, %cst_114, %c-128_i32, %c0_i32 : tensor<?x48x48x8xi8>, tensor<16x1x1x8xi8>, i32, i32) outs(%19 : tensor<?x48x48x16xi32>) {
    ^bb0(%in: i8, %in_247: i8, %in_248: i32, %in_249: i32, %out: i32):
      %294 = arith.extsi %in : i8 to i32
      %295 = arith.subi %294, %in_248 : i32
      %296 = arith.extsi %in_247 : i8 to i32
      %297 = arith.subi %296, %in_249 : i32
      %298 = arith.muli %295, %297 : i32
      %299 = arith.addi %out, %298 : i32
      linalg.yield %299 : i32
    } -> tensor<?x48x48x16xi32>
    %22 = linalg.generic {indexing_maps = [#map6, #map1, #map1], iterator_types = ["parallel", "parallel", "parallel", "parallel"]} ins(%cst_113, %21 : tensor<16xi32>, tensor<?x48x48x16xi32>) outs(%20 : tensor<?x48x48x16xi32>) {
    ^bb0(%in: i32, %in_247: i32, %out: i32):
      %294 = arith.addi %in, %in_247 : i32
      linalg.yield %294 : i32
    } -> tensor<?x48x48x16xi32>
    %dim_125 = tensor.dim %22, %c0 : tensor<?x48x48x16xi32>
    %23 = tensor.empty(%dim_125) : tensor<?x48x48x16xi8>
    %24 = linalg.generic {indexing_maps = [#map1, #map6, #map6, #map1], iterator_types = ["parallel", "parallel", "parallel", "parallel"]} ins(%22, %cst_53, %cst_52 : tensor<?x48x48x16xi32>, tensor<16xi32>, tensor<16xi8>) outs(%23 : tensor<?x48x48x16xi8>) {
    ^bb0(%in: i32, %in_247: i32, %in_248: i8, %out: i8):
      %294 = arith.extui %in_248 : i8 to i32
      %295 = arith.extsi %in : i32 to i64
      %296 = arith.extsi %in_247 : i32 to i64
      %297 = arith.muli %295, %296 : i64
      %298 = arith.extui %in_248 : i8 to i64
      %299 = arith.shli %c1_i64, %298 : i64
      %300 = arith.shrui %299, %c1_i64 : i64
      %301 = arith.addi %297, %300 : i64
      %302 = arith.cmpi sge, %in, %c0_i32 : i32
      %303 = arith.select %302, %c1073741824_i64, %c-1073741824_i64 : i64
      %304 = arith.addi %303, %301 : i64
      %305 = arith.cmpi sgt, %294, %c31_i32 : i32
      %306 = arith.select %305, %304, %301 : i64
      %307 = arith.shrsi %306, %298 : i64
      %308 = arith.trunci %307 : i64 to i32
      %309 = arith.addi %308, %c-128_i32 : i32
      %310 = arith.cmpi slt, %309, %c-128_i32 : i32
      %311 = arith.select %310, %c-128_i32, %309 : i32
      %312 = arith.cmpi sgt, %309, %c127_i32 : i32
      %313 = arith.select %312, %c127_i32, %311 : i32
      %314 = arith.trunci %313 : i32 to i8
      linalg.yield %314 : i8
    } -> tensor<?x48x48x16xi8>
    %dim_126 = tensor.dim %24, %c0 : tensor<?x48x48x16xi8>
    %25 = tensor.empty(%dim_126) : tensor<?x48x48x16xi8>
    %26 = linalg.generic {indexing_maps = [#map1, #map1], iterator_types = ["parallel", "parallel", "parallel", "parallel"]} ins(%24 : tensor<?x48x48x16xi8>) outs(%25 : tensor<?x48x48x16xi8>) {
    ^bb0(%in: i8, %out: i8):
      %294 = arith.cmpi slt, %in, %c-128_i8 : i8
      %295 = arith.select %294, %c-128_i8, %in : i8
      %296 = arith.cmpi sgt, %in, %c127_i8 : i8
      %297 = arith.select %296, %c127_i8, %295 : i8
      linalg.yield %297 : i8
    } -> tensor<?x48x48x16xi8>
    %dim_127 = tensor.dim %26, %c0 : tensor<?x48x48x16xi8>
    %padded_128 = tensor.pad %26 low[0, 0, 0, 0] high[0, 1, 1, 0] {
    ^bb0(%arg1: index, %arg2: index, %arg3: index, %arg4: index):
      tensor.yield %c-128_i8 : i8
    } : tensor<?x48x48x16xi8> to tensor<?x49x49x16xi8>
    %27 = tensor.empty(%dim_127) : tensor<?x24x24x16x1xi32>
    %28 = linalg.generic {indexing_maps = [#map7, #map8], iterator_types = ["parallel", "parallel", "parallel", "parallel", "parallel"]} ins(%c0_i32 : i32) outs(%27 : tensor<?x24x24x16x1xi32>) {
    ^bb0(%in: i32, %out: i32):
      linalg.yield %in : i32
    } -> tensor<?x24x24x16x1xi32>
    %29 = tensor.empty(%dim_127) : tensor<?x24x24x16xi32>
    %30 = linalg.generic {indexing_maps = [#map13, #map10, #map4, #map4, #map11], iterator_types = ["parallel", "parallel", "parallel", "parallel", "parallel", "reduction", "reduction"]} ins(%padded_128, %cst_69, %c-128_i32, %c0_i32 : tensor<?x49x49x16xi8>, tensor<3x3x16x1xi8>, i32, i32) outs(%28 : tensor<?x24x24x16x1xi32>) {
    ^bb0(%in: i8, %in_247: i8, %in_248: i32, %in_249: i32, %out: i32):
      %294 = arith.extsi %in : i8 to i32
      %295 = arith.subi %294, %in_248 : i32
      %296 = arith.extsi %in_247 : i8 to i32
      %297 = arith.subi %296, %in_249 : i32
      %298 = arith.muli %295, %297 : i32
      %299 = arith.addi %out, %298 : i32
      linalg.yield %299 : i32
    } -> tensor<?x24x24x16x1xi32>
    %collapsed_129 = tensor.collapse_shape %30 [[0], [1], [2], [3, 4]] : tensor<?x24x24x16x1xi32> into tensor<?x24x24x16xi32>
    %31 = linalg.generic {indexing_maps = [#map6, #map1, #map1], iterator_types = ["parallel", "parallel", "parallel", "parallel"]} ins(%cst_112, %collapsed_129 : tensor<16xi32>, tensor<?x24x24x16xi32>) outs(%29 : tensor<?x24x24x16xi32>) {
    ^bb0(%in: i32, %in_247: i32, %out: i32):
      %294 = arith.addi %in, %in_247 : i32
      linalg.yield %294 : i32
    } -> tensor<?x24x24x16xi32>
    %dim_130 = tensor.dim %31, %c0 : tensor<?x24x24x16xi32>
    %32 = tensor.empty(%dim_130) : tensor<?x24x24x16xi8>
    %33 = linalg.generic {indexing_maps = [#map1, #map6, #map6, #map1], iterator_types = ["parallel", "parallel", "parallel", "parallel"]} ins(%31, %cst_51, %cst_50 : tensor<?x24x24x16xi32>, tensor<16xi32>, tensor<16xi8>) outs(%32 : tensor<?x24x24x16xi8>) {
    ^bb0(%in: i32, %in_247: i32, %in_248: i8, %out: i8):
      %294 = arith.extui %in_248 : i8 to i32
      %295 = arith.extsi %in : i32 to i64
      %296 = arith.extsi %in_247 : i32 to i64
      %297 = arith.muli %295, %296 : i64
      %298 = arith.extui %in_248 : i8 to i64
      %299 = arith.shli %c1_i64, %298 : i64
      %300 = arith.shrui %299, %c1_i64 : i64
      %301 = arith.addi %297, %300 : i64
      %302 = arith.cmpi sge, %in, %c0_i32 : i32
      %303 = arith.select %302, %c1073741824_i64, %c-1073741824_i64 : i64
      %304 = arith.addi %303, %301 : i64
      %305 = arith.cmpi sgt, %294, %c31_i32 : i32
      %306 = arith.select %305, %304, %301 : i64
      %307 = arith.shrsi %306, %298 : i64
      %308 = arith.trunci %307 : i64 to i32
      %309 = arith.addi %308, %c-128_i32 : i32
      %310 = arith.cmpi slt, %309, %c-128_i32 : i32
      %311 = arith.select %310, %c-128_i32, %309 : i32
      %312 = arith.cmpi sgt, %309, %c127_i32 : i32
      %313 = arith.select %312, %c127_i32, %311 : i32
      %314 = arith.trunci %313 : i32 to i8
      linalg.yield %314 : i8
    } -> tensor<?x24x24x16xi8>
    %dim_131 = tensor.dim %33, %c0 : tensor<?x24x24x16xi8>
    %34 = tensor.empty(%dim_131) : tensor<?x24x24x16xi8>
    %35 = linalg.generic {indexing_maps = [#map1, #map1], iterator_types = ["parallel", "parallel", "parallel", "parallel"]} ins(%33 : tensor<?x24x24x16xi8>) outs(%34 : tensor<?x24x24x16xi8>) {
    ^bb0(%in: i8, %out: i8):
      %294 = arith.cmpi slt, %in, %c-128_i8 : i8
      %295 = arith.select %294, %c-128_i8, %in : i8
      %296 = arith.cmpi sgt, %in, %c127_i8 : i8
      %297 = arith.select %296, %c127_i8, %295 : i8
      linalg.yield %297 : i8
    } -> tensor<?x24x24x16xi8>
    %dim_132 = tensor.dim %35, %c0 : tensor<?x24x24x16xi8>
    %36 = tensor.empty(%dim_132) : tensor<?x24x24x32xi32>
    %37 = linalg.generic {indexing_maps = [#map, #map1], iterator_types = ["parallel", "parallel", "parallel", "parallel"]} ins(%c0_i32 : i32) outs(%36 : tensor<?x24x24x32xi32>) {
    ^bb0(%in: i32, %out: i32):
      linalg.yield %in : i32
    } -> tensor<?x24x24x32xi32>
    %38 = tensor.empty(%dim_132) : tensor<?x24x24x32xi32>
    %39 = linalg.generic {indexing_maps = [#map12, #map3, #map4, #map4, #map5], iterator_types = ["parallel", "parallel", "parallel", "parallel", "reduction", "reduction", "reduction"]} ins(%35, %cst_111, %c-128_i32, %c0_i32 : tensor<?x24x24x16xi8>, tensor<32x1x1x16xi8>, i32, i32) outs(%37 : tensor<?x24x24x32xi32>) {
    ^bb0(%in: i8, %in_247: i8, %in_248: i32, %in_249: i32, %out: i32):
      %294 = arith.extsi %in : i8 to i32
      %295 = arith.subi %294, %in_248 : i32
      %296 = arith.extsi %in_247 : i8 to i32
      %297 = arith.subi %296, %in_249 : i32
      %298 = arith.muli %295, %297 : i32
      %299 = arith.addi %out, %298 : i32
      linalg.yield %299 : i32
    } -> tensor<?x24x24x32xi32>
    %40 = linalg.generic {indexing_maps = [#map6, #map1, #map1], iterator_types = ["parallel", "parallel", "parallel", "parallel"]} ins(%cst_110, %39 : tensor<32xi32>, tensor<?x24x24x32xi32>) outs(%38 : tensor<?x24x24x32xi32>) {
    ^bb0(%in: i32, %in_247: i32, %out: i32):
      %294 = arith.addi %in, %in_247 : i32
      linalg.yield %294 : i32
    } -> tensor<?x24x24x32xi32>
    %dim_133 = tensor.dim %40, %c0 : tensor<?x24x24x32xi32>
    %41 = tensor.empty(%dim_133) : tensor<?x24x24x32xi8>
    %42 = linalg.generic {indexing_maps = [#map1, #map6, #map6, #map1], iterator_types = ["parallel", "parallel", "parallel", "parallel"]} ins(%40, %cst_49, %cst_48 : tensor<?x24x24x32xi32>, tensor<32xi32>, tensor<32xi8>) outs(%41 : tensor<?x24x24x32xi8>) {
    ^bb0(%in: i32, %in_247: i32, %in_248: i8, %out: i8):
      %294 = arith.extui %in_248 : i8 to i32
      %295 = arith.extsi %in : i32 to i64
      %296 = arith.extsi %in_247 : i32 to i64
      %297 = arith.muli %295, %296 : i64
      %298 = arith.extui %in_248 : i8 to i64
      %299 = arith.shli %c1_i64, %298 : i64
      %300 = arith.shrui %299, %c1_i64 : i64
      %301 = arith.addi %297, %300 : i64
      %302 = arith.cmpi sge, %in, %c0_i32 : i32
      %303 = arith.select %302, %c1073741824_i64, %c-1073741824_i64 : i64
      %304 = arith.addi %303, %301 : i64
      %305 = arith.cmpi sgt, %294, %c31_i32 : i32
      %306 = arith.select %305, %304, %301 : i64
      %307 = arith.shrsi %306, %298 : i64
      %308 = arith.trunci %307 : i64 to i32
      %309 = arith.addi %308, %c-128_i32 : i32
      %310 = arith.cmpi slt, %309, %c-128_i32 : i32
      %311 = arith.select %310, %c-128_i32, %309 : i32
      %312 = arith.cmpi sgt, %309, %c127_i32 : i32
      %313 = arith.select %312, %c127_i32, %311 : i32
      %314 = arith.trunci %313 : i32 to i8
      linalg.yield %314 : i8
    } -> tensor<?x24x24x32xi8>
    %dim_134 = tensor.dim %42, %c0 : tensor<?x24x24x32xi8>
    %43 = tensor.empty(%dim_134) : tensor<?x24x24x32xi8>
    %44 = linalg.generic {indexing_maps = [#map1, #map1], iterator_types = ["parallel", "parallel", "parallel", "parallel"]} ins(%42 : tensor<?x24x24x32xi8>) outs(%43 : tensor<?x24x24x32xi8>) {
    ^bb0(%in: i8, %out: i8):
      %294 = arith.cmpi slt, %in, %c-128_i8 : i8
      %295 = arith.select %294, %c-128_i8, %in : i8
      %296 = arith.cmpi sgt, %in, %c127_i8 : i8
      %297 = arith.select %296, %c127_i8, %295 : i8
      linalg.yield %297 : i8
    } -> tensor<?x24x24x32xi8>
    %dim_135 = tensor.dim %44, %c0 : tensor<?x24x24x32xi8>
    %padded_136 = tensor.pad %44 low[0, 1, 1, 0] high[0, 1, 1, 0] {
    ^bb0(%arg1: index, %arg2: index, %arg3: index, %arg4: index):
      tensor.yield %c-128_i8 : i8
    } : tensor<?x24x24x32xi8> to tensor<?x26x26x32xi8>
    %45 = tensor.empty(%dim_135) : tensor<?x24x24x32x1xi32>
    %46 = linalg.generic {indexing_maps = [#map7, #map8], iterator_types = ["parallel", "parallel", "parallel", "parallel", "parallel"]} ins(%c0_i32 : i32) outs(%45 : tensor<?x24x24x32x1xi32>) {
    ^bb0(%in: i32, %out: i32):
      linalg.yield %in : i32
    } -> tensor<?x24x24x32x1xi32>
    %47 = tensor.empty(%dim_135) : tensor<?x24x24x32xi32>
    %48 = linalg.generic {indexing_maps = [#map9, #map10, #map4, #map4, #map11], iterator_types = ["parallel", "parallel", "parallel", "parallel", "parallel", "reduction", "reduction"]} ins(%padded_136, %cst_68, %c-128_i32, %c0_i32 : tensor<?x26x26x32xi8>, tensor<3x3x32x1xi8>, i32, i32) outs(%46 : tensor<?x24x24x32x1xi32>) {
    ^bb0(%in: i8, %in_247: i8, %in_248: i32, %in_249: i32, %out: i32):
      %294 = arith.extsi %in : i8 to i32
      %295 = arith.subi %294, %in_248 : i32
      %296 = arith.extsi %in_247 : i8 to i32
      %297 = arith.subi %296, %in_249 : i32
      %298 = arith.muli %295, %297 : i32
      %299 = arith.addi %out, %298 : i32
      linalg.yield %299 : i32
    } -> tensor<?x24x24x32x1xi32>
    %collapsed_137 = tensor.collapse_shape %48 [[0], [1], [2], [3, 4]] : tensor<?x24x24x32x1xi32> into tensor<?x24x24x32xi32>
    %49 = linalg.generic {indexing_maps = [#map6, #map1, #map1], iterator_types = ["parallel", "parallel", "parallel", "parallel"]} ins(%cst_109, %collapsed_137 : tensor<32xi32>, tensor<?x24x24x32xi32>) outs(%47 : tensor<?x24x24x32xi32>) {
    ^bb0(%in: i32, %in_247: i32, %out: i32):
      %294 = arith.addi %in, %in_247 : i32
      linalg.yield %294 : i32
    } -> tensor<?x24x24x32xi32>
    %dim_138 = tensor.dim %49, %c0 : tensor<?x24x24x32xi32>
    %50 = tensor.empty(%dim_138) : tensor<?x24x24x32xi8>
    %51 = linalg.generic {indexing_maps = [#map1, #map6, #map6, #map1], iterator_types = ["parallel", "parallel", "parallel", "parallel"]} ins(%49, %cst_47, %cst_46 : tensor<?x24x24x32xi32>, tensor<32xi32>, tensor<32xi8>) outs(%50 : tensor<?x24x24x32xi8>) {
    ^bb0(%in: i32, %in_247: i32, %in_248: i8, %out: i8):
      %294 = arith.extui %in_248 : i8 to i32
      %295 = arith.extsi %in : i32 to i64
      %296 = arith.extsi %in_247 : i32 to i64
      %297 = arith.muli %295, %296 : i64
      %298 = arith.extui %in_248 : i8 to i64
      %299 = arith.shli %c1_i64, %298 : i64
      %300 = arith.shrui %299, %c1_i64 : i64
      %301 = arith.addi %297, %300 : i64
      %302 = arith.cmpi sge, %in, %c0_i32 : i32
      %303 = arith.select %302, %c1073741824_i64, %c-1073741824_i64 : i64
      %304 = arith.addi %303, %301 : i64
      %305 = arith.cmpi sgt, %294, %c31_i32 : i32
      %306 = arith.select %305, %304, %301 : i64
      %307 = arith.shrsi %306, %298 : i64
      %308 = arith.trunci %307 : i64 to i32
      %309 = arith.addi %308, %c-128_i32 : i32
      %310 = arith.cmpi slt, %309, %c-128_i32 : i32
      %311 = arith.select %310, %c-128_i32, %309 : i32
      %312 = arith.cmpi sgt, %309, %c127_i32 : i32
      %313 = arith.select %312, %c127_i32, %311 : i32
      %314 = arith.trunci %313 : i32 to i8
      linalg.yield %314 : i8
    } -> tensor<?x24x24x32xi8>
    %dim_139 = tensor.dim %51, %c0 : tensor<?x24x24x32xi8>
    %52 = tensor.empty(%dim_139) : tensor<?x24x24x32xi8>
    %53 = linalg.generic {indexing_maps = [#map1, #map1], iterator_types = ["parallel", "parallel", "parallel", "parallel"]} ins(%51 : tensor<?x24x24x32xi8>) outs(%52 : tensor<?x24x24x32xi8>) {
    ^bb0(%in: i8, %out: i8):
      %294 = arith.cmpi slt, %in, %c-128_i8 : i8
      %295 = arith.select %294, %c-128_i8, %in : i8
      %296 = arith.cmpi sgt, %in, %c127_i8 : i8
      %297 = arith.select %296, %c127_i8, %295 : i8
      linalg.yield %297 : i8
    } -> tensor<?x24x24x32xi8>
    %dim_140 = tensor.dim %53, %c0 : tensor<?x24x24x32xi8>
    %54 = tensor.empty(%dim_140) : tensor<?x24x24x32xi32>
    %55 = linalg.generic {indexing_maps = [#map, #map1], iterator_types = ["parallel", "parallel", "parallel", "parallel"]} ins(%c0_i32 : i32) outs(%54 : tensor<?x24x24x32xi32>) {
    ^bb0(%in: i32, %out: i32):
      linalg.yield %in : i32
    } -> tensor<?x24x24x32xi32>
    %56 = tensor.empty(%dim_140) : tensor<?x24x24x32xi32>
    %57 = linalg.generic {indexing_maps = [#map12, #map3, #map4, #map4, #map5], iterator_types = ["parallel", "parallel", "parallel", "parallel", "reduction", "reduction", "reduction"]} ins(%53, %cst_108, %c-128_i32, %c0_i32 : tensor<?x24x24x32xi8>, tensor<32x1x1x32xi8>, i32, i32) outs(%55 : tensor<?x24x24x32xi32>) {
    ^bb0(%in: i8, %in_247: i8, %in_248: i32, %in_249: i32, %out: i32):
      %294 = arith.extsi %in : i8 to i32
      %295 = arith.subi %294, %in_248 : i32
      %296 = arith.extsi %in_247 : i8 to i32
      %297 = arith.subi %296, %in_249 : i32
      %298 = arith.muli %295, %297 : i32
      %299 = arith.addi %out, %298 : i32
      linalg.yield %299 : i32
    } -> tensor<?x24x24x32xi32>
    %58 = linalg.generic {indexing_maps = [#map6, #map1, #map1], iterator_types = ["parallel", "parallel", "parallel", "parallel"]} ins(%cst_107, %57 : tensor<32xi32>, tensor<?x24x24x32xi32>) outs(%56 : tensor<?x24x24x32xi32>) {
    ^bb0(%in: i32, %in_247: i32, %out: i32):
      %294 = arith.addi %in, %in_247 : i32
      linalg.yield %294 : i32
    } -> tensor<?x24x24x32xi32>
    %dim_141 = tensor.dim %58, %c0 : tensor<?x24x24x32xi32>
    %59 = tensor.empty(%dim_141) : tensor<?x24x24x32xi8>
    %60 = linalg.generic {indexing_maps = [#map1, #map6, #map6, #map1], iterator_types = ["parallel", "parallel", "parallel", "parallel"]} ins(%58, %cst_45, %cst_44 : tensor<?x24x24x32xi32>, tensor<32xi32>, tensor<32xi8>) outs(%59 : tensor<?x24x24x32xi8>) {
    ^bb0(%in: i32, %in_247: i32, %in_248: i8, %out: i8):
      %294 = arith.extui %in_248 : i8 to i32
      %295 = arith.extsi %in : i32 to i64
      %296 = arith.extsi %in_247 : i32 to i64
      %297 = arith.muli %295, %296 : i64
      %298 = arith.extui %in_248 : i8 to i64
      %299 = arith.shli %c1_i64, %298 : i64
      %300 = arith.shrui %299, %c1_i64 : i64
      %301 = arith.addi %297, %300 : i64
      %302 = arith.cmpi sge, %in, %c0_i32 : i32
      %303 = arith.select %302, %c1073741824_i64, %c-1073741824_i64 : i64
      %304 = arith.addi %303, %301 : i64
      %305 = arith.cmpi sgt, %294, %c31_i32 : i32
      %306 = arith.select %305, %304, %301 : i64
      %307 = arith.shrsi %306, %298 : i64
      %308 = arith.trunci %307 : i64 to i32
      %309 = arith.addi %308, %c-128_i32 : i32
      %310 = arith.cmpi slt, %309, %c-128_i32 : i32
      %311 = arith.select %310, %c-128_i32, %309 : i32
      %312 = arith.cmpi sgt, %309, %c127_i32 : i32
      %313 = arith.select %312, %c127_i32, %311 : i32
      %314 = arith.trunci %313 : i32 to i8
      linalg.yield %314 : i8
    } -> tensor<?x24x24x32xi8>
    %dim_142 = tensor.dim %60, %c0 : tensor<?x24x24x32xi8>
    %61 = tensor.empty(%dim_142) : tensor<?x24x24x32xi8>
    %62 = linalg.generic {indexing_maps = [#map1, #map1], iterator_types = ["parallel", "parallel", "parallel", "parallel"]} ins(%60 : tensor<?x24x24x32xi8>) outs(%61 : tensor<?x24x24x32xi8>) {
    ^bb0(%in: i8, %out: i8):
      %294 = arith.cmpi slt, %in, %c-128_i8 : i8
      %295 = arith.select %294, %c-128_i8, %in : i8
      %296 = arith.cmpi sgt, %in, %c127_i8 : i8
      %297 = arith.select %296, %c127_i8, %295 : i8
      linalg.yield %297 : i8
    } -> tensor<?x24x24x32xi8>
    %dim_143 = tensor.dim %62, %c0 : tensor<?x24x24x32xi8>
    %padded_144 = tensor.pad %62 low[0, 0, 0, 0] high[0, 1, 1, 0] {
    ^bb0(%arg1: index, %arg2: index, %arg3: index, %arg4: index):
      tensor.yield %c-128_i8 : i8
    } : tensor<?x24x24x32xi8> to tensor<?x25x25x32xi8>
    %63 = tensor.empty(%dim_143) : tensor<?x12x12x32x1xi32>
    %64 = linalg.generic {indexing_maps = [#map7, #map8], iterator_types = ["parallel", "parallel", "parallel", "parallel", "parallel"]} ins(%c0_i32 : i32) outs(%63 : tensor<?x12x12x32x1xi32>) {
    ^bb0(%in: i32, %out: i32):
      linalg.yield %in : i32
    } -> tensor<?x12x12x32x1xi32>
    %65 = tensor.empty(%dim_143) : tensor<?x12x12x32xi32>
    %66 = linalg.generic {indexing_maps = [#map13, #map10, #map4, #map4, #map11], iterator_types = ["parallel", "parallel", "parallel", "parallel", "parallel", "reduction", "reduction"]} ins(%padded_144, %cst_67, %c-128_i32, %c0_i32 : tensor<?x25x25x32xi8>, tensor<3x3x32x1xi8>, i32, i32) outs(%64 : tensor<?x12x12x32x1xi32>) {
    ^bb0(%in: i8, %in_247: i8, %in_248: i32, %in_249: i32, %out: i32):
      %294 = arith.extsi %in : i8 to i32
      %295 = arith.subi %294, %in_248 : i32
      %296 = arith.extsi %in_247 : i8 to i32
      %297 = arith.subi %296, %in_249 : i32
      %298 = arith.muli %295, %297 : i32
      %299 = arith.addi %out, %298 : i32
      linalg.yield %299 : i32
    } -> tensor<?x12x12x32x1xi32>
    %collapsed_145 = tensor.collapse_shape %66 [[0], [1], [2], [3, 4]] : tensor<?x12x12x32x1xi32> into tensor<?x12x12x32xi32>
    %67 = linalg.generic {indexing_maps = [#map6, #map1, #map1], iterator_types = ["parallel", "parallel", "parallel", "parallel"]} ins(%cst_106, %collapsed_145 : tensor<32xi32>, tensor<?x12x12x32xi32>) outs(%65 : tensor<?x12x12x32xi32>) {
    ^bb0(%in: i32, %in_247: i32, %out: i32):
      %294 = arith.addi %in, %in_247 : i32
      linalg.yield %294 : i32
    } -> tensor<?x12x12x32xi32>
    %dim_146 = tensor.dim %67, %c0 : tensor<?x12x12x32xi32>
    %68 = tensor.empty(%dim_146) : tensor<?x12x12x32xi8>
    %69 = linalg.generic {indexing_maps = [#map1, #map6, #map6, #map1], iterator_types = ["parallel", "parallel", "parallel", "parallel"]} ins(%67, %cst_43, %cst_42 : tensor<?x12x12x32xi32>, tensor<32xi32>, tensor<32xi8>) outs(%68 : tensor<?x12x12x32xi8>) {
    ^bb0(%in: i32, %in_247: i32, %in_248: i8, %out: i8):
      %294 = arith.extui %in_248 : i8 to i32
      %295 = arith.extsi %in : i32 to i64
      %296 = arith.extsi %in_247 : i32 to i64
      %297 = arith.muli %295, %296 : i64
      %298 = arith.extui %in_248 : i8 to i64
      %299 = arith.shli %c1_i64, %298 : i64
      %300 = arith.shrui %299, %c1_i64 : i64
      %301 = arith.addi %297, %300 : i64
      %302 = arith.cmpi sge, %in, %c0_i32 : i32
      %303 = arith.select %302, %c1073741824_i64, %c-1073741824_i64 : i64
      %304 = arith.addi %303, %301 : i64
      %305 = arith.cmpi sgt, %294, %c31_i32 : i32
      %306 = arith.select %305, %304, %301 : i64
      %307 = arith.shrsi %306, %298 : i64
      %308 = arith.trunci %307 : i64 to i32
      %309 = arith.addi %308, %c-128_i32 : i32
      %310 = arith.cmpi slt, %309, %c-128_i32 : i32
      %311 = arith.select %310, %c-128_i32, %309 : i32
      %312 = arith.cmpi sgt, %309, %c127_i32 : i32
      %313 = arith.select %312, %c127_i32, %311 : i32
      %314 = arith.trunci %313 : i32 to i8
      linalg.yield %314 : i8
    } -> tensor<?x12x12x32xi8>
    %dim_147 = tensor.dim %69, %c0 : tensor<?x12x12x32xi8>
    %70 = tensor.empty(%dim_147) : tensor<?x12x12x32xi8>
    %71 = linalg.generic {indexing_maps = [#map1, #map1], iterator_types = ["parallel", "parallel", "parallel", "parallel"]} ins(%69 : tensor<?x12x12x32xi8>) outs(%70 : tensor<?x12x12x32xi8>) {
    ^bb0(%in: i8, %out: i8):
      %294 = arith.cmpi slt, %in, %c-128_i8 : i8
      %295 = arith.select %294, %c-128_i8, %in : i8
      %296 = arith.cmpi sgt, %in, %c127_i8 : i8
      %297 = arith.select %296, %c127_i8, %295 : i8
      linalg.yield %297 : i8
    } -> tensor<?x12x12x32xi8>
    %dim_148 = tensor.dim %71, %c0 : tensor<?x12x12x32xi8>
    %72 = tensor.empty(%dim_148) : tensor<?x12x12x64xi32>
    %73 = linalg.generic {indexing_maps = [#map, #map1], iterator_types = ["parallel", "parallel", "parallel", "parallel"]} ins(%c0_i32 : i32) outs(%72 : tensor<?x12x12x64xi32>) {
    ^bb0(%in: i32, %out: i32):
      linalg.yield %in : i32
    } -> tensor<?x12x12x64xi32>
    %74 = tensor.empty(%dim_148) : tensor<?x12x12x64xi32>
    %75 = linalg.generic {indexing_maps = [#map12, #map3, #map4, #map4, #map5], iterator_types = ["parallel", "parallel", "parallel", "parallel", "reduction", "reduction", "reduction"]} ins(%71, %cst_105, %c-128_i32, %c0_i32 : tensor<?x12x12x32xi8>, tensor<64x1x1x32xi8>, i32, i32) outs(%73 : tensor<?x12x12x64xi32>) {
    ^bb0(%in: i8, %in_247: i8, %in_248: i32, %in_249: i32, %out: i32):
      %294 = arith.extsi %in : i8 to i32
      %295 = arith.subi %294, %in_248 : i32
      %296 = arith.extsi %in_247 : i8 to i32
      %297 = arith.subi %296, %in_249 : i32
      %298 = arith.muli %295, %297 : i32
      %299 = arith.addi %out, %298 : i32
      linalg.yield %299 : i32
    } -> tensor<?x12x12x64xi32>
    %76 = linalg.generic {indexing_maps = [#map6, #map1, #map1], iterator_types = ["parallel", "parallel", "parallel", "parallel"]} ins(%cst_104, %75 : tensor<64xi32>, tensor<?x12x12x64xi32>) outs(%74 : tensor<?x12x12x64xi32>) {
    ^bb0(%in: i32, %in_247: i32, %out: i32):
      %294 = arith.addi %in, %in_247 : i32
      linalg.yield %294 : i32
    } -> tensor<?x12x12x64xi32>
    %dim_149 = tensor.dim %76, %c0 : tensor<?x12x12x64xi32>
    %77 = tensor.empty(%dim_149) : tensor<?x12x12x64xi8>
    %78 = linalg.generic {indexing_maps = [#map1, #map6, #map6, #map1], iterator_types = ["parallel", "parallel", "parallel", "parallel"]} ins(%76, %cst_41, %cst_40 : tensor<?x12x12x64xi32>, tensor<64xi32>, tensor<64xi8>) outs(%77 : tensor<?x12x12x64xi8>) {
    ^bb0(%in: i32, %in_247: i32, %in_248: i8, %out: i8):
      %294 = arith.extui %in_248 : i8 to i32
      %295 = arith.extsi %in : i32 to i64
      %296 = arith.extsi %in_247 : i32 to i64
      %297 = arith.muli %295, %296 : i64
      %298 = arith.extui %in_248 : i8 to i64
      %299 = arith.shli %c1_i64, %298 : i64
      %300 = arith.shrui %299, %c1_i64 : i64
      %301 = arith.addi %297, %300 : i64
      %302 = arith.cmpi sge, %in, %c0_i32 : i32
      %303 = arith.select %302, %c1073741824_i64, %c-1073741824_i64 : i64
      %304 = arith.addi %303, %301 : i64
      %305 = arith.cmpi sgt, %294, %c31_i32 : i32
      %306 = arith.select %305, %304, %301 : i64
      %307 = arith.shrsi %306, %298 : i64
      %308 = arith.trunci %307 : i64 to i32
      %309 = arith.addi %308, %c-128_i32 : i32
      %310 = arith.cmpi slt, %309, %c-128_i32 : i32
      %311 = arith.select %310, %c-128_i32, %309 : i32
      %312 = arith.cmpi sgt, %309, %c127_i32 : i32
      %313 = arith.select %312, %c127_i32, %311 : i32
      %314 = arith.trunci %313 : i32 to i8
      linalg.yield %314 : i8
    } -> tensor<?x12x12x64xi8>
    %dim_150 = tensor.dim %78, %c0 : tensor<?x12x12x64xi8>
    %79 = tensor.empty(%dim_150) : tensor<?x12x12x64xi8>
    %80 = linalg.generic {indexing_maps = [#map1, #map1], iterator_types = ["parallel", "parallel", "parallel", "parallel"]} ins(%78 : tensor<?x12x12x64xi8>) outs(%79 : tensor<?x12x12x64xi8>) {
    ^bb0(%in: i8, %out: i8):
      %294 = arith.cmpi slt, %in, %c-128_i8 : i8
      %295 = arith.select %294, %c-128_i8, %in : i8
      %296 = arith.cmpi sgt, %in, %c127_i8 : i8
      %297 = arith.select %296, %c127_i8, %295 : i8
      linalg.yield %297 : i8
    } -> tensor<?x12x12x64xi8>
    %dim_151 = tensor.dim %80, %c0 : tensor<?x12x12x64xi8>
    %padded_152 = tensor.pad %80 low[0, 1, 1, 0] high[0, 1, 1, 0] {
    ^bb0(%arg1: index, %arg2: index, %arg3: index, %arg4: index):
      tensor.yield %c-128_i8 : i8
    } : tensor<?x12x12x64xi8> to tensor<?x14x14x64xi8>
    %81 = tensor.empty(%dim_151) : tensor<?x12x12x64x1xi32>
    %82 = linalg.generic {indexing_maps = [#map7, #map8], iterator_types = ["parallel", "parallel", "parallel", "parallel", "parallel"]} ins(%c0_i32 : i32) outs(%81 : tensor<?x12x12x64x1xi32>) {
    ^bb0(%in: i32, %out: i32):
      linalg.yield %in : i32
    } -> tensor<?x12x12x64x1xi32>
    %83 = tensor.empty(%dim_151) : tensor<?x12x12x64xi32>
    %84 = linalg.generic {indexing_maps = [#map9, #map10, #map4, #map4, #map11], iterator_types = ["parallel", "parallel", "parallel", "parallel", "parallel", "reduction", "reduction"]} ins(%padded_152, %cst_66, %c-128_i32, %c0_i32 : tensor<?x14x14x64xi8>, tensor<3x3x64x1xi8>, i32, i32) outs(%82 : tensor<?x12x12x64x1xi32>) {
    ^bb0(%in: i8, %in_247: i8, %in_248: i32, %in_249: i32, %out: i32):
      %294 = arith.extsi %in : i8 to i32
      %295 = arith.subi %294, %in_248 : i32
      %296 = arith.extsi %in_247 : i8 to i32
      %297 = arith.subi %296, %in_249 : i32
      %298 = arith.muli %295, %297 : i32
      %299 = arith.addi %out, %298 : i32
      linalg.yield %299 : i32
    } -> tensor<?x12x12x64x1xi32>
    %collapsed_153 = tensor.collapse_shape %84 [[0], [1], [2], [3, 4]] : tensor<?x12x12x64x1xi32> into tensor<?x12x12x64xi32>
    %85 = linalg.generic {indexing_maps = [#map6, #map1, #map1], iterator_types = ["parallel", "parallel", "parallel", "parallel"]} ins(%cst_103, %collapsed_153 : tensor<64xi32>, tensor<?x12x12x64xi32>) outs(%83 : tensor<?x12x12x64xi32>) {
    ^bb0(%in: i32, %in_247: i32, %out: i32):
      %294 = arith.addi %in, %in_247 : i32
      linalg.yield %294 : i32
    } -> tensor<?x12x12x64xi32>
    %dim_154 = tensor.dim %85, %c0 : tensor<?x12x12x64xi32>
    %86 = tensor.empty(%dim_154) : tensor<?x12x12x64xi8>
    %87 = linalg.generic {indexing_maps = [#map1, #map6, #map6, #map1], iterator_types = ["parallel", "parallel", "parallel", "parallel"]} ins(%85, %cst_39, %cst_38 : tensor<?x12x12x64xi32>, tensor<64xi32>, tensor<64xi8>) outs(%86 : tensor<?x12x12x64xi8>) {
    ^bb0(%in: i32, %in_247: i32, %in_248: i8, %out: i8):
      %294 = arith.extui %in_248 : i8 to i32
      %295 = arith.extsi %in : i32 to i64
      %296 = arith.extsi %in_247 : i32 to i64
      %297 = arith.muli %295, %296 : i64
      %298 = arith.extui %in_248 : i8 to i64
      %299 = arith.shli %c1_i64, %298 : i64
      %300 = arith.shrui %299, %c1_i64 : i64
      %301 = arith.addi %297, %300 : i64
      %302 = arith.cmpi sge, %in, %c0_i32 : i32
      %303 = arith.select %302, %c1073741824_i64, %c-1073741824_i64 : i64
      %304 = arith.addi %303, %301 : i64
      %305 = arith.cmpi sgt, %294, %c31_i32 : i32
      %306 = arith.select %305, %304, %301 : i64
      %307 = arith.shrsi %306, %298 : i64
      %308 = arith.trunci %307 : i64 to i32
      %309 = arith.addi %308, %c-128_i32 : i32
      %310 = arith.cmpi slt, %309, %c-128_i32 : i32
      %311 = arith.select %310, %c-128_i32, %309 : i32
      %312 = arith.cmpi sgt, %309, %c127_i32 : i32
      %313 = arith.select %312, %c127_i32, %311 : i32
      %314 = arith.trunci %313 : i32 to i8
      linalg.yield %314 : i8
    } -> tensor<?x12x12x64xi8>
    %dim_155 = tensor.dim %87, %c0 : tensor<?x12x12x64xi8>
    %88 = tensor.empty(%dim_155) : tensor<?x12x12x64xi8>
    %89 = linalg.generic {indexing_maps = [#map1, #map1], iterator_types = ["parallel", "parallel", "parallel", "parallel"]} ins(%87 : tensor<?x12x12x64xi8>) outs(%88 : tensor<?x12x12x64xi8>) {
    ^bb0(%in: i8, %out: i8):
      %294 = arith.cmpi slt, %in, %c-128_i8 : i8
      %295 = arith.select %294, %c-128_i8, %in : i8
      %296 = arith.cmpi sgt, %in, %c127_i8 : i8
      %297 = arith.select %296, %c127_i8, %295 : i8
      linalg.yield %297 : i8
    } -> tensor<?x12x12x64xi8>
    %dim_156 = tensor.dim %89, %c0 : tensor<?x12x12x64xi8>
    %90 = tensor.empty(%dim_156) : tensor<?x12x12x64xi32>
    %91 = linalg.generic {indexing_maps = [#map, #map1], iterator_types = ["parallel", "parallel", "parallel", "parallel"]} ins(%c0_i32 : i32) outs(%90 : tensor<?x12x12x64xi32>) {
    ^bb0(%in: i32, %out: i32):
      linalg.yield %in : i32
    } -> tensor<?x12x12x64xi32>
    %92 = tensor.empty(%dim_156) : tensor<?x12x12x64xi32>
    %93 = linalg.generic {indexing_maps = [#map12, #map3, #map4, #map4, #map5], iterator_types = ["parallel", "parallel", "parallel", "parallel", "reduction", "reduction", "reduction"]} ins(%89, %cst_102, %c-128_i32, %c0_i32 : tensor<?x12x12x64xi8>, tensor<64x1x1x64xi8>, i32, i32) outs(%91 : tensor<?x12x12x64xi32>) {
    ^bb0(%in: i8, %in_247: i8, %in_248: i32, %in_249: i32, %out: i32):
      %294 = arith.extsi %in : i8 to i32
      %295 = arith.subi %294, %in_248 : i32
      %296 = arith.extsi %in_247 : i8 to i32
      %297 = arith.subi %296, %in_249 : i32
      %298 = arith.muli %295, %297 : i32
      %299 = arith.addi %out, %298 : i32
      linalg.yield %299 : i32
    } -> tensor<?x12x12x64xi32>
    %94 = linalg.generic {indexing_maps = [#map6, #map1, #map1], iterator_types = ["parallel", "parallel", "parallel", "parallel"]} ins(%cst_101, %93 : tensor<64xi32>, tensor<?x12x12x64xi32>) outs(%92 : tensor<?x12x12x64xi32>) {
    ^bb0(%in: i32, %in_247: i32, %out: i32):
      %294 = arith.addi %in, %in_247 : i32
      linalg.yield %294 : i32
    } -> tensor<?x12x12x64xi32>
    %dim_157 = tensor.dim %94, %c0 : tensor<?x12x12x64xi32>
    %95 = tensor.empty(%dim_157) : tensor<?x12x12x64xi8>
    %96 = linalg.generic {indexing_maps = [#map1, #map6, #map6, #map1], iterator_types = ["parallel", "parallel", "parallel", "parallel"]} ins(%94, %cst_37, %cst_36 : tensor<?x12x12x64xi32>, tensor<64xi32>, tensor<64xi8>) outs(%95 : tensor<?x12x12x64xi8>) {
    ^bb0(%in: i32, %in_247: i32, %in_248: i8, %out: i8):
      %294 = arith.extui %in_248 : i8 to i32
      %295 = arith.extsi %in : i32 to i64
      %296 = arith.extsi %in_247 : i32 to i64
      %297 = arith.muli %295, %296 : i64
      %298 = arith.extui %in_248 : i8 to i64
      %299 = arith.shli %c1_i64, %298 : i64
      %300 = arith.shrui %299, %c1_i64 : i64
      %301 = arith.addi %297, %300 : i64
      %302 = arith.cmpi sge, %in, %c0_i32 : i32
      %303 = arith.select %302, %c1073741824_i64, %c-1073741824_i64 : i64
      %304 = arith.addi %303, %301 : i64
      %305 = arith.cmpi sgt, %294, %c31_i32 : i32
      %306 = arith.select %305, %304, %301 : i64
      %307 = arith.shrsi %306, %298 : i64
      %308 = arith.trunci %307 : i64 to i32
      %309 = arith.addi %308, %c-128_i32 : i32
      %310 = arith.cmpi slt, %309, %c-128_i32 : i32
      %311 = arith.select %310, %c-128_i32, %309 : i32
      %312 = arith.cmpi sgt, %309, %c127_i32 : i32
      %313 = arith.select %312, %c127_i32, %311 : i32
      %314 = arith.trunci %313 : i32 to i8
      linalg.yield %314 : i8
    } -> tensor<?x12x12x64xi8>
    %dim_158 = tensor.dim %96, %c0 : tensor<?x12x12x64xi8>
    %97 = tensor.empty(%dim_158) : tensor<?x12x12x64xi8>
    %98 = linalg.generic {indexing_maps = [#map1, #map1], iterator_types = ["parallel", "parallel", "parallel", "parallel"]} ins(%96 : tensor<?x12x12x64xi8>) outs(%97 : tensor<?x12x12x64xi8>) {
    ^bb0(%in: i8, %out: i8):
      %294 = arith.cmpi slt, %in, %c-128_i8 : i8
      %295 = arith.select %294, %c-128_i8, %in : i8
      %296 = arith.cmpi sgt, %in, %c127_i8 : i8
      %297 = arith.select %296, %c127_i8, %295 : i8
      linalg.yield %297 : i8
    } -> tensor<?x12x12x64xi8>
    %dim_159 = tensor.dim %98, %c0 : tensor<?x12x12x64xi8>
    %padded_160 = tensor.pad %98 low[0, 0, 0, 0] high[0, 1, 1, 0] {
    ^bb0(%arg1: index, %arg2: index, %arg3: index, %arg4: index):
      tensor.yield %c-128_i8 : i8
    } : tensor<?x12x12x64xi8> to tensor<?x13x13x64xi8>
    %99 = tensor.empty(%dim_159) : tensor<?x6x6x64x1xi32>
    %100 = linalg.generic {indexing_maps = [#map7, #map8], iterator_types = ["parallel", "parallel", "parallel", "parallel", "parallel"]} ins(%c0_i32 : i32) outs(%99 : tensor<?x6x6x64x1xi32>) {
    ^bb0(%in: i32, %out: i32):
      linalg.yield %in : i32
    } -> tensor<?x6x6x64x1xi32>
    %101 = tensor.empty(%dim_159) : tensor<?x6x6x64xi32>
    %102 = linalg.generic {indexing_maps = [#map13, #map10, #map4, #map4, #map11], iterator_types = ["parallel", "parallel", "parallel", "parallel", "parallel", "reduction", "reduction"]} ins(%padded_160, %cst_65, %c-128_i32, %c0_i32 : tensor<?x13x13x64xi8>, tensor<3x3x64x1xi8>, i32, i32) outs(%100 : tensor<?x6x6x64x1xi32>) {
    ^bb0(%in: i8, %in_247: i8, %in_248: i32, %in_249: i32, %out: i32):
      %294 = arith.extsi %in : i8 to i32
      %295 = arith.subi %294, %in_248 : i32
      %296 = arith.extsi %in_247 : i8 to i32
      %297 = arith.subi %296, %in_249 : i32
      %298 = arith.muli %295, %297 : i32
      %299 = arith.addi %out, %298 : i32
      linalg.yield %299 : i32
    } -> tensor<?x6x6x64x1xi32>
    %collapsed_161 = tensor.collapse_shape %102 [[0], [1], [2], [3, 4]] : tensor<?x6x6x64x1xi32> into tensor<?x6x6x64xi32>
    %103 = linalg.generic {indexing_maps = [#map6, #map1, #map1], iterator_types = ["parallel", "parallel", "parallel", "parallel"]} ins(%cst_100, %collapsed_161 : tensor<64xi32>, tensor<?x6x6x64xi32>) outs(%101 : tensor<?x6x6x64xi32>) {
    ^bb0(%in: i32, %in_247: i32, %out: i32):
      %294 = arith.addi %in, %in_247 : i32
      linalg.yield %294 : i32
    } -> tensor<?x6x6x64xi32>
    %dim_162 = tensor.dim %103, %c0 : tensor<?x6x6x64xi32>
    %104 = tensor.empty(%dim_162) : tensor<?x6x6x64xi8>
    %105 = linalg.generic {indexing_maps = [#map1, #map6, #map6, #map1], iterator_types = ["parallel", "parallel", "parallel", "parallel"]} ins(%103, %cst_35, %cst_34 : tensor<?x6x6x64xi32>, tensor<64xi32>, tensor<64xi8>) outs(%104 : tensor<?x6x6x64xi8>) {
    ^bb0(%in: i32, %in_247: i32, %in_248: i8, %out: i8):
      %294 = arith.extui %in_248 : i8 to i32
      %295 = arith.extsi %in : i32 to i64
      %296 = arith.extsi %in_247 : i32 to i64
      %297 = arith.muli %295, %296 : i64
      %298 = arith.extui %in_248 : i8 to i64
      %299 = arith.shli %c1_i64, %298 : i64
      %300 = arith.shrui %299, %c1_i64 : i64
      %301 = arith.addi %297, %300 : i64
      %302 = arith.cmpi sge, %in, %c0_i32 : i32
      %303 = arith.select %302, %c1073741824_i64, %c-1073741824_i64 : i64
      %304 = arith.addi %303, %301 : i64
      %305 = arith.cmpi sgt, %294, %c31_i32 : i32
      %306 = arith.select %305, %304, %301 : i64
      %307 = arith.shrsi %306, %298 : i64
      %308 = arith.trunci %307 : i64 to i32
      %309 = arith.addi %308, %c-128_i32 : i32
      %310 = arith.cmpi slt, %309, %c-128_i32 : i32
      %311 = arith.select %310, %c-128_i32, %309 : i32
      %312 = arith.cmpi sgt, %309, %c127_i32 : i32
      %313 = arith.select %312, %c127_i32, %311 : i32
      %314 = arith.trunci %313 : i32 to i8
      linalg.yield %314 : i8
    } -> tensor<?x6x6x64xi8>
    %dim_163 = tensor.dim %105, %c0 : tensor<?x6x6x64xi8>
    %106 = tensor.empty(%dim_163) : tensor<?x6x6x64xi8>
    %107 = linalg.generic {indexing_maps = [#map1, #map1], iterator_types = ["parallel", "parallel", "parallel", "parallel"]} ins(%105 : tensor<?x6x6x64xi8>) outs(%106 : tensor<?x6x6x64xi8>) {
    ^bb0(%in: i8, %out: i8):
      %294 = arith.cmpi slt, %in, %c-128_i8 : i8
      %295 = arith.select %294, %c-128_i8, %in : i8
      %296 = arith.cmpi sgt, %in, %c127_i8 : i8
      %297 = arith.select %296, %c127_i8, %295 : i8
      linalg.yield %297 : i8
    } -> tensor<?x6x6x64xi8>
    %dim_164 = tensor.dim %107, %c0 : tensor<?x6x6x64xi8>
    %108 = tensor.empty(%dim_164) : tensor<?x6x6x128xi32>
    %109 = linalg.generic {indexing_maps = [#map, #map1], iterator_types = ["parallel", "parallel", "parallel", "parallel"]} ins(%c0_i32 : i32) outs(%108 : tensor<?x6x6x128xi32>) {
    ^bb0(%in: i32, %out: i32):
      linalg.yield %in : i32
    } -> tensor<?x6x6x128xi32>
    %110 = tensor.empty(%dim_164) : tensor<?x6x6x128xi32>
    %111 = linalg.generic {indexing_maps = [#map12, #map3, #map4, #map4, #map5], iterator_types = ["parallel", "parallel", "parallel", "parallel", "reduction", "reduction", "reduction"]} ins(%107, %cst_99, %c-128_i32, %c0_i32 : tensor<?x6x6x64xi8>, tensor<128x1x1x64xi8>, i32, i32) outs(%109 : tensor<?x6x6x128xi32>) {
    ^bb0(%in: i8, %in_247: i8, %in_248: i32, %in_249: i32, %out: i32):
      %294 = arith.extsi %in : i8 to i32
      %295 = arith.subi %294, %in_248 : i32
      %296 = arith.extsi %in_247 : i8 to i32
      %297 = arith.subi %296, %in_249 : i32
      %298 = arith.muli %295, %297 : i32
      %299 = arith.addi %out, %298 : i32
      linalg.yield %299 : i32
    } -> tensor<?x6x6x128xi32>
    %112 = linalg.generic {indexing_maps = [#map6, #map1, #map1], iterator_types = ["parallel", "parallel", "parallel", "parallel"]} ins(%cst_98, %111 : tensor<128xi32>, tensor<?x6x6x128xi32>) outs(%110 : tensor<?x6x6x128xi32>) {
    ^bb0(%in: i32, %in_247: i32, %out: i32):
      %294 = arith.addi %in, %in_247 : i32
      linalg.yield %294 : i32
    } -> tensor<?x6x6x128xi32>
    %dim_165 = tensor.dim %112, %c0 : tensor<?x6x6x128xi32>
    %113 = tensor.empty(%dim_165) : tensor<?x6x6x128xi8>
    %114 = linalg.generic {indexing_maps = [#map1, #map6, #map6, #map1], iterator_types = ["parallel", "parallel", "parallel", "parallel"]} ins(%112, %cst_33, %cst_32 : tensor<?x6x6x128xi32>, tensor<128xi32>, tensor<128xi8>) outs(%113 : tensor<?x6x6x128xi8>) {
    ^bb0(%in: i32, %in_247: i32, %in_248: i8, %out: i8):
      %294 = arith.extui %in_248 : i8 to i32
      %295 = arith.extsi %in : i32 to i64
      %296 = arith.extsi %in_247 : i32 to i64
      %297 = arith.muli %295, %296 : i64
      %298 = arith.extui %in_248 : i8 to i64
      %299 = arith.shli %c1_i64, %298 : i64
      %300 = arith.shrui %299, %c1_i64 : i64
      %301 = arith.addi %297, %300 : i64
      %302 = arith.cmpi sge, %in, %c0_i32 : i32
      %303 = arith.select %302, %c1073741824_i64, %c-1073741824_i64 : i64
      %304 = arith.addi %303, %301 : i64
      %305 = arith.cmpi sgt, %294, %c31_i32 : i32
      %306 = arith.select %305, %304, %301 : i64
      %307 = arith.shrsi %306, %298 : i64
      %308 = arith.trunci %307 : i64 to i32
      %309 = arith.addi %308, %c-128_i32 : i32
      %310 = arith.cmpi slt, %309, %c-128_i32 : i32
      %311 = arith.select %310, %c-128_i32, %309 : i32
      %312 = arith.cmpi sgt, %309, %c127_i32 : i32
      %313 = arith.select %312, %c127_i32, %311 : i32
      %314 = arith.trunci %313 : i32 to i8
      linalg.yield %314 : i8
    } -> tensor<?x6x6x128xi8>
    %dim_166 = tensor.dim %114, %c0 : tensor<?x6x6x128xi8>
    %115 = tensor.empty(%dim_166) : tensor<?x6x6x128xi8>
    %116 = linalg.generic {indexing_maps = [#map1, #map1], iterator_types = ["parallel", "parallel", "parallel", "parallel"]} ins(%114 : tensor<?x6x6x128xi8>) outs(%115 : tensor<?x6x6x128xi8>) {
    ^bb0(%in: i8, %out: i8):
      %294 = arith.cmpi slt, %in, %c-128_i8 : i8
      %295 = arith.select %294, %c-128_i8, %in : i8
      %296 = arith.cmpi sgt, %in, %c127_i8 : i8
      %297 = arith.select %296, %c127_i8, %295 : i8
      linalg.yield %297 : i8
    } -> tensor<?x6x6x128xi8>
    %dim_167 = tensor.dim %116, %c0 : tensor<?x6x6x128xi8>
    %padded_168 = tensor.pad %116 low[0, 1, 1, 0] high[0, 1, 1, 0] {
    ^bb0(%arg1: index, %arg2: index, %arg3: index, %arg4: index):
      tensor.yield %c-128_i8 : i8
    } : tensor<?x6x6x128xi8> to tensor<?x8x8x128xi8>
    %117 = tensor.empty(%dim_167) : tensor<?x6x6x128x1xi32>
    %118 = linalg.generic {indexing_maps = [#map7, #map8], iterator_types = ["parallel", "parallel", "parallel", "parallel", "parallel"]} ins(%c0_i32 : i32) outs(%117 : tensor<?x6x6x128x1xi32>) {
    ^bb0(%in: i32, %out: i32):
      linalg.yield %in : i32
    } -> tensor<?x6x6x128x1xi32>
    %119 = tensor.empty(%dim_167) : tensor<?x6x6x128xi32>
    %120 = linalg.generic {indexing_maps = [#map9, #map10, #map4, #map4, #map11], iterator_types = ["parallel", "parallel", "parallel", "parallel", "parallel", "reduction", "reduction"]} ins(%padded_168, %cst_64, %c-128_i32, %c0_i32 : tensor<?x8x8x128xi8>, tensor<3x3x128x1xi8>, i32, i32) outs(%118 : tensor<?x6x6x128x1xi32>) {
    ^bb0(%in: i8, %in_247: i8, %in_248: i32, %in_249: i32, %out: i32):
      %294 = arith.extsi %in : i8 to i32
      %295 = arith.subi %294, %in_248 : i32
      %296 = arith.extsi %in_247 : i8 to i32
      %297 = arith.subi %296, %in_249 : i32
      %298 = arith.muli %295, %297 : i32
      %299 = arith.addi %out, %298 : i32
      linalg.yield %299 : i32
    } -> tensor<?x6x6x128x1xi32>
    %collapsed_169 = tensor.collapse_shape %120 [[0], [1], [2], [3, 4]] : tensor<?x6x6x128x1xi32> into tensor<?x6x6x128xi32>
    %121 = linalg.generic {indexing_maps = [#map6, #map1, #map1], iterator_types = ["parallel", "parallel", "parallel", "parallel"]} ins(%cst_97, %collapsed_169 : tensor<128xi32>, tensor<?x6x6x128xi32>) outs(%119 : tensor<?x6x6x128xi32>) {
    ^bb0(%in: i32, %in_247: i32, %out: i32):
      %294 = arith.addi %in, %in_247 : i32
      linalg.yield %294 : i32
    } -> tensor<?x6x6x128xi32>
    %dim_170 = tensor.dim %121, %c0 : tensor<?x6x6x128xi32>
    %122 = tensor.empty(%dim_170) : tensor<?x6x6x128xi8>
    %123 = linalg.generic {indexing_maps = [#map1, #map6, #map6, #map1], iterator_types = ["parallel", "parallel", "parallel", "parallel"]} ins(%121, %cst_31, %cst_30 : tensor<?x6x6x128xi32>, tensor<128xi32>, tensor<128xi8>) outs(%122 : tensor<?x6x6x128xi8>) {
    ^bb0(%in: i32, %in_247: i32, %in_248: i8, %out: i8):
      %294 = arith.extui %in_248 : i8 to i32
      %295 = arith.extsi %in : i32 to i64
      %296 = arith.extsi %in_247 : i32 to i64
      %297 = arith.muli %295, %296 : i64
      %298 = arith.extui %in_248 : i8 to i64
      %299 = arith.shli %c1_i64, %298 : i64
      %300 = arith.shrui %299, %c1_i64 : i64
      %301 = arith.addi %297, %300 : i64
      %302 = arith.cmpi sge, %in, %c0_i32 : i32
      %303 = arith.select %302, %c1073741824_i64, %c-1073741824_i64 : i64
      %304 = arith.addi %303, %301 : i64
      %305 = arith.cmpi sgt, %294, %c31_i32 : i32
      %306 = arith.select %305, %304, %301 : i64
      %307 = arith.shrsi %306, %298 : i64
      %308 = arith.trunci %307 : i64 to i32
      %309 = arith.addi %308, %c-128_i32 : i32
      %310 = arith.cmpi slt, %309, %c-128_i32 : i32
      %311 = arith.select %310, %c-128_i32, %309 : i32
      %312 = arith.cmpi sgt, %309, %c127_i32 : i32
      %313 = arith.select %312, %c127_i32, %311 : i32
      %314 = arith.trunci %313 : i32 to i8
      linalg.yield %314 : i8
    } -> tensor<?x6x6x128xi8>
    %dim_171 = tensor.dim %123, %c0 : tensor<?x6x6x128xi8>
    %124 = tensor.empty(%dim_171) : tensor<?x6x6x128xi8>
    %125 = linalg.generic {indexing_maps = [#map1, #map1], iterator_types = ["parallel", "parallel", "parallel", "parallel"]} ins(%123 : tensor<?x6x6x128xi8>) outs(%124 : tensor<?x6x6x128xi8>) {
    ^bb0(%in: i8, %out: i8):
      %294 = arith.cmpi slt, %in, %c-128_i8 : i8
      %295 = arith.select %294, %c-128_i8, %in : i8
      %296 = arith.cmpi sgt, %in, %c127_i8 : i8
      %297 = arith.select %296, %c127_i8, %295 : i8
      linalg.yield %297 : i8
    } -> tensor<?x6x6x128xi8>
    %dim_172 = tensor.dim %125, %c0 : tensor<?x6x6x128xi8>
    %126 = tensor.empty(%dim_172) : tensor<?x6x6x128xi32>
    %127 = linalg.generic {indexing_maps = [#map, #map1], iterator_types = ["parallel", "parallel", "parallel", "parallel"]} ins(%c0_i32 : i32) outs(%126 : tensor<?x6x6x128xi32>) {
    ^bb0(%in: i32, %out: i32):
      linalg.yield %in : i32
    } -> tensor<?x6x6x128xi32>
    %128 = tensor.empty(%dim_172) : tensor<?x6x6x128xi32>
    %129 = linalg.generic {indexing_maps = [#map12, #map3, #map4, #map4, #map5], iterator_types = ["parallel", "parallel", "parallel", "parallel", "reduction", "reduction", "reduction"]} ins(%125, %cst_96, %c-128_i32, %c0_i32 : tensor<?x6x6x128xi8>, tensor<128x1x1x128xi8>, i32, i32) outs(%127 : tensor<?x6x6x128xi32>) {
    ^bb0(%in: i8, %in_247: i8, %in_248: i32, %in_249: i32, %out: i32):
      %294 = arith.extsi %in : i8 to i32
      %295 = arith.subi %294, %in_248 : i32
      %296 = arith.extsi %in_247 : i8 to i32
      %297 = arith.subi %296, %in_249 : i32
      %298 = arith.muli %295, %297 : i32
      %299 = arith.addi %out, %298 : i32
      linalg.yield %299 : i32
    } -> tensor<?x6x6x128xi32>
    %130 = linalg.generic {indexing_maps = [#map6, #map1, #map1], iterator_types = ["parallel", "parallel", "parallel", "parallel"]} ins(%cst_95, %129 : tensor<128xi32>, tensor<?x6x6x128xi32>) outs(%128 : tensor<?x6x6x128xi32>) {
    ^bb0(%in: i32, %in_247: i32, %out: i32):
      %294 = arith.addi %in, %in_247 : i32
      linalg.yield %294 : i32
    } -> tensor<?x6x6x128xi32>
    %dim_173 = tensor.dim %130, %c0 : tensor<?x6x6x128xi32>
    %131 = tensor.empty(%dim_173) : tensor<?x6x6x128xi8>
    %132 = linalg.generic {indexing_maps = [#map1, #map6, #map6, #map1], iterator_types = ["parallel", "parallel", "parallel", "parallel"]} ins(%130, %cst_29, %cst_28 : tensor<?x6x6x128xi32>, tensor<128xi32>, tensor<128xi8>) outs(%131 : tensor<?x6x6x128xi8>) {
    ^bb0(%in: i32, %in_247: i32, %in_248: i8, %out: i8):
      %294 = arith.extui %in_248 : i8 to i32
      %295 = arith.extsi %in : i32 to i64
      %296 = arith.extsi %in_247 : i32 to i64
      %297 = arith.muli %295, %296 : i64
      %298 = arith.extui %in_248 : i8 to i64
      %299 = arith.shli %c1_i64, %298 : i64
      %300 = arith.shrui %299, %c1_i64 : i64
      %301 = arith.addi %297, %300 : i64
      %302 = arith.cmpi sge, %in, %c0_i32 : i32
      %303 = arith.select %302, %c1073741824_i64, %c-1073741824_i64 : i64
      %304 = arith.addi %303, %301 : i64
      %305 = arith.cmpi sgt, %294, %c31_i32 : i32
      %306 = arith.select %305, %304, %301 : i64
      %307 = arith.shrsi %306, %298 : i64
      %308 = arith.trunci %307 : i64 to i32
      %309 = arith.addi %308, %c-128_i32 : i32
      %310 = arith.cmpi slt, %309, %c-128_i32 : i32
      %311 = arith.select %310, %c-128_i32, %309 : i32
      %312 = arith.cmpi sgt, %309, %c127_i32 : i32
      %313 = arith.select %312, %c127_i32, %311 : i32
      %314 = arith.trunci %313 : i32 to i8
      linalg.yield %314 : i8
    } -> tensor<?x6x6x128xi8>
    %dim_174 = tensor.dim %132, %c0 : tensor<?x6x6x128xi8>
    %133 = tensor.empty(%dim_174) : tensor<?x6x6x128xi8>
    %134 = linalg.generic {indexing_maps = [#map1, #map1], iterator_types = ["parallel", "parallel", "parallel", "parallel"]} ins(%132 : tensor<?x6x6x128xi8>) outs(%133 : tensor<?x6x6x128xi8>) {
    ^bb0(%in: i8, %out: i8):
      %294 = arith.cmpi slt, %in, %c-128_i8 : i8
      %295 = arith.select %294, %c-128_i8, %in : i8
      %296 = arith.cmpi sgt, %in, %c127_i8 : i8
      %297 = arith.select %296, %c127_i8, %295 : i8
      linalg.yield %297 : i8
    } -> tensor<?x6x6x128xi8>
    %dim_175 = tensor.dim %134, %c0 : tensor<?x6x6x128xi8>
    %padded_176 = tensor.pad %134 low[0, 1, 1, 0] high[0, 1, 1, 0] {
    ^bb0(%arg1: index, %arg2: index, %arg3: index, %arg4: index):
      tensor.yield %c-128_i8 : i8
    } : tensor<?x6x6x128xi8> to tensor<?x8x8x128xi8>
    %135 = tensor.empty(%dim_175) : tensor<?x6x6x128x1xi32>
    %136 = linalg.generic {indexing_maps = [#map7, #map8], iterator_types = ["parallel", "parallel", "parallel", "parallel", "parallel"]} ins(%c0_i32 : i32) outs(%135 : tensor<?x6x6x128x1xi32>) {
    ^bb0(%in: i32, %out: i32):
      linalg.yield %in : i32
    } -> tensor<?x6x6x128x1xi32>
    %137 = tensor.empty(%dim_175) : tensor<?x6x6x128xi32>
    %138 = linalg.generic {indexing_maps = [#map9, #map10, #map4, #map4, #map11], iterator_types = ["parallel", "parallel", "parallel", "parallel", "parallel", "reduction", "reduction"]} ins(%padded_176, %cst_63, %c-128_i32, %c0_i32 : tensor<?x8x8x128xi8>, tensor<3x3x128x1xi8>, i32, i32) outs(%136 : tensor<?x6x6x128x1xi32>) {
    ^bb0(%in: i8, %in_247: i8, %in_248: i32, %in_249: i32, %out: i32):
      %294 = arith.extsi %in : i8 to i32
      %295 = arith.subi %294, %in_248 : i32
      %296 = arith.extsi %in_247 : i8 to i32
      %297 = arith.subi %296, %in_249 : i32
      %298 = arith.muli %295, %297 : i32
      %299 = arith.addi %out, %298 : i32
      linalg.yield %299 : i32
    } -> tensor<?x6x6x128x1xi32>
    %collapsed_177 = tensor.collapse_shape %138 [[0], [1], [2], [3, 4]] : tensor<?x6x6x128x1xi32> into tensor<?x6x6x128xi32>
    %139 = linalg.generic {indexing_maps = [#map6, #map1, #map1], iterator_types = ["parallel", "parallel", "parallel", "parallel"]} ins(%cst_94, %collapsed_177 : tensor<128xi32>, tensor<?x6x6x128xi32>) outs(%137 : tensor<?x6x6x128xi32>) {
    ^bb0(%in: i32, %in_247: i32, %out: i32):
      %294 = arith.addi %in, %in_247 : i32
      linalg.yield %294 : i32
    } -> tensor<?x6x6x128xi32>
    %dim_178 = tensor.dim %139, %c0 : tensor<?x6x6x128xi32>
    %140 = tensor.empty(%dim_178) : tensor<?x6x6x128xi8>
    %141 = linalg.generic {indexing_maps = [#map1, #map6, #map6, #map1], iterator_types = ["parallel", "parallel", "parallel", "parallel"]} ins(%139, %cst_27, %cst_26 : tensor<?x6x6x128xi32>, tensor<128xi32>, tensor<128xi8>) outs(%140 : tensor<?x6x6x128xi8>) {
    ^bb0(%in: i32, %in_247: i32, %in_248: i8, %out: i8):
      %294 = arith.extui %in_248 : i8 to i32
      %295 = arith.extsi %in : i32 to i64
      %296 = arith.extsi %in_247 : i32 to i64
      %297 = arith.muli %295, %296 : i64
      %298 = arith.extui %in_248 : i8 to i64
      %299 = arith.shli %c1_i64, %298 : i64
      %300 = arith.shrui %299, %c1_i64 : i64
      %301 = arith.addi %297, %300 : i64
      %302 = arith.cmpi sge, %in, %c0_i32 : i32
      %303 = arith.select %302, %c1073741824_i64, %c-1073741824_i64 : i64
      %304 = arith.addi %303, %301 : i64
      %305 = arith.cmpi sgt, %294, %c31_i32 : i32
      %306 = arith.select %305, %304, %301 : i64
      %307 = arith.shrsi %306, %298 : i64
      %308 = arith.trunci %307 : i64 to i32
      %309 = arith.addi %308, %c-128_i32 : i32
      %310 = arith.cmpi slt, %309, %c-128_i32 : i32
      %311 = arith.select %310, %c-128_i32, %309 : i32
      %312 = arith.cmpi sgt, %309, %c127_i32 : i32
      %313 = arith.select %312, %c127_i32, %311 : i32
      %314 = arith.trunci %313 : i32 to i8
      linalg.yield %314 : i8
    } -> tensor<?x6x6x128xi8>
    %dim_179 = tensor.dim %141, %c0 : tensor<?x6x6x128xi8>
    %142 = tensor.empty(%dim_179) : tensor<?x6x6x128xi8>
    %143 = linalg.generic {indexing_maps = [#map1, #map1], iterator_types = ["parallel", "parallel", "parallel", "parallel"]} ins(%141 : tensor<?x6x6x128xi8>) outs(%142 : tensor<?x6x6x128xi8>) {
    ^bb0(%in: i8, %out: i8):
      %294 = arith.cmpi slt, %in, %c-128_i8 : i8
      %295 = arith.select %294, %c-128_i8, %in : i8
      %296 = arith.cmpi sgt, %in, %c127_i8 : i8
      %297 = arith.select %296, %c127_i8, %295 : i8
      linalg.yield %297 : i8
    } -> tensor<?x6x6x128xi8>
    %dim_180 = tensor.dim %143, %c0 : tensor<?x6x6x128xi8>
    %144 = tensor.empty(%dim_180) : tensor<?x6x6x128xi32>
    %145 = linalg.generic {indexing_maps = [#map, #map1], iterator_types = ["parallel", "parallel", "parallel", "parallel"]} ins(%c0_i32 : i32) outs(%144 : tensor<?x6x6x128xi32>) {
    ^bb0(%in: i32, %out: i32):
      linalg.yield %in : i32
    } -> tensor<?x6x6x128xi32>
    %146 = tensor.empty(%dim_180) : tensor<?x6x6x128xi32>
    %147 = linalg.generic {indexing_maps = [#map12, #map3, #map4, #map4, #map5], iterator_types = ["parallel", "parallel", "parallel", "parallel", "reduction", "reduction", "reduction"]} ins(%143, %cst_93, %c-128_i32, %c0_i32 : tensor<?x6x6x128xi8>, tensor<128x1x1x128xi8>, i32, i32) outs(%145 : tensor<?x6x6x128xi32>) {
    ^bb0(%in: i8, %in_247: i8, %in_248: i32, %in_249: i32, %out: i32):
      %294 = arith.extsi %in : i8 to i32
      %295 = arith.subi %294, %in_248 : i32
      %296 = arith.extsi %in_247 : i8 to i32
      %297 = arith.subi %296, %in_249 : i32
      %298 = arith.muli %295, %297 : i32
      %299 = arith.addi %out, %298 : i32
      linalg.yield %299 : i32
    } -> tensor<?x6x6x128xi32>
    %148 = linalg.generic {indexing_maps = [#map6, #map1, #map1], iterator_types = ["parallel", "parallel", "parallel", "parallel"]} ins(%cst_92, %147 : tensor<128xi32>, tensor<?x6x6x128xi32>) outs(%146 : tensor<?x6x6x128xi32>) {
    ^bb0(%in: i32, %in_247: i32, %out: i32):
      %294 = arith.addi %in, %in_247 : i32
      linalg.yield %294 : i32
    } -> tensor<?x6x6x128xi32>
    %dim_181 = tensor.dim %148, %c0 : tensor<?x6x6x128xi32>
    %149 = tensor.empty(%dim_181) : tensor<?x6x6x128xi8>
    %150 = linalg.generic {indexing_maps = [#map1, #map6, #map6, #map1], iterator_types = ["parallel", "parallel", "parallel", "parallel"]} ins(%148, %cst_25, %cst_24 : tensor<?x6x6x128xi32>, tensor<128xi32>, tensor<128xi8>) outs(%149 : tensor<?x6x6x128xi8>) {
    ^bb0(%in: i32, %in_247: i32, %in_248: i8, %out: i8):
      %294 = arith.extui %in_248 : i8 to i32
      %295 = arith.extsi %in : i32 to i64
      %296 = arith.extsi %in_247 : i32 to i64
      %297 = arith.muli %295, %296 : i64
      %298 = arith.extui %in_248 : i8 to i64
      %299 = arith.shli %c1_i64, %298 : i64
      %300 = arith.shrui %299, %c1_i64 : i64
      %301 = arith.addi %297, %300 : i64
      %302 = arith.cmpi sge, %in, %c0_i32 : i32
      %303 = arith.select %302, %c1073741824_i64, %c-1073741824_i64 : i64
      %304 = arith.addi %303, %301 : i64
      %305 = arith.cmpi sgt, %294, %c31_i32 : i32
      %306 = arith.select %305, %304, %301 : i64
      %307 = arith.shrsi %306, %298 : i64
      %308 = arith.trunci %307 : i64 to i32
      %309 = arith.addi %308, %c-128_i32 : i32
      %310 = arith.cmpi slt, %309, %c-128_i32 : i32
      %311 = arith.select %310, %c-128_i32, %309 : i32
      %312 = arith.cmpi sgt, %309, %c127_i32 : i32
      %313 = arith.select %312, %c127_i32, %311 : i32
      %314 = arith.trunci %313 : i32 to i8
      linalg.yield %314 : i8
    } -> tensor<?x6x6x128xi8>
    %dim_182 = tensor.dim %150, %c0 : tensor<?x6x6x128xi8>
    %151 = tensor.empty(%dim_182) : tensor<?x6x6x128xi8>
    %152 = linalg.generic {indexing_maps = [#map1, #map1], iterator_types = ["parallel", "parallel", "parallel", "parallel"]} ins(%150 : tensor<?x6x6x128xi8>) outs(%151 : tensor<?x6x6x128xi8>) {
    ^bb0(%in: i8, %out: i8):
      %294 = arith.cmpi slt, %in, %c-128_i8 : i8
      %295 = arith.select %294, %c-128_i8, %in : i8
      %296 = arith.cmpi sgt, %in, %c127_i8 : i8
      %297 = arith.select %296, %c127_i8, %295 : i8
      linalg.yield %297 : i8
    } -> tensor<?x6x6x128xi8>
    %dim_183 = tensor.dim %152, %c0 : tensor<?x6x6x128xi8>
    %padded_184 = tensor.pad %152 low[0, 1, 1, 0] high[0, 1, 1, 0] {
    ^bb0(%arg1: index, %arg2: index, %arg3: index, %arg4: index):
      tensor.yield %c-128_i8 : i8
    } : tensor<?x6x6x128xi8> to tensor<?x8x8x128xi8>
    %153 = tensor.empty(%dim_183) : tensor<?x6x6x128x1xi32>
    %154 = linalg.generic {indexing_maps = [#map7, #map8], iterator_types = ["parallel", "parallel", "parallel", "parallel", "parallel"]} ins(%c0_i32 : i32) outs(%153 : tensor<?x6x6x128x1xi32>) {
    ^bb0(%in: i32, %out: i32):
      linalg.yield %in : i32
    } -> tensor<?x6x6x128x1xi32>
    %155 = tensor.empty(%dim_183) : tensor<?x6x6x128xi32>
    %156 = linalg.generic {indexing_maps = [#map9, #map10, #map4, #map4, #map11], iterator_types = ["parallel", "parallel", "parallel", "parallel", "parallel", "reduction", "reduction"]} ins(%padded_184, %cst_62, %c-128_i32, %c0_i32 : tensor<?x8x8x128xi8>, tensor<3x3x128x1xi8>, i32, i32) outs(%154 : tensor<?x6x6x128x1xi32>) {
    ^bb0(%in: i8, %in_247: i8, %in_248: i32, %in_249: i32, %out: i32):
      %294 = arith.extsi %in : i8 to i32
      %295 = arith.subi %294, %in_248 : i32
      %296 = arith.extsi %in_247 : i8 to i32
      %297 = arith.subi %296, %in_249 : i32
      %298 = arith.muli %295, %297 : i32
      %299 = arith.addi %out, %298 : i32
      linalg.yield %299 : i32
    } -> tensor<?x6x6x128x1xi32>
    %collapsed_185 = tensor.collapse_shape %156 [[0], [1], [2], [3, 4]] : tensor<?x6x6x128x1xi32> into tensor<?x6x6x128xi32>
    %157 = linalg.generic {indexing_maps = [#map6, #map1, #map1], iterator_types = ["parallel", "parallel", "parallel", "parallel"]} ins(%cst_91, %collapsed_185 : tensor<128xi32>, tensor<?x6x6x128xi32>) outs(%155 : tensor<?x6x6x128xi32>) {
    ^bb0(%in: i32, %in_247: i32, %out: i32):
      %294 = arith.addi %in, %in_247 : i32
      linalg.yield %294 : i32
    } -> tensor<?x6x6x128xi32>
    %dim_186 = tensor.dim %157, %c0 : tensor<?x6x6x128xi32>
    %158 = tensor.empty(%dim_186) : tensor<?x6x6x128xi8>
    %159 = linalg.generic {indexing_maps = [#map1, #map6, #map6, #map1], iterator_types = ["parallel", "parallel", "parallel", "parallel"]} ins(%157, %cst_23, %cst_22 : tensor<?x6x6x128xi32>, tensor<128xi32>, tensor<128xi8>) outs(%158 : tensor<?x6x6x128xi8>) {
    ^bb0(%in: i32, %in_247: i32, %in_248: i8, %out: i8):
      %294 = arith.extui %in_248 : i8 to i32
      %295 = arith.extsi %in : i32 to i64
      %296 = arith.extsi %in_247 : i32 to i64
      %297 = arith.muli %295, %296 : i64
      %298 = arith.extui %in_248 : i8 to i64
      %299 = arith.shli %c1_i64, %298 : i64
      %300 = arith.shrui %299, %c1_i64 : i64
      %301 = arith.addi %297, %300 : i64
      %302 = arith.cmpi sge, %in, %c0_i32 : i32
      %303 = arith.select %302, %c1073741824_i64, %c-1073741824_i64 : i64
      %304 = arith.addi %303, %301 : i64
      %305 = arith.cmpi sgt, %294, %c31_i32 : i32
      %306 = arith.select %305, %304, %301 : i64
      %307 = arith.shrsi %306, %298 : i64
      %308 = arith.trunci %307 : i64 to i32
      %309 = arith.addi %308, %c-128_i32 : i32
      %310 = arith.cmpi slt, %309, %c-128_i32 : i32
      %311 = arith.select %310, %c-128_i32, %309 : i32
      %312 = arith.cmpi sgt, %309, %c127_i32 : i32
      %313 = arith.select %312, %c127_i32, %311 : i32
      %314 = arith.trunci %313 : i32 to i8
      linalg.yield %314 : i8
    } -> tensor<?x6x6x128xi8>
    %dim_187 = tensor.dim %159, %c0 : tensor<?x6x6x128xi8>
    %160 = tensor.empty(%dim_187) : tensor<?x6x6x128xi8>
    %161 = linalg.generic {indexing_maps = [#map1, #map1], iterator_types = ["parallel", "parallel", "parallel", "parallel"]} ins(%159 : tensor<?x6x6x128xi8>) outs(%160 : tensor<?x6x6x128xi8>) {
    ^bb0(%in: i8, %out: i8):
      %294 = arith.cmpi slt, %in, %c-128_i8 : i8
      %295 = arith.select %294, %c-128_i8, %in : i8
      %296 = arith.cmpi sgt, %in, %c127_i8 : i8
      %297 = arith.select %296, %c127_i8, %295 : i8
      linalg.yield %297 : i8
    } -> tensor<?x6x6x128xi8>
    %dim_188 = tensor.dim %161, %c0 : tensor<?x6x6x128xi8>
    %162 = tensor.empty(%dim_188) : tensor<?x6x6x128xi32>
    %163 = linalg.generic {indexing_maps = [#map, #map1], iterator_types = ["parallel", "parallel", "parallel", "parallel"]} ins(%c0_i32 : i32) outs(%162 : tensor<?x6x6x128xi32>) {
    ^bb0(%in: i32, %out: i32):
      linalg.yield %in : i32
    } -> tensor<?x6x6x128xi32>
    %164 = tensor.empty(%dim_188) : tensor<?x6x6x128xi32>
    %165 = linalg.generic {indexing_maps = [#map12, #map3, #map4, #map4, #map5], iterator_types = ["parallel", "parallel", "parallel", "parallel", "reduction", "reduction", "reduction"]} ins(%161, %cst_90, %c-128_i32, %c0_i32 : tensor<?x6x6x128xi8>, tensor<128x1x1x128xi8>, i32, i32) outs(%163 : tensor<?x6x6x128xi32>) {
    ^bb0(%in: i8, %in_247: i8, %in_248: i32, %in_249: i32, %out: i32):
      %294 = arith.extsi %in : i8 to i32
      %295 = arith.subi %294, %in_248 : i32
      %296 = arith.extsi %in_247 : i8 to i32
      %297 = arith.subi %296, %in_249 : i32
      %298 = arith.muli %295, %297 : i32
      %299 = arith.addi %out, %298 : i32
      linalg.yield %299 : i32
    } -> tensor<?x6x6x128xi32>
    %166 = linalg.generic {indexing_maps = [#map6, #map1, #map1], iterator_types = ["parallel", "parallel", "parallel", "parallel"]} ins(%cst_89, %165 : tensor<128xi32>, tensor<?x6x6x128xi32>) outs(%164 : tensor<?x6x6x128xi32>) {
    ^bb0(%in: i32, %in_247: i32, %out: i32):
      %294 = arith.addi %in, %in_247 : i32
      linalg.yield %294 : i32
    } -> tensor<?x6x6x128xi32>
    %dim_189 = tensor.dim %166, %c0 : tensor<?x6x6x128xi32>
    %167 = tensor.empty(%dim_189) : tensor<?x6x6x128xi8>
    %168 = linalg.generic {indexing_maps = [#map1, #map6, #map6, #map1], iterator_types = ["parallel", "parallel", "parallel", "parallel"]} ins(%166, %cst_21, %cst_20 : tensor<?x6x6x128xi32>, tensor<128xi32>, tensor<128xi8>) outs(%167 : tensor<?x6x6x128xi8>) {
    ^bb0(%in: i32, %in_247: i32, %in_248: i8, %out: i8):
      %294 = arith.extui %in_248 : i8 to i32
      %295 = arith.extsi %in : i32 to i64
      %296 = arith.extsi %in_247 : i32 to i64
      %297 = arith.muli %295, %296 : i64
      %298 = arith.extui %in_248 : i8 to i64
      %299 = arith.shli %c1_i64, %298 : i64
      %300 = arith.shrui %299, %c1_i64 : i64
      %301 = arith.addi %297, %300 : i64
      %302 = arith.cmpi sge, %in, %c0_i32 : i32
      %303 = arith.select %302, %c1073741824_i64, %c-1073741824_i64 : i64
      %304 = arith.addi %303, %301 : i64
      %305 = arith.cmpi sgt, %294, %c31_i32 : i32
      %306 = arith.select %305, %304, %301 : i64
      %307 = arith.shrsi %306, %298 : i64
      %308 = arith.trunci %307 : i64 to i32
      %309 = arith.addi %308, %c-128_i32 : i32
      %310 = arith.cmpi slt, %309, %c-128_i32 : i32
      %311 = arith.select %310, %c-128_i32, %309 : i32
      %312 = arith.cmpi sgt, %309, %c127_i32 : i32
      %313 = arith.select %312, %c127_i32, %311 : i32
      %314 = arith.trunci %313 : i32 to i8
      linalg.yield %314 : i8
    } -> tensor<?x6x6x128xi8>
    %dim_190 = tensor.dim %168, %c0 : tensor<?x6x6x128xi8>
    %169 = tensor.empty(%dim_190) : tensor<?x6x6x128xi8>
    %170 = linalg.generic {indexing_maps = [#map1, #map1], iterator_types = ["parallel", "parallel", "parallel", "parallel"]} ins(%168 : tensor<?x6x6x128xi8>) outs(%169 : tensor<?x6x6x128xi8>) {
    ^bb0(%in: i8, %out: i8):
      %294 = arith.cmpi slt, %in, %c-128_i8 : i8
      %295 = arith.select %294, %c-128_i8, %in : i8
      %296 = arith.cmpi sgt, %in, %c127_i8 : i8
      %297 = arith.select %296, %c127_i8, %295 : i8
      linalg.yield %297 : i8
    } -> tensor<?x6x6x128xi8>
    %dim_191 = tensor.dim %170, %c0 : tensor<?x6x6x128xi8>
    %padded_192 = tensor.pad %170 low[0, 1, 1, 0] high[0, 1, 1, 0] {
    ^bb0(%arg1: index, %arg2: index, %arg3: index, %arg4: index):
      tensor.yield %c-128_i8 : i8
    } : tensor<?x6x6x128xi8> to tensor<?x8x8x128xi8>
    %171 = tensor.empty(%dim_191) : tensor<?x6x6x128x1xi32>
    %172 = linalg.generic {indexing_maps = [#map7, #map8], iterator_types = ["parallel", "parallel", "parallel", "parallel", "parallel"]} ins(%c0_i32 : i32) outs(%171 : tensor<?x6x6x128x1xi32>) {
    ^bb0(%in: i32, %out: i32):
      linalg.yield %in : i32
    } -> tensor<?x6x6x128x1xi32>
    %173 = tensor.empty(%dim_191) : tensor<?x6x6x128xi32>
    %174 = linalg.generic {indexing_maps = [#map9, #map10, #map4, #map4, #map11], iterator_types = ["parallel", "parallel", "parallel", "parallel", "parallel", "reduction", "reduction"]} ins(%padded_192, %cst_61, %c-128_i32, %c0_i32 : tensor<?x8x8x128xi8>, tensor<3x3x128x1xi8>, i32, i32) outs(%172 : tensor<?x6x6x128x1xi32>) {
    ^bb0(%in: i8, %in_247: i8, %in_248: i32, %in_249: i32, %out: i32):
      %294 = arith.extsi %in : i8 to i32
      %295 = arith.subi %294, %in_248 : i32
      %296 = arith.extsi %in_247 : i8 to i32
      %297 = arith.subi %296, %in_249 : i32
      %298 = arith.muli %295, %297 : i32
      %299 = arith.addi %out, %298 : i32
      linalg.yield %299 : i32
    } -> tensor<?x6x6x128x1xi32>
    %collapsed_193 = tensor.collapse_shape %174 [[0], [1], [2], [3, 4]] : tensor<?x6x6x128x1xi32> into tensor<?x6x6x128xi32>
    %175 = linalg.generic {indexing_maps = [#map6, #map1, #map1], iterator_types = ["parallel", "parallel", "parallel", "parallel"]} ins(%cst_88, %collapsed_193 : tensor<128xi32>, tensor<?x6x6x128xi32>) outs(%173 : tensor<?x6x6x128xi32>) {
    ^bb0(%in: i32, %in_247: i32, %out: i32):
      %294 = arith.addi %in, %in_247 : i32
      linalg.yield %294 : i32
    } -> tensor<?x6x6x128xi32>
    %dim_194 = tensor.dim %175, %c0 : tensor<?x6x6x128xi32>
    %176 = tensor.empty(%dim_194) : tensor<?x6x6x128xi8>
    %177 = linalg.generic {indexing_maps = [#map1, #map6, #map6, #map1], iterator_types = ["parallel", "parallel", "parallel", "parallel"]} ins(%175, %cst_19, %cst_18 : tensor<?x6x6x128xi32>, tensor<128xi32>, tensor<128xi8>) outs(%176 : tensor<?x6x6x128xi8>) {
    ^bb0(%in: i32, %in_247: i32, %in_248: i8, %out: i8):
      %294 = arith.extui %in_248 : i8 to i32
      %295 = arith.extsi %in : i32 to i64
      %296 = arith.extsi %in_247 : i32 to i64
      %297 = arith.muli %295, %296 : i64
      %298 = arith.extui %in_248 : i8 to i64
      %299 = arith.shli %c1_i64, %298 : i64
      %300 = arith.shrui %299, %c1_i64 : i64
      %301 = arith.addi %297, %300 : i64
      %302 = arith.cmpi sge, %in, %c0_i32 : i32
      %303 = arith.select %302, %c1073741824_i64, %c-1073741824_i64 : i64
      %304 = arith.addi %303, %301 : i64
      %305 = arith.cmpi sgt, %294, %c31_i32 : i32
      %306 = arith.select %305, %304, %301 : i64
      %307 = arith.shrsi %306, %298 : i64
      %308 = arith.trunci %307 : i64 to i32
      %309 = arith.addi %308, %c-128_i32 : i32
      %310 = arith.cmpi slt, %309, %c-128_i32 : i32
      %311 = arith.select %310, %c-128_i32, %309 : i32
      %312 = arith.cmpi sgt, %309, %c127_i32 : i32
      %313 = arith.select %312, %c127_i32, %311 : i32
      %314 = arith.trunci %313 : i32 to i8
      linalg.yield %314 : i8
    } -> tensor<?x6x6x128xi8>
    %dim_195 = tensor.dim %177, %c0 : tensor<?x6x6x128xi8>
    %178 = tensor.empty(%dim_195) : tensor<?x6x6x128xi8>
    %179 = linalg.generic {indexing_maps = [#map1, #map1], iterator_types = ["parallel", "parallel", "parallel", "parallel"]} ins(%177 : tensor<?x6x6x128xi8>) outs(%178 : tensor<?x6x6x128xi8>) {
    ^bb0(%in: i8, %out: i8):
      %294 = arith.cmpi slt, %in, %c-128_i8 : i8
      %295 = arith.select %294, %c-128_i8, %in : i8
      %296 = arith.cmpi sgt, %in, %c127_i8 : i8
      %297 = arith.select %296, %c127_i8, %295 : i8
      linalg.yield %297 : i8
    } -> tensor<?x6x6x128xi8>
    %dim_196 = tensor.dim %179, %c0 : tensor<?x6x6x128xi8>
    %180 = tensor.empty(%dim_196) : tensor<?x6x6x128xi32>
    %181 = linalg.generic {indexing_maps = [#map, #map1], iterator_types = ["parallel", "parallel", "parallel", "parallel"]} ins(%c0_i32 : i32) outs(%180 : tensor<?x6x6x128xi32>) {
    ^bb0(%in: i32, %out: i32):
      linalg.yield %in : i32
    } -> tensor<?x6x6x128xi32>
    %182 = tensor.empty(%dim_196) : tensor<?x6x6x128xi32>
    %183 = linalg.generic {indexing_maps = [#map12, #map3, #map4, #map4, #map5], iterator_types = ["parallel", "parallel", "parallel", "parallel", "reduction", "reduction", "reduction"]} ins(%179, %cst_87, %c-128_i32, %c0_i32 : tensor<?x6x6x128xi8>, tensor<128x1x1x128xi8>, i32, i32) outs(%181 : tensor<?x6x6x128xi32>) {
    ^bb0(%in: i8, %in_247: i8, %in_248: i32, %in_249: i32, %out: i32):
      %294 = arith.extsi %in : i8 to i32
      %295 = arith.subi %294, %in_248 : i32
      %296 = arith.extsi %in_247 : i8 to i32
      %297 = arith.subi %296, %in_249 : i32
      %298 = arith.muli %295, %297 : i32
      %299 = arith.addi %out, %298 : i32
      linalg.yield %299 : i32
    } -> tensor<?x6x6x128xi32>
    %184 = linalg.generic {indexing_maps = [#map6, #map1, #map1], iterator_types = ["parallel", "parallel", "parallel", "parallel"]} ins(%cst_86, %183 : tensor<128xi32>, tensor<?x6x6x128xi32>) outs(%182 : tensor<?x6x6x128xi32>) {
    ^bb0(%in: i32, %in_247: i32, %out: i32):
      %294 = arith.addi %in, %in_247 : i32
      linalg.yield %294 : i32
    } -> tensor<?x6x6x128xi32>
    %dim_197 = tensor.dim %184, %c0 : tensor<?x6x6x128xi32>
    %185 = tensor.empty(%dim_197) : tensor<?x6x6x128xi8>
    %186 = linalg.generic {indexing_maps = [#map1, #map6, #map6, #map1], iterator_types = ["parallel", "parallel", "parallel", "parallel"]} ins(%184, %cst_17, %cst_16 : tensor<?x6x6x128xi32>, tensor<128xi32>, tensor<128xi8>) outs(%185 : tensor<?x6x6x128xi8>) {
    ^bb0(%in: i32, %in_247: i32, %in_248: i8, %out: i8):
      %294 = arith.extui %in_248 : i8 to i32
      %295 = arith.extsi %in : i32 to i64
      %296 = arith.extsi %in_247 : i32 to i64
      %297 = arith.muli %295, %296 : i64
      %298 = arith.extui %in_248 : i8 to i64
      %299 = arith.shli %c1_i64, %298 : i64
      %300 = arith.shrui %299, %c1_i64 : i64
      %301 = arith.addi %297, %300 : i64
      %302 = arith.cmpi sge, %in, %c0_i32 : i32
      %303 = arith.select %302, %c1073741824_i64, %c-1073741824_i64 : i64
      %304 = arith.addi %303, %301 : i64
      %305 = arith.cmpi sgt, %294, %c31_i32 : i32
      %306 = arith.select %305, %304, %301 : i64
      %307 = arith.shrsi %306, %298 : i64
      %308 = arith.trunci %307 : i64 to i32
      %309 = arith.addi %308, %c-128_i32 : i32
      %310 = arith.cmpi slt, %309, %c-128_i32 : i32
      %311 = arith.select %310, %c-128_i32, %309 : i32
      %312 = arith.cmpi sgt, %309, %c127_i32 : i32
      %313 = arith.select %312, %c127_i32, %311 : i32
      %314 = arith.trunci %313 : i32 to i8
      linalg.yield %314 : i8
    } -> tensor<?x6x6x128xi8>
    %dim_198 = tensor.dim %186, %c0 : tensor<?x6x6x128xi8>
    %187 = tensor.empty(%dim_198) : tensor<?x6x6x128xi8>
    %188 = linalg.generic {indexing_maps = [#map1, #map1], iterator_types = ["parallel", "parallel", "parallel", "parallel"]} ins(%186 : tensor<?x6x6x128xi8>) outs(%187 : tensor<?x6x6x128xi8>) {
    ^bb0(%in: i8, %out: i8):
      %294 = arith.cmpi slt, %in, %c-128_i8 : i8
      %295 = arith.select %294, %c-128_i8, %in : i8
      %296 = arith.cmpi sgt, %in, %c127_i8 : i8
      %297 = arith.select %296, %c127_i8, %295 : i8
      linalg.yield %297 : i8
    } -> tensor<?x6x6x128xi8>
    %dim_199 = tensor.dim %188, %c0 : tensor<?x6x6x128xi8>
    %padded_200 = tensor.pad %188 low[0, 1, 1, 0] high[0, 1, 1, 0] {
    ^bb0(%arg1: index, %arg2: index, %arg3: index, %arg4: index):
      tensor.yield %c-128_i8 : i8
    } : tensor<?x6x6x128xi8> to tensor<?x8x8x128xi8>
    %189 = tensor.empty(%dim_199) : tensor<?x6x6x128x1xi32>
    %190 = linalg.generic {indexing_maps = [#map7, #map8], iterator_types = ["parallel", "parallel", "parallel", "parallel", "parallel"]} ins(%c0_i32 : i32) outs(%189 : tensor<?x6x6x128x1xi32>) {
    ^bb0(%in: i32, %out: i32):
      linalg.yield %in : i32
    } -> tensor<?x6x6x128x1xi32>
    %191 = tensor.empty(%dim_199) : tensor<?x6x6x128xi32>
    %192 = linalg.generic {indexing_maps = [#map9, #map10, #map4, #map4, #map11], iterator_types = ["parallel", "parallel", "parallel", "parallel", "parallel", "reduction", "reduction"]} ins(%padded_200, %cst_60, %c-128_i32, %c0_i32 : tensor<?x8x8x128xi8>, tensor<3x3x128x1xi8>, i32, i32) outs(%190 : tensor<?x6x6x128x1xi32>) {
    ^bb0(%in: i8, %in_247: i8, %in_248: i32, %in_249: i32, %out: i32):
      %294 = arith.extsi %in : i8 to i32
      %295 = arith.subi %294, %in_248 : i32
      %296 = arith.extsi %in_247 : i8 to i32
      %297 = arith.subi %296, %in_249 : i32
      %298 = arith.muli %295, %297 : i32
      %299 = arith.addi %out, %298 : i32
      linalg.yield %299 : i32
    } -> tensor<?x6x6x128x1xi32>
    %collapsed_201 = tensor.collapse_shape %192 [[0], [1], [2], [3, 4]] : tensor<?x6x6x128x1xi32> into tensor<?x6x6x128xi32>
    %193 = linalg.generic {indexing_maps = [#map6, #map1, #map1], iterator_types = ["parallel", "parallel", "parallel", "parallel"]} ins(%cst_85, %collapsed_201 : tensor<128xi32>, tensor<?x6x6x128xi32>) outs(%191 : tensor<?x6x6x128xi32>) {
    ^bb0(%in: i32, %in_247: i32, %out: i32):
      %294 = arith.addi %in, %in_247 : i32
      linalg.yield %294 : i32
    } -> tensor<?x6x6x128xi32>
    %dim_202 = tensor.dim %193, %c0 : tensor<?x6x6x128xi32>
    %194 = tensor.empty(%dim_202) : tensor<?x6x6x128xi8>
    %195 = linalg.generic {indexing_maps = [#map1, #map6, #map6, #map1], iterator_types = ["parallel", "parallel", "parallel", "parallel"]} ins(%193, %cst_15, %cst_14 : tensor<?x6x6x128xi32>, tensor<128xi32>, tensor<128xi8>) outs(%194 : tensor<?x6x6x128xi8>) {
    ^bb0(%in: i32, %in_247: i32, %in_248: i8, %out: i8):
      %294 = arith.extui %in_248 : i8 to i32
      %295 = arith.extsi %in : i32 to i64
      %296 = arith.extsi %in_247 : i32 to i64
      %297 = arith.muli %295, %296 : i64
      %298 = arith.extui %in_248 : i8 to i64
      %299 = arith.shli %c1_i64, %298 : i64
      %300 = arith.shrui %299, %c1_i64 : i64
      %301 = arith.addi %297, %300 : i64
      %302 = arith.cmpi sge, %in, %c0_i32 : i32
      %303 = arith.select %302, %c1073741824_i64, %c-1073741824_i64 : i64
      %304 = arith.addi %303, %301 : i64
      %305 = arith.cmpi sgt, %294, %c31_i32 : i32
      %306 = arith.select %305, %304, %301 : i64
      %307 = arith.shrsi %306, %298 : i64
      %308 = arith.trunci %307 : i64 to i32
      %309 = arith.addi %308, %c-128_i32 : i32
      %310 = arith.cmpi slt, %309, %c-128_i32 : i32
      %311 = arith.select %310, %c-128_i32, %309 : i32
      %312 = arith.cmpi sgt, %309, %c127_i32 : i32
      %313 = arith.select %312, %c127_i32, %311 : i32
      %314 = arith.trunci %313 : i32 to i8
      linalg.yield %314 : i8
    } -> tensor<?x6x6x128xi8>
    %dim_203 = tensor.dim %195, %c0 : tensor<?x6x6x128xi8>
    %196 = tensor.empty(%dim_203) : tensor<?x6x6x128xi8>
    %197 = linalg.generic {indexing_maps = [#map1, #map1], iterator_types = ["parallel", "parallel", "parallel", "parallel"]} ins(%195 : tensor<?x6x6x128xi8>) outs(%196 : tensor<?x6x6x128xi8>) {
    ^bb0(%in: i8, %out: i8):
      %294 = arith.cmpi slt, %in, %c-128_i8 : i8
      %295 = arith.select %294, %c-128_i8, %in : i8
      %296 = arith.cmpi sgt, %in, %c127_i8 : i8
      %297 = arith.select %296, %c127_i8, %295 : i8
      linalg.yield %297 : i8
    } -> tensor<?x6x6x128xi8>
    %dim_204 = tensor.dim %197, %c0 : tensor<?x6x6x128xi8>
    %198 = tensor.empty(%dim_204) : tensor<?x6x6x128xi32>
    %199 = linalg.generic {indexing_maps = [#map, #map1], iterator_types = ["parallel", "parallel", "parallel", "parallel"]} ins(%c0_i32 : i32) outs(%198 : tensor<?x6x6x128xi32>) {
    ^bb0(%in: i32, %out: i32):
      linalg.yield %in : i32
    } -> tensor<?x6x6x128xi32>
    %200 = tensor.empty(%dim_204) : tensor<?x6x6x128xi32>
    %201 = linalg.generic {indexing_maps = [#map12, #map3, #map4, #map4, #map5], iterator_types = ["parallel", "parallel", "parallel", "parallel", "reduction", "reduction", "reduction"]} ins(%197, %cst_84, %c-128_i32, %c0_i32 : tensor<?x6x6x128xi8>, tensor<128x1x1x128xi8>, i32, i32) outs(%199 : tensor<?x6x6x128xi32>) {
    ^bb0(%in: i8, %in_247: i8, %in_248: i32, %in_249: i32, %out: i32):
      %294 = arith.extsi %in : i8 to i32
      %295 = arith.subi %294, %in_248 : i32
      %296 = arith.extsi %in_247 : i8 to i32
      %297 = arith.subi %296, %in_249 : i32
      %298 = arith.muli %295, %297 : i32
      %299 = arith.addi %out, %298 : i32
      linalg.yield %299 : i32
    } -> tensor<?x6x6x128xi32>
    %202 = linalg.generic {indexing_maps = [#map6, #map1, #map1], iterator_types = ["parallel", "parallel", "parallel", "parallel"]} ins(%cst_83, %201 : tensor<128xi32>, tensor<?x6x6x128xi32>) outs(%200 : tensor<?x6x6x128xi32>) {
    ^bb0(%in: i32, %in_247: i32, %out: i32):
      %294 = arith.addi %in, %in_247 : i32
      linalg.yield %294 : i32
    } -> tensor<?x6x6x128xi32>
    %dim_205 = tensor.dim %202, %c0 : tensor<?x6x6x128xi32>
    %203 = tensor.empty(%dim_205) : tensor<?x6x6x128xi8>
    %204 = linalg.generic {indexing_maps = [#map1, #map6, #map6, #map1], iterator_types = ["parallel", "parallel", "parallel", "parallel"]} ins(%202, %cst_13, %cst_12 : tensor<?x6x6x128xi32>, tensor<128xi32>, tensor<128xi8>) outs(%203 : tensor<?x6x6x128xi8>) {
    ^bb0(%in: i32, %in_247: i32, %in_248: i8, %out: i8):
      %294 = arith.extui %in_248 : i8 to i32
      %295 = arith.extsi %in : i32 to i64
      %296 = arith.extsi %in_247 : i32 to i64
      %297 = arith.muli %295, %296 : i64
      %298 = arith.extui %in_248 : i8 to i64
      %299 = arith.shli %c1_i64, %298 : i64
      %300 = arith.shrui %299, %c1_i64 : i64
      %301 = arith.addi %297, %300 : i64
      %302 = arith.cmpi sge, %in, %c0_i32 : i32
      %303 = arith.select %302, %c1073741824_i64, %c-1073741824_i64 : i64
      %304 = arith.addi %303, %301 : i64
      %305 = arith.cmpi sgt, %294, %c31_i32 : i32
      %306 = arith.select %305, %304, %301 : i64
      %307 = arith.shrsi %306, %298 : i64
      %308 = arith.trunci %307 : i64 to i32
      %309 = arith.addi %308, %c-128_i32 : i32
      %310 = arith.cmpi slt, %309, %c-128_i32 : i32
      %311 = arith.select %310, %c-128_i32, %309 : i32
      %312 = arith.cmpi sgt, %309, %c127_i32 : i32
      %313 = arith.select %312, %c127_i32, %311 : i32
      %314 = arith.trunci %313 : i32 to i8
      linalg.yield %314 : i8
    } -> tensor<?x6x6x128xi8>
    %dim_206 = tensor.dim %204, %c0 : tensor<?x6x6x128xi8>
    %205 = tensor.empty(%dim_206) : tensor<?x6x6x128xi8>
    %206 = linalg.generic {indexing_maps = [#map1, #map1], iterator_types = ["parallel", "parallel", "parallel", "parallel"]} ins(%204 : tensor<?x6x6x128xi8>) outs(%205 : tensor<?x6x6x128xi8>) {
    ^bb0(%in: i8, %out: i8):
      %294 = arith.cmpi slt, %in, %c-128_i8 : i8
      %295 = arith.select %294, %c-128_i8, %in : i8
      %296 = arith.cmpi sgt, %in, %c127_i8 : i8
      %297 = arith.select %296, %c127_i8, %295 : i8
      linalg.yield %297 : i8
    } -> tensor<?x6x6x128xi8>
    %dim_207 = tensor.dim %206, %c0 : tensor<?x6x6x128xi8>
    %padded_208 = tensor.pad %206 low[0, 0, 0, 0] high[0, 1, 1, 0] {
    ^bb0(%arg1: index, %arg2: index, %arg3: index, %arg4: index):
      tensor.yield %c-128_i8 : i8
    } : tensor<?x6x6x128xi8> to tensor<?x7x7x128xi8>
    %207 = tensor.empty(%dim_207) : tensor<?x3x3x128x1xi32>
    %208 = linalg.generic {indexing_maps = [#map7, #map8], iterator_types = ["parallel", "parallel", "parallel", "parallel", "parallel"]} ins(%c0_i32 : i32) outs(%207 : tensor<?x3x3x128x1xi32>) {
    ^bb0(%in: i32, %out: i32):
      linalg.yield %in : i32
    } -> tensor<?x3x3x128x1xi32>
    %209 = tensor.empty(%dim_207) : tensor<?x3x3x128xi32>
    %210 = linalg.generic {indexing_maps = [#map13, #map10, #map4, #map4, #map11], iterator_types = ["parallel", "parallel", "parallel", "parallel", "parallel", "reduction", "reduction"]} ins(%padded_208, %cst_59, %c-128_i32, %c0_i32 : tensor<?x7x7x128xi8>, tensor<3x3x128x1xi8>, i32, i32) outs(%208 : tensor<?x3x3x128x1xi32>) {
    ^bb0(%in: i8, %in_247: i8, %in_248: i32, %in_249: i32, %out: i32):
      %294 = arith.extsi %in : i8 to i32
      %295 = arith.subi %294, %in_248 : i32
      %296 = arith.extsi %in_247 : i8 to i32
      %297 = arith.subi %296, %in_249 : i32
      %298 = arith.muli %295, %297 : i32
      %299 = arith.addi %out, %298 : i32
      linalg.yield %299 : i32
    } -> tensor<?x3x3x128x1xi32>
    %collapsed_209 = tensor.collapse_shape %210 [[0], [1], [2], [3, 4]] : tensor<?x3x3x128x1xi32> into tensor<?x3x3x128xi32>
    %211 = linalg.generic {indexing_maps = [#map6, #map1, #map1], iterator_types = ["parallel", "parallel", "parallel", "parallel"]} ins(%cst_82, %collapsed_209 : tensor<128xi32>, tensor<?x3x3x128xi32>) outs(%209 : tensor<?x3x3x128xi32>) {
    ^bb0(%in: i32, %in_247: i32, %out: i32):
      %294 = arith.addi %in, %in_247 : i32
      linalg.yield %294 : i32
    } -> tensor<?x3x3x128xi32>
    %dim_210 = tensor.dim %211, %c0 : tensor<?x3x3x128xi32>
    %212 = tensor.empty(%dim_210) : tensor<?x3x3x128xi8>
    %213 = linalg.generic {indexing_maps = [#map1, #map6, #map6, #map1], iterator_types = ["parallel", "parallel", "parallel", "parallel"]} ins(%211, %cst_11, %cst_10 : tensor<?x3x3x128xi32>, tensor<128xi32>, tensor<128xi8>) outs(%212 : tensor<?x3x3x128xi8>) {
    ^bb0(%in: i32, %in_247: i32, %in_248: i8, %out: i8):
      %294 = arith.extui %in_248 : i8 to i32
      %295 = arith.extsi %in : i32 to i64
      %296 = arith.extsi %in_247 : i32 to i64
      %297 = arith.muli %295, %296 : i64
      %298 = arith.extui %in_248 : i8 to i64
      %299 = arith.shli %c1_i64, %298 : i64
      %300 = arith.shrui %299, %c1_i64 : i64
      %301 = arith.addi %297, %300 : i64
      %302 = arith.cmpi sge, %in, %c0_i32 : i32
      %303 = arith.select %302, %c1073741824_i64, %c-1073741824_i64 : i64
      %304 = arith.addi %303, %301 : i64
      %305 = arith.cmpi sgt, %294, %c31_i32 : i32
      %306 = arith.select %305, %304, %301 : i64
      %307 = arith.shrsi %306, %298 : i64
      %308 = arith.trunci %307 : i64 to i32
      %309 = arith.addi %308, %c-128_i32 : i32
      %310 = arith.cmpi slt, %309, %c-128_i32 : i32
      %311 = arith.select %310, %c-128_i32, %309 : i32
      %312 = arith.cmpi sgt, %309, %c127_i32 : i32
      %313 = arith.select %312, %c127_i32, %311 : i32
      %314 = arith.trunci %313 : i32 to i8
      linalg.yield %314 : i8
    } -> tensor<?x3x3x128xi8>
    %dim_211 = tensor.dim %213, %c0 : tensor<?x3x3x128xi8>
    %214 = tensor.empty(%dim_211) : tensor<?x3x3x128xi8>
    %215 = linalg.generic {indexing_maps = [#map1, #map1], iterator_types = ["parallel", "parallel", "parallel", "parallel"]} ins(%213 : tensor<?x3x3x128xi8>) outs(%214 : tensor<?x3x3x128xi8>) {
    ^bb0(%in: i8, %out: i8):
      %294 = arith.cmpi slt, %in, %c-128_i8 : i8
      %295 = arith.select %294, %c-128_i8, %in : i8
      %296 = arith.cmpi sgt, %in, %c127_i8 : i8
      %297 = arith.select %296, %c127_i8, %295 : i8
      linalg.yield %297 : i8
    } -> tensor<?x3x3x128xi8>
    %dim_212 = tensor.dim %215, %c0 : tensor<?x3x3x128xi8>
    %216 = tensor.empty(%dim_212) : tensor<?x3x3x256xi32>
    %217 = linalg.generic {indexing_maps = [#map, #map1], iterator_types = ["parallel", "parallel", "parallel", "parallel"]} ins(%c0_i32 : i32) outs(%216 : tensor<?x3x3x256xi32>) {
    ^bb0(%in: i32, %out: i32):
      linalg.yield %in : i32
    } -> tensor<?x3x3x256xi32>
    %218 = tensor.empty(%dim_212) : tensor<?x3x3x256xi32>
    %219 = linalg.generic {indexing_maps = [#map12, #map3, #map4, #map4, #map5], iterator_types = ["parallel", "parallel", "parallel", "parallel", "reduction", "reduction", "reduction"]} ins(%215, %cst_81, %c-128_i32, %c0_i32 : tensor<?x3x3x128xi8>, tensor<256x1x1x128xi8>, i32, i32) outs(%217 : tensor<?x3x3x256xi32>) {
    ^bb0(%in: i8, %in_247: i8, %in_248: i32, %in_249: i32, %out: i32):
      %294 = arith.extsi %in : i8 to i32
      %295 = arith.subi %294, %in_248 : i32
      %296 = arith.extsi %in_247 : i8 to i32
      %297 = arith.subi %296, %in_249 : i32
      %298 = arith.muli %295, %297 : i32
      %299 = arith.addi %out, %298 : i32
      linalg.yield %299 : i32
    } -> tensor<?x3x3x256xi32>
    %220 = linalg.generic {indexing_maps = [#map6, #map1, #map1], iterator_types = ["parallel", "parallel", "parallel", "parallel"]} ins(%cst_80, %219 : tensor<256xi32>, tensor<?x3x3x256xi32>) outs(%218 : tensor<?x3x3x256xi32>) {
    ^bb0(%in: i32, %in_247: i32, %out: i32):
      %294 = arith.addi %in, %in_247 : i32
      linalg.yield %294 : i32
    } -> tensor<?x3x3x256xi32>
    %dim_213 = tensor.dim %220, %c0 : tensor<?x3x3x256xi32>
    %221 = tensor.empty(%dim_213) : tensor<?x3x3x256xi8>
    %222 = linalg.generic {indexing_maps = [#map1, #map6, #map6, #map1], iterator_types = ["parallel", "parallel", "parallel", "parallel"]} ins(%220, %cst_9, %cst_8 : tensor<?x3x3x256xi32>, tensor<256xi32>, tensor<256xi8>) outs(%221 : tensor<?x3x3x256xi8>) {
    ^bb0(%in: i32, %in_247: i32, %in_248: i8, %out: i8):
      %294 = arith.extui %in_248 : i8 to i32
      %295 = arith.extsi %in : i32 to i64
      %296 = arith.extsi %in_247 : i32 to i64
      %297 = arith.muli %295, %296 : i64
      %298 = arith.extui %in_248 : i8 to i64
      %299 = arith.shli %c1_i64, %298 : i64
      %300 = arith.shrui %299, %c1_i64 : i64
      %301 = arith.addi %297, %300 : i64
      %302 = arith.cmpi sge, %in, %c0_i32 : i32
      %303 = arith.select %302, %c1073741824_i64, %c-1073741824_i64 : i64
      %304 = arith.addi %303, %301 : i64
      %305 = arith.cmpi sgt, %294, %c31_i32 : i32
      %306 = arith.select %305, %304, %301 : i64
      %307 = arith.shrsi %306, %298 : i64
      %308 = arith.trunci %307 : i64 to i32
      %309 = arith.addi %308, %c-128_i32 : i32
      %310 = arith.cmpi slt, %309, %c-128_i32 : i32
      %311 = arith.select %310, %c-128_i32, %309 : i32
      %312 = arith.cmpi sgt, %309, %c127_i32 : i32
      %313 = arith.select %312, %c127_i32, %311 : i32
      %314 = arith.trunci %313 : i32 to i8
      linalg.yield %314 : i8
    } -> tensor<?x3x3x256xi8>
    %dim_214 = tensor.dim %222, %c0 : tensor<?x3x3x256xi8>
    %223 = tensor.empty(%dim_214) : tensor<?x3x3x256xi8>
    %224 = linalg.generic {indexing_maps = [#map1, #map1], iterator_types = ["parallel", "parallel", "parallel", "parallel"]} ins(%222 : tensor<?x3x3x256xi8>) outs(%223 : tensor<?x3x3x256xi8>) {
    ^bb0(%in: i8, %out: i8):
      %294 = arith.cmpi slt, %in, %c-128_i8 : i8
      %295 = arith.select %294, %c-128_i8, %in : i8
      %296 = arith.cmpi sgt, %in, %c127_i8 : i8
      %297 = arith.select %296, %c127_i8, %295 : i8
      linalg.yield %297 : i8
    } -> tensor<?x3x3x256xi8>
    %dim_215 = tensor.dim %224, %c0 : tensor<?x3x3x256xi8>
    %padded_216 = tensor.pad %224 low[0, 1, 1, 0] high[0, 1, 1, 0] {
    ^bb0(%arg1: index, %arg2: index, %arg3: index, %arg4: index):
      tensor.yield %c-128_i8 : i8
    } : tensor<?x3x3x256xi8> to tensor<?x5x5x256xi8>
    %225 = tensor.empty(%dim_215) : tensor<?x3x3x256x1xi32>
    %226 = linalg.generic {indexing_maps = [#map7, #map8], iterator_types = ["parallel", "parallel", "parallel", "parallel", "parallel"]} ins(%c0_i32 : i32) outs(%225 : tensor<?x3x3x256x1xi32>) {
    ^bb0(%in: i32, %out: i32):
      linalg.yield %in : i32
    } -> tensor<?x3x3x256x1xi32>
    %227 = tensor.empty(%dim_215) : tensor<?x3x3x256xi32>
    %228 = linalg.generic {indexing_maps = [#map9, #map10, #map4, #map4, #map11], iterator_types = ["parallel", "parallel", "parallel", "parallel", "parallel", "reduction", "reduction"]} ins(%padded_216, %cst_58, %c-128_i32, %c0_i32 : tensor<?x5x5x256xi8>, tensor<3x3x256x1xi8>, i32, i32) outs(%226 : tensor<?x3x3x256x1xi32>) {
    ^bb0(%in: i8, %in_247: i8, %in_248: i32, %in_249: i32, %out: i32):
      %294 = arith.extsi %in : i8 to i32
      %295 = arith.subi %294, %in_248 : i32
      %296 = arith.extsi %in_247 : i8 to i32
      %297 = arith.subi %296, %in_249 : i32
      %298 = arith.muli %295, %297 : i32
      %299 = arith.addi %out, %298 : i32
      linalg.yield %299 : i32
    } -> tensor<?x3x3x256x1xi32>
    %collapsed_217 = tensor.collapse_shape %228 [[0], [1], [2], [3, 4]] : tensor<?x3x3x256x1xi32> into tensor<?x3x3x256xi32>
    %229 = linalg.generic {indexing_maps = [#map6, #map1, #map1], iterator_types = ["parallel", "parallel", "parallel", "parallel"]} ins(%cst_79, %collapsed_217 : tensor<256xi32>, tensor<?x3x3x256xi32>) outs(%227 : tensor<?x3x3x256xi32>) {
    ^bb0(%in: i32, %in_247: i32, %out: i32):
      %294 = arith.addi %in, %in_247 : i32
      linalg.yield %294 : i32
    } -> tensor<?x3x3x256xi32>
    %dim_218 = tensor.dim %229, %c0 : tensor<?x3x3x256xi32>
    %230 = tensor.empty(%dim_218) : tensor<?x3x3x256xi8>
    %231 = linalg.generic {indexing_maps = [#map1, #map6, #map6, #map1], iterator_types = ["parallel", "parallel", "parallel", "parallel"]} ins(%229, %cst_7, %cst_6 : tensor<?x3x3x256xi32>, tensor<256xi32>, tensor<256xi8>) outs(%230 : tensor<?x3x3x256xi8>) {
    ^bb0(%in: i32, %in_247: i32, %in_248: i8, %out: i8):
      %294 = arith.extui %in_248 : i8 to i32
      %295 = arith.extsi %in : i32 to i64
      %296 = arith.extsi %in_247 : i32 to i64
      %297 = arith.muli %295, %296 : i64
      %298 = arith.extui %in_248 : i8 to i64
      %299 = arith.shli %c1_i64, %298 : i64
      %300 = arith.shrui %299, %c1_i64 : i64
      %301 = arith.addi %297, %300 : i64
      %302 = arith.cmpi sge, %in, %c0_i32 : i32
      %303 = arith.select %302, %c1073741824_i64, %c-1073741824_i64 : i64
      %304 = arith.addi %303, %301 : i64
      %305 = arith.cmpi sgt, %294, %c31_i32 : i32
      %306 = arith.select %305, %304, %301 : i64
      %307 = arith.shrsi %306, %298 : i64
      %308 = arith.trunci %307 : i64 to i32
      %309 = arith.addi %308, %c-128_i32 : i32
      %310 = arith.cmpi slt, %309, %c-128_i32 : i32
      %311 = arith.select %310, %c-128_i32, %309 : i32
      %312 = arith.cmpi sgt, %309, %c127_i32 : i32
      %313 = arith.select %312, %c127_i32, %311 : i32
      %314 = arith.trunci %313 : i32 to i8
      linalg.yield %314 : i8
    } -> tensor<?x3x3x256xi8>
    %dim_219 = tensor.dim %231, %c0 : tensor<?x3x3x256xi8>
    %232 = tensor.empty(%dim_219) : tensor<?x3x3x256xi8>
    %233 = linalg.generic {indexing_maps = [#map1, #map1], iterator_types = ["parallel", "parallel", "parallel", "parallel"]} ins(%231 : tensor<?x3x3x256xi8>) outs(%232 : tensor<?x3x3x256xi8>) {
    ^bb0(%in: i8, %out: i8):
      %294 = arith.cmpi slt, %in, %c-128_i8 : i8
      %295 = arith.select %294, %c-128_i8, %in : i8
      %296 = arith.cmpi sgt, %in, %c127_i8 : i8
      %297 = arith.select %296, %c127_i8, %295 : i8
      linalg.yield %297 : i8
    } -> tensor<?x3x3x256xi8>
    %dim_220 = tensor.dim %233, %c0 : tensor<?x3x3x256xi8>
    %234 = tensor.empty(%dim_220) : tensor<?x3x3x256xi32>
    %235 = linalg.generic {indexing_maps = [#map, #map1], iterator_types = ["parallel", "parallel", "parallel", "parallel"]} ins(%c0_i32 : i32) outs(%234 : tensor<?x3x3x256xi32>) {
    ^bb0(%in: i32, %out: i32):
      linalg.yield %in : i32
    } -> tensor<?x3x3x256xi32>
    %236 = tensor.empty(%dim_220) : tensor<?x3x3x256xi32>
    %237 = linalg.generic {indexing_maps = [#map12, #map3, #map4, #map4, #map5], iterator_types = ["parallel", "parallel", "parallel", "parallel", "reduction", "reduction", "reduction"]} ins(%233, %cst_78, %c-128_i32, %c0_i32 : tensor<?x3x3x256xi8>, tensor<256x1x1x256xi8>, i32, i32) outs(%235 : tensor<?x3x3x256xi32>) {
    ^bb0(%in: i8, %in_247: i8, %in_248: i32, %in_249: i32, %out: i32):
      %294 = arith.extsi %in : i8 to i32
      %295 = arith.subi %294, %in_248 : i32
      %296 = arith.extsi %in_247 : i8 to i32
      %297 = arith.subi %296, %in_249 : i32
      %298 = arith.muli %295, %297 : i32
      %299 = arith.addi %out, %298 : i32
      linalg.yield %299 : i32
    } -> tensor<?x3x3x256xi32>
    %238 = linalg.generic {indexing_maps = [#map6, #map1, #map1], iterator_types = ["parallel", "parallel", "parallel", "parallel"]} ins(%cst_77, %237 : tensor<256xi32>, tensor<?x3x3x256xi32>) outs(%236 : tensor<?x3x3x256xi32>) {
    ^bb0(%in: i32, %in_247: i32, %out: i32):
      %294 = arith.addi %in, %in_247 : i32
      linalg.yield %294 : i32
    } -> tensor<?x3x3x256xi32>
    %dim_221 = tensor.dim %238, %c0 : tensor<?x3x3x256xi32>
    %239 = tensor.empty(%dim_221) : tensor<?x3x3x256xi8>
    %240 = linalg.generic {indexing_maps = [#map1, #map6, #map6, #map1], iterator_types = ["parallel", "parallel", "parallel", "parallel"]} ins(%238, %cst_5, %cst_4 : tensor<?x3x3x256xi32>, tensor<256xi32>, tensor<256xi8>) outs(%239 : tensor<?x3x3x256xi8>) {
    ^bb0(%in: i32, %in_247: i32, %in_248: i8, %out: i8):
      %294 = arith.extui %in_248 : i8 to i32
      %295 = arith.extsi %in : i32 to i64
      %296 = arith.extsi %in_247 : i32 to i64
      %297 = arith.muli %295, %296 : i64
      %298 = arith.extui %in_248 : i8 to i64
      %299 = arith.shli %c1_i64, %298 : i64
      %300 = arith.shrui %299, %c1_i64 : i64
      %301 = arith.addi %297, %300 : i64
      %302 = arith.cmpi sge, %in, %c0_i32 : i32
      %303 = arith.select %302, %c1073741824_i64, %c-1073741824_i64 : i64
      %304 = arith.addi %303, %301 : i64
      %305 = arith.cmpi sgt, %294, %c31_i32 : i32
      %306 = arith.select %305, %304, %301 : i64
      %307 = arith.shrsi %306, %298 : i64
      %308 = arith.trunci %307 : i64 to i32
      %309 = arith.addi %308, %c-128_i32 : i32
      %310 = arith.cmpi slt, %309, %c-128_i32 : i32
      %311 = arith.select %310, %c-128_i32, %309 : i32
      %312 = arith.cmpi sgt, %309, %c127_i32 : i32
      %313 = arith.select %312, %c127_i32, %311 : i32
      %314 = arith.trunci %313 : i32 to i8
      linalg.yield %314 : i8
    } -> tensor<?x3x3x256xi8>
    %dim_222 = tensor.dim %240, %c0 : tensor<?x3x3x256xi8>
    %241 = tensor.empty(%dim_222) : tensor<?x3x3x256xi8>
    %242 = linalg.generic {indexing_maps = [#map1, #map1], iterator_types = ["parallel", "parallel", "parallel", "parallel"]} ins(%240 : tensor<?x3x3x256xi8>) outs(%241 : tensor<?x3x3x256xi8>) {
    ^bb0(%in: i8, %out: i8):
      %294 = arith.cmpi slt, %in, %c-128_i8 : i8
      %295 = arith.select %294, %c-128_i8, %in : i8
      %296 = arith.cmpi sgt, %in, %c127_i8 : i8
      %297 = arith.select %296, %c127_i8, %295 : i8
      linalg.yield %297 : i8
    } -> tensor<?x3x3x256xi8>
    %dim_223 = tensor.dim %242, %c0 : tensor<?x3x3x256xi8>
    %243 = tensor.empty(%dim_223) : tensor<?x1x1x256xi32>
    %244 = linalg.generic {indexing_maps = [#map, #map1], iterator_types = ["parallel", "parallel", "parallel", "parallel"]} ins(%c0_i32 : i32) outs(%243 : tensor<?x1x1x256xi32>) {
    ^bb0(%in: i32, %out: i32):
      linalg.yield %in : i32
    } -> tensor<?x1x1x256xi32>
    %245 = tensor.empty() : tensor<3x3xi32>
    %246 = linalg.generic {indexing_maps = [#map14, #map15, #map16], iterator_types = ["parallel", "parallel", "parallel", "parallel", "reduction", "reduction"]} ins(%242, %245 : tensor<?x3x3x256xi8>, tensor<3x3xi32>) outs(%244 : tensor<?x1x1x256xi32>) {
    ^bb0(%in: i8, %in_247: i32, %out: i32):
      %294 = arith.extsi %in : i8 to i32
      %295 = arith.addi %out, %294 : i32
      linalg.yield %295 : i32
    } -> tensor<?x1x1x256xi32>
    %247 = tensor.empty(%dim_223) : tensor<?x1x1x256xi8>
    %248 = linalg.generic {indexing_maps = [#map1, #map1], iterator_types = ["parallel", "parallel", "parallel", "parallel"]} ins(%246 : tensor<?x1x1x256xi32>) outs(%247 : tensor<?x1x1x256xi8>) {
    ^bb0(%in: i32, %out: i8):
      %294 = arith.extsi %in : i32 to i64
      %295 = arith.muli %294, %c1908874355_i64 : i64
      %296 = arith.addi %295, %c8589934592_i64 : i64
      %297 = arith.shrsi %296, %c34_i64 : i64
      %298 = arith.trunci %297 : i64 to i32
      %299 = arith.cmpi slt, %298, %c-128_i32 : i32
      %300 = arith.select %299, %c-128_i32, %298 : i32
      %301 = arith.cmpi sgt, %298, %c127_i32 : i32
      %302 = arith.select %301, %c127_i32, %300 : i32
      %303 = arith.trunci %302 : i32 to i8
      linalg.yield %303 : i8
    } -> tensor<?x1x1x256xi8>
    %collapsed_224 = tensor.collapse_shape %248 [[0, 1, 2, 3]] : tensor<?x1x1x256xi8> into tensor<?xi8>
    %expanded = tensor.expand_shape %collapsed_224 [[0, 1]] : tensor<?xi8> into tensor<?x256xi8>
    %dim_225 = tensor.dim %expanded, %c0 : tensor<?x256xi8>
    %249 = tensor.empty(%dim_225) : tensor<?x2xi32>
    %250 = linalg.generic {indexing_maps = [#map17, #map18], iterator_types = ["parallel", "parallel"]} ins(%c0_i32 : i32) outs(%249 : tensor<?x2xi32>) {
    ^bb0(%in: i32, %out: i32):
      linalg.yield %in : i32
    } -> tensor<?x2xi32>
    %251 = tensor.empty() : tensor<256x2xi8>
    %252 = linalg.generic {indexing_maps = [#map19, #map18], iterator_types = ["parallel", "parallel"]} ins(%cst_76 : tensor<2x256xi8>) outs(%251 : tensor<256x2xi8>) {
    ^bb0(%in: i8, %out: i8):
      linalg.yield %in : i8
    } -> tensor<256x2xi8>
    %253 = tensor.empty(%dim_225) : tensor<?x2xi32>
    %254 = linalg.generic {indexing_maps = [#map20, #map21, #map22, #map22, #map23], iterator_types = ["parallel", "parallel", "reduction"]} ins(%expanded, %252, %c-128_i32, %c0_i32 : tensor<?x256xi8>, tensor<256x2xi8>, i32, i32) outs(%250 : tensor<?x2xi32>) {
    ^bb0(%in: i8, %in_247: i8, %in_248: i32, %in_249: i32, %out: i32):
      %294 = arith.extsi %in : i8 to i32
      %295 = arith.subi %294, %in_248 : i32
      %296 = arith.extsi %in_247 : i8 to i32
      %297 = arith.subi %296, %in_249 : i32
      %298 = arith.muli %295, %297 : i32
      %299 = arith.addi %out, %298 : i32
      linalg.yield %299 : i32
    } -> tensor<?x2xi32>
    %255 = linalg.generic {indexing_maps = [#map24, #map18, #map18], iterator_types = ["parallel", "parallel"]} ins(%cst_75, %254 : tensor<2xi32>, tensor<?x2xi32>) outs(%253 : tensor<?x2xi32>) {
    ^bb0(%in: i32, %in_247: i32, %out: i32):
      %294 = arith.addi %in, %in_247 : i32
      linalg.yield %294 : i32
    } -> tensor<?x2xi32>
    %dim_226 = tensor.dim %255, %c0 : tensor<?x2xi32>
    %256 = tensor.empty(%dim_226) : tensor<?x2xi8>
    %257 = linalg.generic {indexing_maps = [#map18, #map18], iterator_types = ["parallel", "parallel"]} ins(%255 : tensor<?x2xi32>) outs(%256 : tensor<?x2xi8>) {
    ^bb0(%in: i32, %out: i8):
      %294 = arith.extsi %in : i32 to i64
      %295 = arith.muli %294, %c1387987940_i64 : i64
      %296 = arith.addi %295, %c137438953472_i64 : i64
      %297 = arith.cmpi sge, %in, %c0_i32 : i32
      %298 = arith.select %297, %c1073741824_i64, %c-1073741824_i64 : i64
      %299 = arith.addi %298, %296 : i64
      %300 = arith.shrsi %299, %c38_i64 : i64
      %301 = arith.trunci %300 : i64 to i32
      %302 = arith.addi %301, %c-5_i32 : i32
      %303 = arith.cmpi slt, %302, %c-128_i32 : i32
      %304 = arith.select %303, %c-128_i32, %302 : i32
      %305 = arith.cmpi sgt, %302, %c127_i32 : i32
      %306 = arith.select %305, %c127_i32, %304 : i32
      %307 = arith.trunci %306 : i32 to i8
      linalg.yield %307 : i8
    } -> tensor<?x2xi8>
    %dim_227 = tensor.dim %257, %c0 : tensor<?x2xi8>
    %258 = tensor.empty(%dim_227) : tensor<?x2xf32>
    %259 = linalg.generic {indexing_maps = [#map18, #map18], iterator_types = ["parallel", "parallel"]} ins(%257 : tensor<?x2xi8>) outs(%258 : tensor<?x2xf32>) {
    ^bb0(%in: i8, %out: f32):
      %294 = arith.sitofp %in : i8 to f32
      linalg.yield %294 : f32
    } -> tensor<?x2xf32>
    %dim_228 = tensor.dim %259, %c0 : tensor<?x2xf32>
    %260 = tensor.empty(%dim_228) : tensor<?x2xf32>
    %261 = linalg.generic {indexing_maps = [#map18, #map25, #map18], iterator_types = ["parallel", "parallel"]} ins(%259, %cst_71 : tensor<?x2xf32>, tensor<1x1xf32>) outs(%260 : tensor<?x2xf32>) {
    ^bb0(%in: f32, %in_247: f32, %out: f32):
      %294 = arith.subf %in, %in_247 : f32
      linalg.yield %294 : f32
    } -> tensor<?x2xf32>
    %dim_229 = tensor.dim %261, %c0 : tensor<?x2xf32>
    %262 = tensor.empty(%dim_229) : tensor<?x2xf32>
    %263 = linalg.generic {indexing_maps = [#map18, #map25, #map18], iterator_types = ["parallel", "parallel"]} ins(%261, %cst_72 : tensor<?x2xf32>, tensor<1x1xf32>) outs(%262 : tensor<?x2xf32>) {
    ^bb0(%in: f32, %in_247: f32, %out: f32):
      %294 = arith.mulf %in, %in_247 : f32
      linalg.yield %294 : f32
    } -> tensor<?x2xf32>
    %dim_230 = tensor.dim %263, %c0 : tensor<?x2xf32>
    %264 = tensor.empty(%dim_230) : tensor<?xf32>
    %265 = linalg.generic {indexing_maps = [#map26, #map27], iterator_types = ["parallel"]} ins(%cst_3 : f32) outs(%264 : tensor<?xf32>) {
    ^bb0(%in: f32, %out: f32):
      linalg.yield %in : f32
    } -> tensor<?xf32>
    %266 = linalg.generic {indexing_maps = [#map18, #map28], iterator_types = ["parallel", "reduction"]} ins(%263 : tensor<?x2xf32>) outs(%265 : tensor<?xf32>) {
    ^bb0(%in: f32, %out: f32):
      %294 = arith.maximumf %in, %out : f32
      linalg.yield %294 : f32
    } -> tensor<?xf32>
    %expanded_231 = tensor.expand_shape %266 [[0, 1]] : tensor<?xf32> into tensor<?x1xf32>
    %dim_232 = tensor.dim %263, %c0 : tensor<?x2xf32>
    %dim_233 = tensor.dim %expanded_231, %c0 : tensor<?x1xf32>
    %267 = arith.maxui %dim_232, %dim_233 : index
    %dim_234 = tensor.dim %263, %c0 : tensor<?x2xf32>
    %268 = arith.cmpi eq, %dim_234, %c1 : index
    %269 = scf.if %268 -> (tensor<?x2xf32>) {
      %294 = tensor.empty(%267) : tensor<?x2xf32>
      %295 = linalg.generic {indexing_maps = [#map29, #map18], iterator_types = ["parallel", "parallel"]} ins(%263 : tensor<?x2xf32>) outs(%294 : tensor<?x2xf32>) {
      ^bb0(%in: f32, %out: f32):
        linalg.yield %in : f32
      } -> tensor<?x2xf32>
      scf.yield %295 : tensor<?x2xf32>
    } else {
      scf.yield %263 : tensor<?x2xf32>
    }
    %dim_235 = tensor.dim %expanded_231, %c0 : tensor<?x1xf32>
    %270 = arith.cmpi eq, %dim_235, %c1 : index
    %271 = scf.if %270 -> (tensor<?x1xf32>) {
      %294 = tensor.empty(%267) : tensor<?x1xf32>
      %295 = linalg.generic {indexing_maps = [#map29, #map18], iterator_types = ["parallel", "parallel"]} ins(%expanded_231 : tensor<?x1xf32>) outs(%294 : tensor<?x1xf32>) {
      ^bb0(%in: f32, %out: f32):
        linalg.yield %in : f32
      } -> tensor<?x1xf32>
      scf.yield %295 : tensor<?x1xf32>
    } else {
      scf.yield %expanded_231 : tensor<?x1xf32>
    }
    %272 = tensor.empty(%267) : tensor<?x2xf32>
    %273 = linalg.generic {indexing_maps = [#map18, #map30, #map18], iterator_types = ["parallel", "parallel"]} ins(%269, %271 : tensor<?x2xf32>, tensor<?x1xf32>) outs(%272 : tensor<?x2xf32>) {
    ^bb0(%in: f32, %in_247: f32, %out: f32):
      %294 = arith.subf %in, %in_247 : f32
      linalg.yield %294 : f32
    } -> tensor<?x2xf32>
    %dim_236 = tensor.dim %273, %c0 : tensor<?x2xf32>
    %274 = tensor.empty(%dim_236) : tensor<?x2xf32>
    %275 = linalg.generic {indexing_maps = [#map18, #map18], iterator_types = ["parallel", "parallel"]} ins(%273 : tensor<?x2xf32>) outs(%274 : tensor<?x2xf32>) {
    ^bb0(%in: f32, %out: f32):
      %294 = math.exp %in : f32
      linalg.yield %294 : f32
    } -> tensor<?x2xf32>
    %dim_237 = tensor.dim %275, %c0 : tensor<?x2xf32>
    %276 = tensor.empty(%dim_237) : tensor<?xf32>
    %277 = linalg.generic {indexing_maps = [#map26, #map27], iterator_types = ["parallel"]} ins(%cst_2 : f32) outs(%276 : tensor<?xf32>) {
    ^bb0(%in: f32, %out: f32):
      linalg.yield %in : f32
    } -> tensor<?xf32>
    %278 = linalg.generic {indexing_maps = [#map18, #map28], iterator_types = ["parallel", "reduction"]} ins(%275 : tensor<?x2xf32>) outs(%277 : tensor<?xf32>) {
    ^bb0(%in: f32, %out: f32):
      %294 = arith.addf %in, %out : f32
      linalg.yield %294 : f32
    } -> tensor<?xf32>
    %expanded_238 = tensor.expand_shape %278 [[0, 1]] : tensor<?xf32> into tensor<?x1xf32>
    %dim_239 = tensor.dim %expanded_238, %c0 : tensor<?x1xf32>
    %279 = tensor.empty(%dim_239) : tensor<?x1xf32>
    %280 = linalg.generic {indexing_maps = [#map30, #map18], iterator_types = ["parallel", "parallel"]} ins(%expanded_238 : tensor<?x1xf32>) outs(%279 : tensor<?x1xf32>) {
    ^bb0(%in: f32, %out: f32):
      %294 = arith.divf %cst_1, %in : f32
      linalg.yield %294 : f32
    } -> tensor<?x1xf32>
    %dim_240 = tensor.dim %275, %c0 : tensor<?x2xf32>
    %dim_241 = tensor.dim %280, %c0 : tensor<?x1xf32>
    %281 = arith.maxui %dim_240, %dim_241 : index
    %dim_242 = tensor.dim %275, %c0 : tensor<?x2xf32>
    %282 = arith.cmpi eq, %dim_242, %c1 : index
    %283 = scf.if %282 -> (tensor<?x2xf32>) {
      %294 = tensor.empty(%281) : tensor<?x2xf32>
      %295 = linalg.generic {indexing_maps = [#map29, #map18], iterator_types = ["parallel", "parallel"]} ins(%275 : tensor<?x2xf32>) outs(%294 : tensor<?x2xf32>) {
      ^bb0(%in: f32, %out: f32):
        linalg.yield %in : f32
      } -> tensor<?x2xf32>
      scf.yield %295 : tensor<?x2xf32>
    } else {
      scf.yield %275 : tensor<?x2xf32>
    }
    %dim_243 = tensor.dim %280, %c0 : tensor<?x1xf32>
    %284 = arith.cmpi eq, %dim_243, %c1 : index
    %285 = scf.if %284 -> (tensor<?x1xf32>) {
      %294 = tensor.empty(%281) : tensor<?x1xf32>
      %295 = linalg.generic {indexing_maps = [#map29, #map18], iterator_types = ["parallel", "parallel"]} ins(%280 : tensor<?x1xf32>) outs(%294 : tensor<?x1xf32>) {
      ^bb0(%in: f32, %out: f32):
        linalg.yield %in : f32
      } -> tensor<?x1xf32>
      scf.yield %295 : tensor<?x1xf32>
    } else {
      scf.yield %280 : tensor<?x1xf32>
    }
    %286 = tensor.empty(%281) : tensor<?x2xf32>
    %287 = linalg.generic {indexing_maps = [#map18, #map30, #map18], iterator_types = ["parallel", "parallel"]} ins(%283, %285 : tensor<?x2xf32>, tensor<?x1xf32>) outs(%286 : tensor<?x2xf32>) {
    ^bb0(%in: f32, %in_247: f32, %out: f32):
      %294 = arith.mulf %in, %in_247 : f32
      linalg.yield %294 : f32
    } -> tensor<?x2xf32>
    %dim_244 = tensor.dim %287, %c0 : tensor<?x2xf32>
    %288 = tensor.empty(%dim_244) : tensor<?x2xf32>
    %289 = linalg.generic {indexing_maps = [#map18, #map25, #map18], iterator_types = ["parallel", "parallel"]} ins(%287, %cst_73 : tensor<?x2xf32>, tensor<1x1xf32>) outs(%288 : tensor<?x2xf32>) {
    ^bb0(%in: f32, %in_247: f32, %out: f32):
      %294 = arith.mulf %in, %in_247 : f32
      linalg.yield %294 : f32
    } -> tensor<?x2xf32>
    %dim_245 = tensor.dim %289, %c0 : tensor<?x2xf32>
    %290 = tensor.empty(%dim_245) : tensor<?x2xf32>
    %291 = linalg.generic {indexing_maps = [#map18, #map25, #map18], iterator_types = ["parallel", "parallel"]} ins(%289, %cst_74 : tensor<?x2xf32>, tensor<1x1xf32>) outs(%290 : tensor<?x2xf32>) {
    ^bb0(%in: f32, %in_247: f32, %out: f32):
      %294 = arith.addf %in, %in_247 : f32
      linalg.yield %294 : f32
    } -> tensor<?x2xf32>
    %dim_246 = tensor.dim %291, %c0 : tensor<?x2xf32>
    %292 = tensor.empty(%dim_246) : tensor<?x2xi8>
    %293 = linalg.generic {indexing_maps = [#map18, #map18], iterator_types = ["parallel", "parallel"]} ins(%291 : tensor<?x2xf32>) outs(%292 : tensor<?x2xi8>) {
    ^bb0(%in: f32, %out: i8):
      %294 = math.roundeven %in : f32
      %295 = arith.minimumf %294, %cst : f32
      %296 = arith.maximumf %295, %cst_0 : f32
      %297 = arith.fptosi %296 : f32 to i8
      linalg.yield %297 : i8
    } -> tensor<?x2xi8>
    return %293 : tensor<?x2xi8>
  }
}

