module {
  func.func @main(%arg0: tensor<?x96x96x3xi8> {ml_program.identifier = "input_1_int8"}) -> (tensor<?x2xi8> {ml_program.identifier = "Identity_int8"}) {
    %0 = "tosa.const"() <{value = dense<"…"> : tensor<3x3x256x1xi8>}> : () -> tensor<3x3x256x1xi8>
    %1 = "tosa.const"() <{value = dense<"…"> : tensor<3x3x128x1xi8>}> : () -> tensor<3x3x128x1xi8>
    %2 = "tosa.const"() <{value = dense<"…"> : tensor<3x3x128x1xi8>}> : () -> tensor<3x3x128x1xi8>
    %3 = "tosa.const"() <{value = dense<"…"> : tensor<3x3x128x1xi8>}> : () -> tensor<3x3x128x1xi8>
    %4 = "tosa.const"() <{value = dense<"…"> : tensor<3x3x128x1xi8>}> : () -> tensor<3x3x128x1xi8>
    %5 = "tosa.const"() <{value = dense<"…"> : tensor<3x3x128x1xi8>}> : () -> tensor<3x3x128x1xi8>
    %6 = "tosa.const"() <{value = dense<"…"> : tensor<3x3x128x1xi8>}> : () -> tensor<3x3x128x1xi8>
    %7 = "tosa.const"() <{value = dense<"…"> : tensor<3x3x64x1xi8>}> : () -> tensor<3x3x64x1xi8>
    %8 = "tosa.const"() <{value = dense<"…"> : tensor<3x3x64x1xi8>}> : () -> tensor<3x3x64x1xi8>
    %9 = "tosa.const"() <{value = dense<"…"> : tensor<3x3x32x1xi8>}> : () -> tensor<3x3x32x1xi8>
    %10 = "tosa.const"() <{value = dense<"…"> : tensor<3x3x32x1xi8>}> : () -> tensor<3x3x32x1xi8>
    %11 = "tosa.const"() <{value = dense<"…"> : tensor<3x3x16x1xi8>}> : () -> tensor<3x3x16x1xi8>
    %12 = "tosa.const"() <{value = dense<[[[[-74], [-113], [-71], [-27], [-40], [-57], [81], [41]], [[-5], [6], [-30], [-18], [-40], [57], [1], [49]], [[-77], [-7], [-11], [-3], [25], [49], [47], [-26]]], [[[108], [78], [16], [17], [52], [23], [-103], [-14]], [[127], [44], [75], [-1], [33], [-127], [-127], [-127]], [[40], [-27], [-25], [-3], [-62], [24], [13], [38]]], [[[42], [127], [127], [-1], [50], [17], [34], [-73]], [[44], [66], [70], [127], [127], [50], [-72], [-63]], [[-91], [-104], [-1], [-46], [-72], [-82], [75], [60]]]]> : tensor<3x3x8x1xi8>}> : () -> tensor<3x3x8x1xi8>
    %13 = "tosa.const"() <{value = dense<-5.000000e+00> : tensor<1x1xf32>}> : () -> tensor<1x1xf32>
    %14 = "tosa.const"() <{value = dense<0.0146362185> : tensor<1x1xf32>}> : () -> tensor<1x1xf32>
    %15 = "tosa.const"() <{value = dense<2.560000e+02> : tensor<1x1xf32>}> : () -> tensor<1x1xf32>
    %16 = "tosa.const"() <{value = dense<-1.280000e+02> : tensor<1x1xf32>}> : () -> tensor<1x1xf32>
    %17 = "tosa.const"() <{value = dense<[1463, -1463]> : tensor<2xi32>}> : () -> tensor<2xi32>
    %18 = "tosa.const"() <{value = dense<"…"> : tensor<2x256xi8>}> : () -> tensor<2x256xi8>
    %19 = "tosa.const"() <{value = dense<"…"> : tensor<256xi32>}> : () -> tensor<256xi32>
    %20 = "tosa.const"() <{value = dense<"…"> : tensor<256x1x1x256xi8>}> : () -> tensor<256x1x1x256xi8>
    %21 = "tosa.const"() <{value = dense<"…"> : tensor<256xi32>}> : () -> tensor<256xi32>
    %22 = "tosa.const"() <{value = dense<"…"> : tensor<256xi32>}> : () -> tensor<256xi32>
    %23 = "tosa.const"() <{value = dense<"…"> : tensor<256x1x1x128xi8>}> : () -> tensor<256x1x1x128xi8>
    %24 = "tosa.const"() <{value = dense<"…"> : tensor<128xi32>}> : () -> tensor<128xi32>
    %25 = "tosa.const"() <{value = dense<"…"> : tensor<128xi32>}> : () -> tensor<128xi32>
    %26 = "tosa.const"() <{value = dense<"…"> : tensor<128x1x1x128xi8>}> : () -> tensor<128x1x1x128xi8>
    %27 = "tosa.const"() <{value = dense<"…"> : tensor<128xi32>}> : () -> tensor<128xi32>
    %28 = "tosa.const"() <{value = dense<"…"> : tensor<128xi32>}> : () -> tensor<128xi32>
    %29 = "tosa.const"() <{value = dense<"…"> : tensor<128x1x1x128xi8>}> : () -> tensor<128x1x1x128xi8>
    %30 = "tosa.const"() <{value = dense<"…"> : tensor<128xi32>}> : () -> tensor<128xi32>
    %31 = "tosa.const"() <{value = dense<"…"> : tensor<128xi32>}> : () -> tensor<128xi32>
    %32 = "tosa.const"() <{value = dense<"…"> : tensor<128x1x1x128xi8>}> : () -> tensor<128x1x1x128xi8>
    %33 = "tosa.const"() <{value = dense<"…"> : tensor<128xi32>}> : () -> tensor<128xi32>
    %34 = "tosa.const"() <{value = dense<"…"> : tensor<128xi32>}> : () -> tensor<128xi32>
    %35 = "tosa.const"() <{value = dense<"…"> : tensor<128x1x1x128xi8>}> : () -> tensor<128x1x1x128xi8>
    %36 = "tosa.const"() <{value = dense<"…"> : tensor<128xi32>}> : () -> tensor<128xi32>
    %37 = "tosa.const"() <{value = dense<"…"> : tensor<128xi32>}> : () -> tensor<128xi32>
    %38 = "tosa.const"() <{value = dense<"…"> : tensor<128x1x1x128xi8>}> : () -> tensor<128x1x1x128xi8>
    %39 = "tosa.const"() <{value = dense<"…"> : tensor<128xi32>}> : () -> tensor<128xi32>
    %40 = "tosa.const"() <{value = dense<"…"> : tensor<128xi32>}> : () -> tensor<128xi32>
    %41 = "tosa.const"() <{value = dense<"…"> : tensor<128x1x1x64xi8>}> : () -> tensor<128x1x1x64xi8>
    %42 = "tosa.const"() <{value = dense<[-1479, 9944, -434, 1837, -5117, -577, 197, 711, 10279, -670, -9031, 10509, 2416, -578, -5517, -1395, 16288, -9296, -10300, 13592, 14, -651, -2908, -2118, -3054, 203, -6395, -3608, 14674, -2819, -4765, 5024, -1931, -805, -3280, -815, 4334, -1312, 10166, -2772, 10462, -2073, -6587, -10116, 18390, 17714, -4264, -215, 8907, -119, 57, -390, 15620, -2427, 1380, -5181, 324, -1703, -3909, -3993, 1480, -3968, -5178, 1064]> : tensor<64xi32>}> : () -> tensor<64xi32>
    %43 = "tosa.const"() <{value = dense<[895, -14621, 3587, 1073741760, 5272, -2098, 637, -2477, 10261, -16174, -3386, 2551, 1073741824, -1073741824, -9162, 361, 2254, -419, 1171, 1449, -12488, -2305, -4290, -10244, 2962, -4352, -9497, 47, 190, -411, -9975, 21861, 8838, 5818, -2948, 3860, 500, -14437, 9963, -728, -3020, -11482, -1176, -2745, 9377, 3814, 580, -1073741824, 10600, -10374, 9637, 1934, -1016, 1180, -459, -3738, -2658, 10153, -2623, 9812, -1637, 986, 2244, -185]> : tensor<64xi32>}> : () -> tensor<64xi32>
    %44 = "tosa.const"() <{value = dense<"…"> : tensor<64x1x1x64xi8>}> : () -> tensor<64x1x1x64xi8>
    %45 = "tosa.const"() <{value = dense<[-230, -3345, 3352, -4400, -423, -932, -325, -5482, -3116, 1589, -667, -2888, -6702, -201, 840, -1033, -710, -6680, 910, 3329, -1762, -2358, 2758, 4281, -125, -1928, -3800, 4100, 11712, 371, -5756, 1008, -191, 3458, 4092, -1283, 779, -1433, -6402, -475, 6984, -75, -1175, -6046, -4662, 7947, -1348, -3567, 18, 346, -220, -220, 770, 3828, 4184, -389, -2191, -889, 3340, -1526, -722, 627, 61, 2658]> : tensor<64xi32>}> : () -> tensor<64xi32>
    %46 = "tosa.const"() <{value = dense<[15956, 975, 9376, -144, -11245, 6122, 12378, -2234, 2141, 9436, 1510, 11065, 8290, 13436, 10620, 570, -6686, -10103, -2453, -13392, 4228, -4673, 17029, 17946, 6977, 2014, 2116, 4818, 10045, 2746, -895, 12392, -13918, 14911, -11728, 14470, 6843, 6772, 18653, 8138, 4268, 2888, 4412, 5934, -3099, 5267, 9423, 13912, -2986, 5640, 8784, -5368, 11416, 11088, -6580, 20470, 13620, 7383, 3244, 27452, -1336, 7875, -3676, -288]> : tensor<64xi32>}> : () -> tensor<64xi32>
    %47 = "tosa.const"() <{value = dense<"…"> : tensor<64x1x1x32xi8>}> : () -> tensor<64x1x1x32xi8>
    %48 = "tosa.const"() <{value = dense<[116, 9317, 1182, 1079, 2366, 8784, 440, 9400, 11013, 202, -7340, -395, -1934, 10160, 6805, 10270, 9382, 13314, 10073, 8164, -4276, 10052, -1347, -4775, -2234, -1176, 14306, -158, 7960, 1353, 1159, 6309]> : tensor<32xi32>}> : () -> tensor<32xi32>
    %49 = "tosa.const"() <{value = dense<[-5126, 3473, 6204, 2309, 3709, 1513, -717, -2251, 3247, 4328, 3538, 3492, 2294, -2112, -261, 946, 4008, 7364, 8074, -1135, 2049, 6646, -2086, 1950, 1415, 5098, 3866, -2008, -438, -2822, 4983, 2993]> : tensor<32xi32>}> : () -> tensor<32xi32>
    %50 = "tosa.const"() <{value = dense<"…"> : tensor<32x1x1x32xi8>}> : () -> tensor<32x1x1x32xi8>
    %51 = "tosa.const"() <{value = dense<[-4022, -1190, 3563, -4529, 6490, 2210, -680, 3026, -109, -1759, -300, 1686, 202, 2051, -1403, -3368, -171, -32, -351, -846, 871, -4029, 3766, 57, 4585, 101, -2373, -475, -394, -94, 7402, -4489]> : tensor<32xi32>}> : () -> tensor<32xi32>
    %52 = "tosa.const"() <{value = dense<[-2541, 14950, -4824, -4847, 5154, 3978, -693, -9367, 10924, 1481, -2643, -130, -9312, -269, -2186, 3525, -6653, -966, -6803, -1263, 3494, 6204, 350, 5658, -6192, 5517, -22586, 8517, -2158, -4145, 446, -6711]> : tensor<32xi32>}> : () -> tensor<32xi32>
    %53 = "tosa.const"() <{value = dense<"…"> : tensor<32x1x1x16xi8>}> : () -> tensor<32x1x1x16xi8>
    %54 = "tosa.const"() <{value = dense<[-1678, 11463, 10067, 182, 7018, 703, 417, 11033, 3731, -6483, -303, 13894, -6733, -3723, 10421, 11383]> : tensor<16xi32>}> : () -> tensor<16xi32>
    %55 = "tosa.const"() <{value = dense<[-1832, 2518, -909, 3142, 5726, 493, -2770, 3802, 8393, -144, 7745, 3927, -3660, -221, 5163, -327]> : tensor<16xi32>}> : () -> tensor<16xi32>
    %56 = "tosa.const"() <{value = dense<"…"> : tensor<16x1x1x8xi8>}> : () -> tensor<16x1x1x8xi8>
    %57 = "tosa.const"() <{value = dense<[-1066, -291, -2269, 2239, -115, 3445, 5252, 6322]> : tensor<8xi32>}> : () -> tensor<8xi32>
    %58 = "tosa.const"() <{value = dense<[12398, 12434, 33904, 18963, 50193, 77222, 15216, 89048]> : tensor<8xi32>}> : () -> tensor<8xi32>
    %59 = "tosa.const"() <{value = dense<"…"> : tensor<8x3x3x3xi8>}> : () -> tensor<8x3x3x3xi8>
    %60 = tosa.conv2d %arg0, %59, %58 {dilation = array<i64: 1, 1>, pad = array<i64: 0, 1, 0, 1>, quantization_info = #tosa.conv_quant<input_zp = -128, weight_zp = 0>, stride = array<i64: 2, 2>} : (tensor<?x96x96x3xi8>, tensor<8x3x3x3xi8>, tensor<8xi32>) -> tensor<?x48x48x8xi32>
    %61 = tosa.rescale %60 {double_round = true, input_zp = 0 : i32, multiplier = array<i32: 1179182713, 1673859857, 1629160017, 1965349095, 2002280840, 1493832051, 1343198053, 1089360004>, output_zp = -128 : i32, per_channel = true, scale32 = true, shift = array<i32: 38, 39, 39, 39, 40, 41, 39, 40>} : (tensor<?x48x48x8xi32>) -> tensor<?x48x48x8xi8>
    %62 = tosa.clamp %61 {max_fp = 0.000000e+00 : f32, max_int = 127 : i64, min_fp = 0.000000e+00 : f32, min_int = -128 : i64} : (tensor<?x48x48x8xi8>) -> tensor<?x48x48x8xi8>
    %63 = tosa.depthwise_conv2d %62, %12, %57 {dilation = array<i64: 1, 1>, pad = array<i64: 1, 1, 1, 1>, quantization_info = #tosa.conv_quant<input_zp = -128, weight_zp = 0>, stride = array<i64: 1, 1>} : (tensor<?x48x48x8xi8>, tensor<3x3x8x1xi8>, tensor<8xi32>) -> tensor<?x48x48x8xi32>
    %64 = tosa.rescale %63 {double_round = true, input_zp = 0 : i32, multiplier = array<i32: 1774938322, 1243371083, 1245972338, 1646402194, 1255879271, 1190494641, 1703681304, 1526575410>, output_zp = -128 : i32, per_channel = true, scale32 = true, shift = array<i32: 39, 38, 39, 38, 38, 36, 38, 38>} : (tensor<?x48x48x8xi32>) -> tensor<?x48x48x8xi8>
    %65 = tosa.clamp %64 {max_fp = 0.000000e+00 : f32, max_int = 127 : i64, min_fp = 0.000000e+00 : f32, min_int = -128 : i64} : (tensor<?x48x48x8xi8>) -> tensor<?x48x48x8xi8>
    %66 = tosa.conv2d %65, %56, %55 {dilation = array<i64: 1, 1>, pad = array<i64: 0, 0, 0, 0>, quantization_info = #tosa.conv_quant<input_zp = -128, weight_zp = 0>, stride = array<i64: 1, 1>} : (tensor<?x48x48x8xi8>, tensor<16x1x1x8xi8>, tensor<16xi32>) -> tensor<?x48x48x16xi32>
    %67 = tosa.rescale %66 {double_round = true, input_zp = 0 : i32, multiplier = array<i32: 1740558766, 1549241289, 2047988959, 2067897361, 1571691479, 1340550847, 1424193573, 1829389410, 2072712549, 1218009532, 1496189387, 1430332007, 1762944717, 1272555712, 1403573372, 1663644963>, output_zp = -128 : i32, per_channel = true, scale32 = true, shift = array<i32: 37, 37, 38, 39, 39, 38, 37, 37, 39, 38, 38, 38, 37, 38, 37, 37>} : (tensor<?x48x48x16xi32>) -> tensor<?x48x48x16xi8>
    %68 = tosa.clamp %67 {max_fp = 0.000000e+00 : f32, max_int = 127 : i64, min_fp = 0.000000e+00 : f32, min_int = -128 : i64} : (tensor<?x48x48x16xi8>) -> tensor<?x48x48x16xi8>
    %69 = tosa.depthwise_conv2d %68, %11, %54 {dilation = array<i64: 1, 1>, pad = array<i64: 0, 1, 0, 1>, quantization_info = #tosa.conv_quant<input_zp = -128, weight_zp = 0>, stride = array<i64: 2, 2>} : (tensor<?x48x48x16xi8>, tensor<3x3x16x1xi8>, tensor<16xi32>) -> tensor<?x24x24x16xi32>
    %70 = tosa.rescale %69 {double_round = true, input_zp = 0 : i32, multiplier = array<i32: 1708841872, 2035120732, 1755327149, 1102250035, 2061352956, 1700200755, 1181457292, 1515078530, 1342733388, 1946705614, 1290012645, 1133273217, 1868352483, 2041886983, 1951811605, 1209859860>, output_zp = -128 : i32, per_channel = true, scale32 = true, shift = array<i32: 39, 39, 38, 37, 37, 37, 38, 38, 37, 38, 36, 37, 39, 38, 39, 38>} : (tensor<?x24x24x16xi32>) -> tensor<?x24x24x16xi8>
    %71 = tosa.clamp %70 {max_fp = 0.000000e+00 : f32, max_int = 127 : i64, min_fp = 0.000000e+00 : f32, min_int = -128 : i64} : (tensor<?x24x24x16xi8>) -> tensor<?x24x24x16xi8>
    %72 = tosa.conv2d %71, %53, %52 {dilation = array<i64: 1, 1>, pad = array<i64: 0, 0, 0, 0>, quantization_info = #tosa.conv_quant<input_zp = -128, weight_zp = 0>, stride = array<i64: 1, 1>} : (tensor<?x24x24x16xi8>, tensor<32x1x1x16xi8>, tensor<32xi32>) -> tensor<?x24x24x32xi32>
    %73 = tosa.rescale %72 {double_round = true, input_zp = 0 : i32, multiplier = array<i32: 1767411713, 1763559686, 1525844111, 1494493824, 1813769552, 1173590329, 2123988210, 1502771114, 1213741737, 1415458107, 1261352937, 1388146025, 1295061967, 1245209636, 1942248249, 1740164583, 1105266322, 1229387839, 1567480970, 2096859173, 1771123112, 1273897269, 1236698809, 1111124858, 1143862506, 2139635637, 2050267798, 1243261450, 1469351414, 2043273753, 1991967302, 1221293233>, output_zp = -128 : i32, per_channel = true, scale32 = true, shift = array<i32: 39, 40, 38, 38, 39, 39, 39, 38, 38, 38, 38, 38, 37, 38, 38, 39, 38, 39, 38, 39, 39, 38, 39, 38, 37, 40, 39, 39, 38, 38, 38, 38>} : (tensor<?x24x24x32xi32>) -> tensor<?x24x24x32xi8>
    %74 = tosa.clamp %73 {max_fp = 0.000000e+00 : f32, max_int = 127 : i64, min_fp = 0.000000e+00 : f32, min_int = -128 : i64} : (tensor<?x24x24x32xi8>) -> tensor<?x24x24x32xi8>
    %75 = tosa.depthwise_conv2d %74, %10, %51 {dilation = array<i64: 1, 1>, pad = array<i64: 1, 1, 1, 1>, quantization_info = #tosa.conv_quant<input_zp = -128, weight_zp = 0>, stride = array<i64: 1, 1>} : (tensor<?x24x24x32xi8>, tensor<3x3x32x1xi8>, tensor<32xi32>) -> tensor<?x24x24x32xi32>
    %76 = tosa.rescale %75 {double_round = true, input_zp = 0 : i32, multiplier = array<i32: 1977545271, 1489544133, 1462272696, 1113542160, 1275734482, 1484223587, 1406050503, 1205329682, 1078033883, 1191826471, 1097082255, 1730110921, 1802777803, 1211544782, 1341010557, 1235199765, 1405155539, 1147167783, 1114508569, 1265305462, 1413066815, 1542342207, 1370202786, 1443028595, 1748058732, 1857646138, 1583521780, 1829439645, 2081596562, 1527616618, 1980074938, 1256659381>, output_zp = -128 : i32, per_channel = true, scale32 = true, shift = array<i32: 38, 36, 38, 38, 38, 37, 37, 37, 37, 38, 37, 38, 38, 37, 37, 38, 37, 37, 37, 37, 36, 38, 37, 37, 38, 37, 38, 38, 38, 38, 38, 38>} : (tensor<?x24x24x32xi32>) -> tensor<?x24x24x32xi8>
    %77 = tosa.clamp %76 {max_fp = 0.000000e+00 : f32, max_int = 127 : i64, min_fp = 0.000000e+00 : f32, min_int = -128 : i64} : (tensor<?x24x24x32xi8>) -> tensor<?x24x24x32xi8>
    %78 = tosa.conv2d %77, %50, %49 {dilation = array<i64: 1, 1>, pad = array<i64: 0, 0, 0, 0>, quantization_info = #tosa.conv_quant<input_zp = -128, weight_zp = 0>, stride = array<i64: 1, 1>} : (tensor<?x24x24x32xi8>, tensor<32x1x1x32xi8>, tensor<32xi32>) -> tensor<?x24x24x32xi32>
    %79 = tosa.rescale %78 {double_round = true, input_zp = 0 : i32, multiplier = array<i32: 1710192701, 2083168648, 1168689860, 2138090880, 1425936817, 1592508877, 1726876036, 1152568772, 2081918229, 1172171892, 1341608583, 2035192600, 1353299434, 1113353591, 2033075073, 1287248599, 2142049407, 1588358317, 1861983372, 1328499583, 1962083382, 1585945877, 1827176390, 1098434695, 1918718774, 1237596889, 1904740777, 1492824162, 1332733252, 1202184971, 1103384616, 1243885754>, output_zp = -128 : i32, per_channel = true, scale32 = true, shift = array<i32: 39, 38, 39, 39, 39, 39, 39, 37, 39, 39, 38, 39, 38, 38, 38, 37, 39, 39, 39, 38, 39, 39, 38, 38, 39, 38, 39, 38, 38, 37, 37, 38>} : (tensor<?x24x24x32xi32>) -> tensor<?x24x24x32xi8>
    %80 = tosa.clamp %79 {max_fp = 0.000000e+00 : f32, max_int = 127 : i64, min_fp = 0.000000e+00 : f32, min_int = -128 : i64} : (tensor<?x24x24x32xi8>) -> tensor<?x24x24x32xi8>
    %81 = tosa.depthwise_conv2d %80, %9, %48 {dilation = array<i64: 1, 1>, pad = array<i64: 0, 1, 0, 1>, quantization_info = #tosa.conv_quant<input_zp = -128, weight_zp = 0>, stride = array<i64: 2, 2>} : (tensor<?x24x24x32xi8>, tensor<3x3x32x1xi8>, tensor<32xi32>) -> tensor<?x12x12x32xi32>
    %82 = tosa.rescale %81 {double_round = true, input_zp = 0 : i32, multiplier = array<i32: 1116805413, 1494305519, 1121370940, 1690084744, 1906525973, 1284359072, 1635062873, 1514385068, 1770799560, 1173429631, 1357211117, 1483780611, 1460491508, 1924919614, 1594828194, 1550701066, 1900772606, 1769830208, 1079777995, 1354317281, 1416057010, 1957586603, 1483576155, 1802264766, 1618203427, 1853050220, 1376695095, 1931000073, 1073982067, 1516074003, 1927345927, 1367153480>, output_zp = -128 : i32, per_channel = true, scale32 = true, shift = array<i32: 36, 38, 36, 38, 37, 37, 38, 38, 38, 36, 38, 37, 38, 38, 38, 38, 38, 37, 37, 38, 38, 38, 38, 39, 38, 38, 38, 39, 37, 39, 39, 37>} : (tensor<?x12x12x32xi32>) -> tensor<?x12x12x32xi8>
    %83 = tosa.clamp %82 {max_fp = 0.000000e+00 : f32, max_int = 127 : i64, min_fp = 0.000000e+00 : f32, min_int = -128 : i64} : (tensor<?x12x12x32xi8>) -> tensor<?x12x12x32xi8>
    %84 = tosa.conv2d %83, %47, %46 {dilation = array<i64: 1, 1>, pad = array<i64: 0, 0, 0, 0>, quantization_info = #tosa.conv_quant<input_zp = -128, weight_zp = 0>, stride = array<i64: 1, 1>} : (tensor<?x12x12x32xi8>, tensor<64x1x1x32xi8>, tensor<64xi32>) -> tensor<?x12x12x64xi32>
    %85 = tosa.rescale %84 {double_round = true, input_zp = 0 : i32, multiplier = array<i32: 1955282540, 1579959423, 1447996618, 2084237596, 1275775098, 2081543380, 1450957465, 1423214114, 1759248074, 1100988104, 1700873923, 1845333800, 1230060999, 1108090059, 1313990813, 1316854693, 2005354661, 1806449397, 1866325428, 1075289863, 1457337382, 1134073105, 2134325313, 1619077979, 1492693790, 1752887621, 1296785135, 1180198172, 1143809361, 1897205271, 1650090668, 1080487175, 1319073922, 1788367260, 1449633807, 1078924441, 1598513265, 1143818976, 1437660852, 1717375737, 1626915455, 1361284296, 1299651243, 2080328649, 1643345042, 1099368502, 1550248349, 1407080589, 1257617099, 1655353994, 2036523530, 1203902074, 1786195753, 1815191473, 1538112882, 1693517649, 1490275584, 1100166285, 1371141204, 1765232030, 1750458276, 1893754896, 1842939279, 2128243685>, output_zp = -128 : i32, per_channel = true, scale32 = true, shift = array<i32: 40, 39, 39, 39, 39, 40, 39, 38, 39, 39, 38, 39, 39, 39, 39, 38, 39, 38, 39, 38, 39, 38, 40, 39, 38, 39, 38, 38, 38, 39, 38, 38, 38, 39, 38, 39, 39, 39, 39, 39, 38, 39, 38, 39, 38, 37, 39, 38, 38, 38, 39, 39, 39, 39, 39, 39, 38, 38, 39, 40, 39, 39, 39, 39>} : (tensor<?x12x12x64xi32>) -> tensor<?x12x12x64xi8>
    %86 = tosa.clamp %85 {max_fp = 0.000000e+00 : f32, max_int = 127 : i64, min_fp = 0.000000e+00 : f32, min_int = -128 : i64} : (tensor<?x12x12x64xi8>) -> tensor<?x12x12x64xi8>
    %87 = tosa.depthwise_conv2d %86, %8, %45 {dilation = array<i64: 1, 1>, pad = array<i64: 1, 1, 1, 1>, quantization_info = #tosa.conv_quant<input_zp = -128, weight_zp = 0>, stride = array<i64: 1, 1>} : (tensor<?x12x12x64xi8>, tensor<3x3x64x1xi8>, tensor<64xi32>) -> tensor<?x12x12x64xi32>
    %88 = tosa.rescale %87 {double_round = true, input_zp = 0 : i32, multiplier = array<i32: 1243458175, 1700278421, 2046320159, 1388655650, 1126270643, 1799349941, 1239030393, 2064818134, 1440647447, 1613207706, 1305052744, 1987673645, 1439088061, 1366393262, 1482048890, 1196037649, 1085912379, 1794458510, 1226099630, 1347422139, 1116649633, 2075305652, 1517941885, 1075749327, 1634031274, 1937785050, 1430059626, 1868696104, 1322997912, 1427049768, 1541525946, 1418904433, 1581480717, 1145554580, 1418551218, 1890815382, 1367193029, 1531560714, 2138685417, 1523424624, 1713909661, 2077860220, 1648436445, 1991308625, 1244770350, 2141522784, 1317219835, 1624073515, 1526873056, 1531298305, 2103530132, 1110912210, 1135971945, 1129151196, 1655056588, 1238788374, 1973082304, 1316012777, 1958985768, 1160699235, 2054832766, 1202874102, 1620144843, 1120360348>, output_zp = -128 : i32, per_channel = true, scale32 = true, shift = array<i32: 36, 38, 38, 38, 36, 37, 37, 39, 38, 37, 37, 38, 38, 37, 37, 37, 37, 39, 37, 37, 37, 38, 37, 37, 38, 38, 38, 38, 38, 37, 39, 38, 38, 37, 38, 37, 37, 37, 38, 37, 38, 38, 38, 39, 38, 39, 37, 39, 38, 38, 38, 37, 37, 37, 38, 37, 38, 37, 38, 37, 38, 37, 37, 37>} : (tensor<?x12x12x64xi32>) -> tensor<?x12x12x64xi8>
    %89 = tosa.clamp %88 {max_fp = 0.000000e+00 : f32, max_int = 127 : i64, min_fp = 0.000000e+00 : f32, min_int = -128 : i64} : (tensor<?x12x12x64xi8>) -> tensor<?x12x12x64xi8>
    %90 = tosa.conv2d %89, %44, %43 {dilation = array<i64: 1, 1>, pad = array<i64: 0, 0, 0, 0>, quantization_info = #tosa.conv_quant<input_zp = -128, weight_zp = 0>, stride = array<i64: 1, 1>} : (tensor<?x12x12x64xi8>, tensor<64x1x1x64xi8>, tensor<64xi32>) -> tensor<?x12x12x64xi32>
    %91 = tosa.rescale %90 {double_round = true, input_zp = 0 : i32, multiplier = array<i32: 1595487187, 1953384587, 1607700873, 1320764593, 1929698871, 1483112397, 2035934605, 1210112842, 1163299456, 1086611583, 2107533590, 1489252135, 1569364972, 1171292447, 1244071952, 1625796589, 1556516418, 1550030167, 1491284503, 1185098139, 1887302457, 1182389087, 1931743226, 1749417847, 1099799637, 1077716755, 1587026728, 1153081635, 1182490426, 1138820053, 1568653555, 1662319008, 1306552727, 1187332095, 1437018738, 1411609575, 1207045697, 1625780516, 1940934852, 1418616280, 1989423058, 1821774969, 1193021119, 1670069412, 1728374033, 1710556999, 1677558295, 1737221868, 1843064368, 1487160788, 1579481455, 1221566075, 1764568598, 1977737316, 1589708675, 1929099009, 1424620490, 1300771082, 1629953402, 1445467755, 1170984071, 1194994781, 1501137966, 1230961469>, output_zp = -128 : i32, per_channel = true, scale32 = true, shift = array<i32: 39, 39, 39, 58, 39, 39, 39, 38, 38, 39, 38, 38, 57, 57, 38, 39, 38, 38, 38, 38, 40, 38, 39, 39, 38, 38, 39, 38, 39, 38, 39, 40, 39, 38, 38, 38, 39, 39, 40, 38, 39, 39, 38, 38, 38, 38, 39, 57, 40, 40, 39, 38, 38, 39, 39, 39, 39, 39, 38, 39, 39, 38, 39, 39>} : (tensor<?x12x12x64xi32>) -> tensor<?x12x12x64xi8>
    %92 = tosa.clamp %91 {max_fp = 0.000000e+00 : f32, max_int = 127 : i64, min_fp = 0.000000e+00 : f32, min_int = -128 : i64} : (tensor<?x12x12x64xi8>) -> tensor<?x12x12x64xi8>
    %93 = tosa.depthwise_conv2d %92, %7, %42 {dilation = array<i64: 1, 1>, pad = array<i64: 0, 1, 0, 1>, quantization_info = #tosa.conv_quant<input_zp = -128, weight_zp = 0>, stride = array<i64: 2, 2>} : (tensor<?x12x12x64xi8>, tensor<3x3x64x1xi8>, tensor<64xi32>) -> tensor<?x6x6x64xi32>
    %94 = tosa.rescale %93 {double_round = true, input_zp = 0 : i32, multiplier = array<i32: 1430417073, 2026294151, 1927609748, 1797152475, 1162569442, 1119295637, 1425129537, 1091985597, 1648149135, 1389213699, 1543034853, 1851835543, 1472114639, 1795530575, 1634699063, 1322203584, 1646078939, 1621652095, 1186749834, 1889616454, 1598229674, 1520488419, 1628810559, 1715451832, 1181401885, 1256965347, 2118542821, 1180362221, 2032146010, 1875052606, 1521815631, 1172902746, 1172552210, 1206046262, 2008445409, 1683982784, 1264070189, 1214605814, 1427533293, 1137788550, 1310875691, 1557357283, 1958275515, 1109410864, 1545072150, 1800790129, 1239356500, 1280476748, 1147973631, 1730477909, 1703841076, 1186770557, 2131646573, 1494170276, 1307423607, 1987741336, 1973631638, 1797463321, 2086002966, 1143645209, 1758650121, 1662556917, 1215268835, 1756125422>, output_zp = -128 : i32, per_channel = true, scale32 = true, shift = array<i32: 38, 39, 39, 36, 38, 38, 38, 38, 38, 37, 39, 39, 36, 36, 39, 38, 39, 39, 39, 39, 36, 38, 38, 38, 38, 38, 39, 38, 38, 39, 38, 37, 37, 38, 39, 39, 37, 37, 38, 38, 38, 38, 39, 38, 39, 39, 38, 34, 37, 36, 38, 38, 39, 38, 38, 39, 38, 38, 40, 38, 38, 39, 38, 38>} : (tensor<?x6x6x64xi32>) -> tensor<?x6x6x64xi8>
    %95 = tosa.clamp %94 {max_fp = 0.000000e+00 : f32, max_int = 127 : i64, min_fp = 0.000000e+00 : f32, min_int = -128 : i64} : (tensor<?x6x6x64xi8>) -> tensor<?x6x6x64xi8>
    %96 = tosa.conv2d %95, %41, %40 {dilation = array<i64: 1, 1>, pad = array<i64: 0, 0, 0, 0>, quantization_info = #tosa.conv_quant<input_zp = -128, weight_zp = 0>, stride = array<i64: 1, 1>} : (tensor<?x6x6x64xi8>, tensor<128x1x1x64xi8>, tensor<128xi32>) -> tensor<?x6x6x128xi32>
    %97 = tosa.rescale %96 {double_round = true, input_zp = 0 : i32, multiplier = array<i32: 2119616735, 1603280146, 1720940062, 1514396125, 1145541336, 1219510619, 1140493742, 1216422814, 1505189656, 1088193321, 1781396489, 1873248598, 1116317557, 1413803124, 1079689420, 1359272298, 2112584269, 1725052569, 1756062665, 1404029393, 1388730289, 1902851658, 1337207140, 1299534031, 1826640040, 2074199778, 1123652635, 1972918580, 1304702832, 1154354492, 1302450464, 1359907077, 2005532978, 1452704712, 1179336354, 1144076273, 1529389228, 1202606670, 1155674351, 2098715656, 1341826170, 1290398876, 1438312358, 1759505821, 2065755939, 1642842138, 1490716633, 1501608481, 1236601124, 1347325919, 1302073148, 1577924494, 1854624698, 1146154694, 2015698260, 1970293099, 1799006396, 1785289630, 1671293322, 1684476856, 1792159808, 1846547463, 1911479478, 1353413130, 1601288495, 1861037840, 1616917869, 1918799235, 2060964317, 1953031087, 1312689094, 1741035396, 1120175177, 1172714014, 1760225879, 1852166521, 1369097413, 1689274850, 1806601919, 1112127905, 2116406232, 1214014666, 1281033237, 1804577323, 1078351801, 1107701397, 1532953727, 1228906085, 1158123986, 1789740407, 1876810656, 1768525599, 1948809980, 1924881972, 1363657319, 1848400417, 1268987072, 1098672942, 2069394328, 1669640889, 1683047586, 1583940662, 1770475627, 1488719965, 1983796463, 1607649169, 1396365809, 1755909055, 1994636249, 1876339656, 2097122471, 1523627406, 1934721458, 1583240805, 1766675899, 1753356922, 1236567907, 1144243442, 1343761962, 1321631456, 1388209667, 1254436633, 2014281463, 1118089096, 1333978334, 1784098843, 1831547175, 2123725040>, output_zp = -128 : i32, per_channel = true, scale32 = true, shift = array<i32: 40, 39, 40, 39, 39, 39, 38, 39, 39, 38, 39, 39, 39, 39, 38, 39, 39, 59, 39, 58, 42, 40, 39, 61, 39, 61, 38, 39, 38, 38, 60, 39, 38, 38, 39, 39, 39, 38, 39, 39, 38, 39, 39, 39, 58, 59, 39, 39, 38, 38, 38, 39, 39, 61, 39, 39, 39, 58, 39, 58, 40, 38, 40, 39, 39, 40, 39, 60, 60, 41, 38, 40, 57, 40, 39, 39, 38, 40, 60, 37, 40, 38, 40, 39, 38, 39, 39, 58, 38, 39, 38, 39, 40, 39, 59, 39, 39, 58, 59, 39, 39, 38, 39, 58, 58, 39, 39, 39, 39, 39, 58, 39, 39, 39, 39, 40, 39, 39, 38, 39, 39, 41, 39, 39, 39, 40, 40, 40>} : (tensor<?x6x6x128xi32>) -> tensor<?x6x6x128xi8>
    %98 = tosa.clamp %97 {max_fp = 0.000000e+00 : f32, max_int = 127 : i64, min_fp = 0.000000e+00 : f32, min_int = -128 : i64} : (tensor<?x6x6x128xi8>) -> tensor<?x6x6x128xi8>
    %99 = tosa.depthwise_conv2d %98, %6, %39 {dilation = array<i64: 1, 1>, pad = array<i64: 1, 1, 1, 1>, quantization_info = #tosa.conv_quant<input_zp = -128, weight_zp = 0>, stride = array<i64: 1, 1>} : (tensor<?x6x6x128xi8>, tensor<3x3x128x1xi8>, tensor<128xi32>) -> tensor<?x6x6x128xi32>
    %100 = tosa.rescale %99 {double_round = true, input_zp = 0 : i32, multiplier = array<i32: 2106911077, 1792302884, 1799022875, 1453215618, 1193737654, 2024522626, 1112419275, 1420063888, 1731557060, 1489809133, 2073634187, 1729074575, 1509680498, 1893474013, 1154087341, 1777743716, 1467519711, 1949708904, 2107811098, 1304756999, 1774677412, 2109664083, 2045840733, 1457390676, 2059741223, 1098288532, 1509802886, 1740889978, 1328880130, 1527360496, 2078302626, 1218592341, 1909713739, 1432926390, 1252220552, 1232074441, 1226622559, 1714564917, 1345459427, 2014772770, 1451946848, 1467730820, 1124880945, 1471989187, 1145523475, 1876001956, 1254175857, 1526893784, 1842667239, 1937023318, 2109210177, 1936861058, 1295832173, 1194800464, 1804689299, 1912969500, 1374070650, 1999528652, 1302959597, 1632388633, 1198367146, 2143826603, 1203034925, 1970594758, 1167984266, 1602299115, 1826662915, 1585515706, 2066748239, 1097427656, 1577453934, 1565013916, 1350047199, 1258347351, 1651855207, 1214517359, 1862481041, 1740386563, 1924569041, 1708520107, 1179865946, 1873796858, 1834440302, 1390261659, 1618944161, 1384950517, 1494626893, 1864809055, 1441549272, 1594067822, 1129276223, 1658049075, 1545695475, 2018927100, 1680215844, 1870741248, 1104498705, 1160825420, 1338494924, 1926586662, 1582028239, 1174183679, 1568768603, 1312011168, 1274231531, 1436262687, 2107381749, 1359630306, 1472134548, 1175402411, 1082064583, 1786619296, 1702484010, 1357483035, 1340300643, 1502705036, 1297990403, 1718699576, 1353191134, 1206744328, 1882679567, 1186297593, 2030417851, 1194250443, 1305860340, 1134286082, 1802354683, 1186467378>, output_zp = -128 : i32, per_channel = true, scale32 = true, shift = array<i32: 38, 38, 37, 38, 37, 38, 37, 37, 38, 38, 37, 37, 37, 38, 37, 38, 37, 36, 38, 34, 37, 38, 37, 35, 38, 35, 38, 38, 38, 37, 35, 37, 38, 38, 37, 37, 38, 38, 38, 38, 38, 38, 37, 38, 34, 35, 37, 37, 38, 38, 38, 38, 38, 35, 38, 38, 38, 35, 37, 35, 37, 38, 37, 38, 37, 39, 38, 35, 35, 36, 38, 37, 34, 36, 38, 37, 38, 37, 35, 38, 37, 38, 37, 37, 37, 37, 37, 35, 37, 38, 38, 38, 37, 39, 35, 38, 37, 34, 35, 37, 37, 38, 38, 35, 35, 38, 38, 37, 37, 37, 34, 38, 38, 38, 37, 37, 38, 38, 37, 37, 37, 38, 38, 37, 37, 36, 37, 38>} : (tensor<?x6x6x128xi32>) -> tensor<?x6x6x128xi8>
    %101 = tosa.clamp %100 {max_fp = 0.000000e+00 : f32, max_int = 127 : i64, min_fp = 0.000000e+00 : f32, min_int = -128 : i64} : (tensor<?x6x6x128xi8>) -> tensor<?x6x6x128xi8>
    %102 = tosa.conv2d %101, %38, %37 {dilation = array<i64: 1, 1>, pad = array<i64: 0, 0, 0, 0>, quantization_info = #tosa.conv_quant<input_zp = -128, weight_zp = 0>, stride = array<i64: 1, 1>} : (tensor<?x6x6x128xi8>, tensor<128x1x1x128xi8>, tensor<128xi32>) -> tensor<?x6x6x128xi32>
    %103 = tosa.rescale %102 {double_round = true, input_zp = 0 : i32, multiplier = array<i32: 1643511662, 1990682995, 1099152099, 1214792496, 1169315939, 1055936608, 1232120417, 1430531601, 1093301308, 1889602328, 1330517440, 1824915059, 1259063755, 1168452569, 1441562531, 1201204226, 1209739775, 1375463329, 1902350293, 1171576289, 1706947819, 1171563007, 1291668190, 2027913119, 121162334, 1188297824, 1521524802, 1922102410, 1466376675, 1514554851, 1839017692, 1648616638, 1735143700, 1956992409, 1223388015, 1464108768, 2121758024, 1112099940, 2116528334, 1788852533, 2099090096, 2043633685, 1358783870, 1568001849, 1087321031, 1672350675, 1897085766, 2023190554, 1544207683, 1876368393, 1608903223, 1162456544, 1281457760, 1782868677, 1556331445, 1401839412, 1743707723, 2082402046, 1745446393, 1666383204, 1896987141, 2098119272, 1865853815, 1653338089, 2120573406, 2047404674, 2094579576, 1641675957, 2103814569, 1368226772, 1332244975, 1146069700, 1196300398, 1346819658, 1691640366, 1554431793, 1886813457, 1351726111, 1324118244, 1156454554, 1825878088, 2113257630, 1439258038, 1257006701, 1111320243, 1733625824, 1589150788, 1179034038, 1340359218, 1540171837, 2037283802, 1490036106, 1193296460, 1082155925, 1357748621, 1311822046, 1177028682, 1283943040, 1342603423, 1183556250, 1412920927, 2009297420, 1175437314, 1305285968, 2087053505, 1432666841, 2129254984, 1468979907, 1223319773, 1449174978, 1534572143, 1209091313, 2010456428, 1616936737, 1316352212, 1109090991, 1356475877, 1529219012, 1132108801, 1699415227, 1814309173, 1383269209, 1503088379, 1526857253, 1502568210, 1099494584, 1170594092, 1124042518>, output_zp = -128 : i32, per_channel = true, scale32 = true, shift = array<i32: 59, 39, 39, 39, 38, 62, 39, 38, 38, 39, 58, 39, 58, 57, 57, 38, 38, 61, 59, 38, 58, 38, 58, 58, 62, 38, 59, 60, 61, 58, 39, 38, 39, 39, 39, 38, 60, 38, 39, 40, 61, 40, 58, 39, 58, 39, 38, 58, 39, 62, 39, 57, 60, 38, 39, 57, 58, 58, 39, 58, 39, 39, 57, 60, 39, 59, 39, 38, 40, 59, 39, 57, 57, 58, 59, 59, 59, 58, 39, 61, 39, 62, 38, 60, 57, 60, 58, 59, 57, 58, 59, 58, 38, 38, 38, 58, 38, 38, 59, 59, 39, 40, 58, 38, 59, 39, 59, 40, 59, 60, 59, 60, 60, 58, 57, 60, 39, 60, 60, 59, 59, 39, 59, 39, 38, 58, 57, 38>} : (tensor<?x6x6x128xi32>) -> tensor<?x6x6x128xi8>
    %104 = tosa.clamp %103 {max_fp = 0.000000e+00 : f32, max_int = 127 : i64, min_fp = 0.000000e+00 : f32, min_int = -128 : i64} : (tensor<?x6x6x128xi8>) -> tensor<?x6x6x128xi8>
    %105 = tosa.depthwise_conv2d %104, %5, %36 {dilation = array<i64: 1, 1>, pad = array<i64: 1, 1, 1, 1>, quantization_info = #tosa.conv_quant<input_zp = -128, weight_zp = 0>, stride = array<i64: 1, 1>} : (tensor<?x6x6x128xi8>, tensor<3x3x128x1xi8>, tensor<128xi32>) -> tensor<?x6x6x128xi32>
    %106 = tosa.rescale %105 {double_round = true, input_zp = 0 : i32, multiplier = array<i32: 1961680817, 1724449673, 1576272086, 1373950163, 1639611337, 1946550325, 1501817453, 2017160679, 1567597360, 1640222881, 1963649303, 1095522521, 1195073139, 1564395746, 1366183802, 1565738132, 1653216398, 2070371553, 1078714090, 1885916593, 1964653206, 1661419456, 1991265168, 1088994391, 1147136855, 1838695339, 1097237940, 1513641925, 1175700655, 1323405990, 1673646325, 1419953515, 1201872825, 1539245299, 1252928988, 1225696446, 1340608369, 2122136137, 1084990993, 1623513585, 1334872737, 1538542902, 1480515636, 1096632670, 1232900287, 2012437817, 1666606288, 1084027999, 1918982647, 1204031634, 1678618490, 1168219821, 1171509277, 1354271238, 1918745726, 1119088725, 1421995621, 2071969097, 1738150941, 1185520500, 1719829042, 1998633984, 1937065450, 1941839009, 2053929462, 1393745038, 1601380369, 2114156279, 1171689896, 1320218263, 1094188669, 1939743194, 1805707588, 1107213975, 1891475036, 1937939013, 1721406675, 2063999111, 2127315942, 1758263970, 1667591285, 1257433584, 1353743771, 2002745636, 1638332867, 1338468383, 1164886110, 2093309230, 1750233750, 1105485840, 1281531104, 1427036720, 1873717331, 1556072888, 1646509322, 1973328434, 1568095631, 1508102053, 1343370525, 1735771021, 1685796229, 1372769322, 1224686938, 1516452853, 1354642347, 1351543132, 1088174871, 1336792534, 1666829322, 1276275338, 1411206508, 1236266708, 1377035491, 1084907418, 1857243450, 1497365646, 1985047161, 2080527705, 1127444377, 1775469528, 1365783244, 1217723616, 1267245983, 1419604993, 1212769522, 1358606342, 1288512915, 1356883812>, output_zp = -128 : i32, per_channel = true, scale32 = true, shift = array<i32: 36, 39, 38, 38, 38, 36, 38, 39, 39, 38, 35, 37, 35, 35, 35, 38, 39, 36, 35, 38, 36, 39, 36, 35, 35, 39, 36, 35, 35, 35, 38, 39, 38, 38, 38, 38, 35, 39, 38, 38, 35, 38, 36, 38, 36, 38, 39, 35, 38, 35, 38, 35, 35, 39, 39, 35, 35, 36, 38, 36, 38, 39, 39, 36, 39, 36, 39, 39, 36, 35, 38, 36, 35, 36, 35, 36, 36, 35, 38, 36, 38, 36, 39, 36, 37, 35, 35, 37, 36, 35, 35, 35, 39, 39, 38, 36, 39, 39, 36, 36, 38, 38, 36, 39, 35, 38, 35, 38, 36, 35, 35, 35, 35, 35, 36, 36, 39, 36, 35, 36, 36, 37, 36, 38, 38, 35, 35, 38>} : (tensor<?x6x6x128xi32>) -> tensor<?x6x6x128xi8>
    %107 = tosa.clamp %106 {max_fp = 0.000000e+00 : f32, max_int = 127 : i64, min_fp = 0.000000e+00 : f32, min_int = -128 : i64} : (tensor<?x6x6x128xi8>) -> tensor<?x6x6x128xi8>
    %108 = tosa.conv2d %107, %35, %34 {dilation = array<i64: 1, 1>, pad = array<i64: 0, 0, 0, 0>, quantization_info = #tosa.conv_quant<input_zp = -128, weight_zp = 0>, stride = array<i64: 1, 1>} : (tensor<?x6x6x128xi8>, tensor<128x1x1x128xi8>, tensor<128xi32>) -> tensor<?x6x6x128xi32>
    %109 = tosa.rescale %108 {double_round = true, input_zp = 0 : i32, multiplier = array<i32: 1593797991, 1435973203, 1121110181, 1256383023, 1228519092, 1402076087, 1967862753, 1970869542, 1566705492, 1293481965, 1109789870, 1602771202, 1154848525, 1340016463, 1858159024, 1472038273, 1268461695, 2047649671, 1568388033, 1515150152, 1382797345, 1950019488, 1994208424, 1203808804, 1738827906, 1100354185, 1831772731, 1074631873, 1731744446, 1511644111, 1466541886, 1747629018, 1199114220, 1304160398, 1987857312, 1321013873, 2052915653, 1096734607, 1755818623, 1207878170, 966132834, 850989936, 1919710170, 1413298367, 1939499826, 2016152963, 1817687825, 1726543178, 1355854903, 1387924290, 1869081445, 1212606969, 1417681175, 1671874048, 1333627549, 1435301853, 1309026056, 1398202014, 1095216860, 1132613482, 1100337398, 1210347649, 1171607044, 1768868376, 1817467159, 1388755949, 1831684439, 1529582843, 1228822411, 1303591691, 2130951985, 1603779189, 1356695533, 1756572115, 1293935597, 1197375936, 1923600005, 2045934965, 1210157354, 1154666687, 1604047267, 1690872025, 1416293367, 1418940326, 2142748097, 1439718363, 1816862444, 1696699922, 1158148766, 1942918088, 1470197088, 1929851549, 1165486849, 2137571432, 1214780305, 1840294487, 1146423005, 1775995277, 1337180106, 1216269347, 1362175388, 1663345115, 1163035311, 1827880845, 1615861192, 1299632915, 1246023798, 1193096028, 1759869024, 1297572987, 1448488848, 1075435533, 1194511644, 2056489611, 1780762904, 2019390157, 1539331458, 1583029215, 1733721464, 1844242372, 1430761939, 1802572122, 2104531348, 1165617941, 1444564158, 1960838368, 1867887520, 1364878859>, output_zp = -128 : i32, per_channel = true, scale32 = true, shift = array<i32: 60, 60, 58, 61, 58, 61, 59, 39, 58, 57, 59, 58, 59, 60, 39, 57, 39, 61, 59, 59, 58, 58, 60, 57, 58, 58, 59, 39, 58, 58, 58, 39, 58, 58, 40, 57, 59, 58, 57, 57, 62, 62, 62, 58, 61, 59, 60, 62, 39, 39, 39, 62, 58, 59, 57, 58, 61, 59, 60, 59, 41, 58, 62, 59, 59, 58, 59, 39, 58, 62, 61, 39, 58, 58, 57, 57, 58, 59, 38, 60, 40, 39, 59, 39, 58, 57, 39, 39, 38, 60, 39, 58, 61, 59, 59, 60, 57, 60, 38, 61, 39, 39, 59, 62, 59, 58, 57, 58, 39, 38, 59, 57, 61, 59, 39, 40, 61, 58, 58, 39, 61, 58, 60, 58, 62, 58, 39, 39>} : (tensor<?x6x6x128xi32>) -> tensor<?x6x6x128xi8>
    %110 = tosa.clamp %109 {max_fp = 0.000000e+00 : f32, max_int = 127 : i64, min_fp = 0.000000e+00 : f32, min_int = -128 : i64} : (tensor<?x6x6x128xi8>) -> tensor<?x6x6x128xi8>
    %111 = tosa.depthwise_conv2d %110, %4, %33 {dilation = array<i64: 1, 1>, pad = array<i64: 1, 1, 1, 1>, quantization_info = #tosa.conv_quant<input_zp = -128, weight_zp = 0>, stride = array<i64: 1, 1>} : (tensor<?x6x6x128xi8>, tensor<3x3x128x1xi8>, tensor<128xi32>) -> tensor<?x6x6x128xi32>
    %112 = tosa.rescale %111 {double_round = true, input_zp = 0 : i32, multiplier = array<i32: 1996196912, 1503613224, 1756614152, 2045953848, 2043531997, 1751796027, 1229128620, 1658230023, 1839435291, 1215018123, 1729158019, 1185756969, 1843155675, 1554004167, 1135002378, 1584741044, 1685453610, 2118123042, 1279626446, 1875378160, 1912751775, 1667325929, 1413749934, 1396631152, 1440048275, 1558361398, 1983165127, 1684379964, 1913714709, 1278883703, 1176246878, 1329186422, 1365368758, 1547667195, 1215465177, 1330520417, 1232781662, 1339319398, 1954306050, 1401753244, 1185288539, 1603736514, 1168135900, 1984795058, 1320991667, 2129832200, 1728582582, 1383906918, 1645527413, 1648144989, 1479670010, 2042899968, 1336628919, 2075308170, 1171992080, 2130459657, 1243945903, 2145256922, 1744381949, 1808707063, 1528429045, 1590024510, 1956938330, 1295305586, 1539044292, 1586862141, 1104534993, 1425788760, 1624824167, 1826793103, 1722569594, 1301197975, 1395606561, 1404714822, 1478547804, 1469714718, 1382473577, 1214354215, 2096271023, 2014751630, 1817237788, 1829877257, 1136343169, 1504821678, 1454187068, 1736719755, 1593177118, 1381243252, 1471283732, 1347942178, 1877792969, 1258215920, 1885765184, 1366510735, 2035091721, 1347300634, 1393622743, 1102723300, 1264552274, 1073780817, 1411667636, 1454019886, 1414882026, 1550844145, 1593508764, 1628798227, 1127339443, 1769817814, 1751332910, 1391032351, 1216815607, 1504108468, 1345543186, 1152662494, 1255491461, 1410699266, 1630283835, 2135450401, 1743550982, 1399263680, 1752584982, 1744213655, 1701028956, 2032013375, 1879108059, 1913903514, 1509983805, 1452192994>, output_zp = -128 : i32, per_channel = true, scale32 = true, shift = array<i32: 35, 35, 36, 35, 35, 36, 34, 37, 36, 35, 35, 35, 35, 35, 37, 38, 38, 36, 35, 36, 35, 35, 35, 35, 35, 35, 36, 38, 35, 35, 35, 37, 35, 35, 37, 35, 35, 35, 35, 35, 34, 35, 35, 36, 35, 36, 35, 35, 38, 38, 38, 36, 34, 36, 34, 36, 34, 36, 35, 35, 37, 35, 36, 35, 36, 36, 35, 37, 35, 35, 35, 38, 35, 35, 35, 35, 35, 34, 38, 36, 39, 38, 34, 38, 35, 38, 38, 36, 38, 35, 38, 36, 36, 35, 35, 35, 35, 35, 38, 34, 36, 38, 36, 35, 35, 35, 34, 36, 38, 38, 34, 36, 35, 35, 38, 37, 35, 36, 36, 37, 35, 35, 35, 36, 35, 35, 38, 38>} : (tensor<?x6x6x128xi32>) -> tensor<?x6x6x128xi8>
    %113 = tosa.clamp %112 {max_fp = 0.000000e+00 : f32, max_int = 127 : i64, min_fp = 0.000000e+00 : f32, min_int = -128 : i64} : (tensor<?x6x6x128xi8>) -> tensor<?x6x6x128xi8>
    %114 = tosa.conv2d %113, %32, %31 {dilation = array<i64: 1, 1>, pad = array<i64: 0, 0, 0, 0>, quantization_info = #tosa.conv_quant<input_zp = -128, weight_zp = 0>, stride = array<i64: 1, 1>} : (tensor<?x6x6x128xi8>, tensor<128x1x1x128xi8>, tensor<128xi32>) -> tensor<?x6x6x128xi32>
    %115 = tosa.rescale %114 {double_round = true, input_zp = 0 : i32, multiplier = array<i32: 2111964646, 1878719429, 1818651928, 1087502385, 1190954483, 1664227771, 1652644162, 2079196860, 1278347772, 1294790152, 1505487551, 2101407379, 2080809600, 1523280536, 1458799493, 1902750681, 1107681477, 1481182537, 1415722717, 1527199991, 1256682193, 2115973711, 1726833470, 2017968895, 1985274864, 2124994811, 1682428638, 1884416985, 1667633174, 1121640389, 1333024834, 1249791759, 1491720543, 1317984264, 1110243281, 1343436000, 1379139296, 2075805315, 1598183197, 1336649622, 1544813639, 1877488030, 2069638102, 1132664612, 1941839532, 1771917362, 1239737623, 1834094273, 1778861232, 1368427591, 1080455634, 1234184405, 1266435790, 1784657793, 1718408162, 1687466159, 1783410304, 1392152902, 1215895573, 1088521915, 1265572343, 1075768683, 1864551703, 2075323091, 1808721459, 1761193207, 1590801496, 1508363987, 1453006455, 1802081299, 2039411332, 2103315843, 1590390090, 1756795169, 1603937948, 1923025255, 1086718564, 1480235469, 1258995250, 1388923899, 1596500931, 1914598421, 1295772805, 1279995393, 1737094895, 1158345246, 1402305456, 1772272864, 1289791623, 1162518967, 1329757075, 1470599315, 1698592089, 1762077795, 1427094691, 1712112700, 1556627790, 1913288804, 1604097789, 1660784316, 1251063794, 1923430789, 1091588845, 1940180520, 1682889488, 1087868223, 779070351, 1706734826, 2017722498, 1464120406, 655711748, 1217593341, 1162632183, 2031647351, 1651477592, 2063948884, 1975216500, 1826428123, 2017458954, 1396040177, 1955910485, 1967291268, 2008991014, 1263569690, 1722996578, 1968954274, 1949677268, 1729018983>, output_zp = -128 : i32, per_channel = true, scale32 = true, shift = array<i32: 59, 59, 38, 59, 58, 58, 56, 59, 62, 57, 58, 58, 38, 57, 58, 58, 37, 57, 60, 59, 58, 58, 60, 38, 58, 57, 58, 59, 57, 57, 58, 57, 57, 58, 37, 57, 57, 58, 57, 57, 57, 58, 62, 57, 58, 59, 58, 59, 59, 38, 58, 57, 61, 38, 58, 38, 58, 58, 57, 57, 57, 57, 58, 59, 59, 59, 57, 57, 57, 57, 39, 58, 58, 39, 60, 57, 36, 58, 61, 60, 57, 58, 59, 57, 39, 57, 39, 58, 58, 57, 58, 38, 59, 58, 57, 60, 62, 58, 38, 58, 57, 61, 38, 62, 58, 56, 62, 57, 60, 57, 62, 56, 58, 59, 56, 58, 58, 59, 58, 38, 58, 58, 39, 58, 59, 61, 39, 60>} : (tensor<?x6x6x128xi32>) -> tensor<?x6x6x128xi8>
    %116 = tosa.clamp %115 {max_fp = 0.000000e+00 : f32, max_int = 127 : i64, min_fp = 0.000000e+00 : f32, min_int = -128 : i64} : (tensor<?x6x6x128xi8>) -> tensor<?x6x6x128xi8>
    %117 = tosa.depthwise_conv2d %116, %3, %30 {dilation = array<i64: 1, 1>, pad = array<i64: 1, 1, 1, 1>, quantization_info = #tosa.conv_quant<input_zp = -128, weight_zp = 0>, stride = array<i64: 1, 1>} : (tensor<?x6x6x128xi8>, tensor<3x3x128x1xi8>, tensor<128xi32>) -> tensor<?x6x6x128xi32>
    %118 = tosa.rescale %117 {double_round = true, input_zp = 0 : i32, multiplier = array<i32: 1318106052, 1134548491, 1765385012, 1792312008, 1484075878, 1767883462, 1195338944, 1444241494, 1295692791, 1342931242, 1773723814, 1193881753, 1292432170, 1515904364, 1882349549, 1914596984, 1526601755, 2065470461, 1521641686, 1767632156, 1340615358, 2020166094, 1539076542, 1880152571, 1094603615, 1320084586, 1119125746, 1288741090, 2104638084, 1118962548, 1905829549, 2091242055, 1249099670, 1315630383, 1692875673, 1344068546, 1694803724, 2087960161, 1330003455, 1383732589, 1093276919, 1482652819, 1080436366, 1148059377, 1584088962, 1560997748, 1097958059, 1324056817, 1078187158, 1554850685, 1472133866, 1478147100, 1262719540, 1709254823, 1250170139, 1414730480, 1304456416, 1956098588, 1150845328, 1968048697, 1378535025, 1156165448, 1241546058, 1781288539, 2050229409, 1309716845, 1454816170, 1799575896, 1994488005, 1634212267, 1204649790, 1856816402, 1492616932, 2025162042, 1805711529, 1761507319, 2094810022, 1096632157, 2038199289, 1300049759, 1989987843, 1725406322, 1647390010, 1366780659, 1549110823, 1800942916, 1906417092, 1653540883, 1790973088, 1815622618, 1584215964, 1387569165, 1439899767, 1630042945, 1237787826, 1276703509, 1855632107, 1694937394, 1469191702, 1090575424, 1805251464, 1119137018, 1725353139, 1086801238, 1353209526, 1822138146, 1556336134, 2098361161, 1657625114, 1430642421, 1149041183, 2130268547, 1525777511, 1455809327, 1458961838, 1332757417, 1809533976, 1693785326, 1684219682, 1280546276, 1162516826, 1627925025, 1126878434, 1100155752, 1902242690, 1870313555, 1692054445, 1598168421>, output_zp = -128 : i32, per_channel = true, scale32 = true, shift = array<i32: 36, 35, 39, 36, 36, 37, 38, 35, 36, 35, 35, 36, 38, 36, 36, 36, 39, 36, 36, 36, 35, 36, 36, 39, 36, 35, 36, 36, 36, 36, 37, 37, 36, 36, 39, 36, 36, 36, 35, 35, 35, 36, 35, 35, 35, 36, 35, 36, 35, 38, 36, 36, 35, 39, 35, 39, 36, 36, 35, 36, 36, 36, 36, 36, 36, 36, 36, 36, 37, 35, 38, 36, 35, 38, 36, 39, 40, 35, 37, 35, 36, 36, 36, 36, 38, 36, 38, 36, 37, 36, 36, 39, 35, 36, 35, 35, 36, 36, 39, 37, 36, 35, 38, 39, 35, 36, 35, 36, 35, 36, 35, 35, 36, 35, 40, 35, 36, 36, 36, 38, 35, 36, 38, 35, 37, 36, 38, 36>} : (tensor<?x6x6x128xi32>) -> tensor<?x6x6x128xi8>
    %119 = tosa.clamp %118 {max_fp = 0.000000e+00 : f32, max_int = 127 : i64, min_fp = 0.000000e+00 : f32, min_int = -128 : i64} : (tensor<?x6x6x128xi8>) -> tensor<?x6x6x128xi8>
    %120 = tosa.conv2d %119, %29, %28 {dilation = array<i64: 1, 1>, pad = array<i64: 0, 0, 0, 0>, quantization_info = #tosa.conv_quant<input_zp = -128, weight_zp = 0>, stride = array<i64: 1, 1>} : (tensor<?x6x6x128xi8>, tensor<128x1x1x128xi8>, tensor<128xi32>) -> tensor<?x6x6x128xi32>
    %121 = tosa.rescale %120 {double_round = true, input_zp = 0 : i32, multiplier = array<i32: 1784075967, 1454676701, 1510496748, 1289204998, 1211703649, 1325878298, 1782007389, 1233933114, 1157258947, 1711651221, 1155054037, 1109957041, 1238201947, 1826286285, 1273650650, 1130199659, 1169113057, 1988307822, 1833641695, 1582676415, 1520480136, 1447017753, 1604552282, 1331971198, 1900959870, 1074565890, 1235487357, 1174186141, 2075914588, 1306727464, 1287585598, 2027439736, 74228763, 1572363607, 1684025949, 1595741273, 1972971082, 1600046204, 1612956114, 1603186701, 1499858039, 1763105039, 2000719517, 1910965734, 1733612451, 1337537617, 1228863889, 2125314812, 1903335391, 2093026699, 1194233514, 1864257738, 1944703204, 1545400580, 1907673355, 1258778979, 1899960714, 1099291543, 1770844583, 1629363525, 2028152154, 1092330142, 1715896669, 1284421717, 1466946729, 1153962707, 1381892000, 1103917152, 1613432762, 2128283902, 1780524433, 1344570532, 1256950825, 1803225892, 1187763518, 1452941743, 1500516991, 1954180090, 1472713956, 2111327080, 1373284409, 1885105502, 1295700762, 1442156714, 1207222317, 1320198364, 2103025979, 1211766423, 1305833309, 1983287068, 1312412279, 1735917025, 1209176585, 1273833976, 1162187754, 1257224850, 1080998880, 1329014481, 1994835143, 1509562181, 1368140946, 1113728226, 1277022831, 1324299422, 1261693014, 1301926474, 1516731541, 1311262943, 2026201972, 1215131111, 1955196046, 1191663655, 1259089101, 1091007923, 1396686708, 1119959614, 1184956981, 1641717327, 1801599794, 1171933897, 1178260410, 2134298818, 1272501428, 1207437881, 1295165313, 1184298709, 1430894696, 1174432695>, output_zp = -128 : i32, per_channel = true, scale32 = true, shift = array<i32: 57, 57, 59, 57, 57, 37, 39, 57, 56, 59, 58, 57, 57, 57, 38, 60, 56, 58, 58, 57, 57, 57, 59, 59, 59, 56, 59, 59, 58, 60, 57, 56, 62, 59, 59, 57, 57, 58, 58, 59, 61, 58, 58, 59, 62, 57, 58, 58, 57, 61, 58, 59, 58, 39, 58, 59, 61, 57, 60, 57, 38, 58, 39, 43, 58, 56, 60, 58, 58, 38, 38, 56, 58, 57, 57, 58, 58, 60, 38, 58, 57, 38, 57, 58, 57, 57, 57, 38, 44, 59, 37, 57, 40, 59, 57, 61, 57, 58, 58, 58, 56, 58, 60, 57, 57, 61, 37, 60, 39, 60, 59, 57, 58, 40, 57, 61, 61, 57, 38, 60, 58, 59, 57, 59, 56, 57, 58, 57>} : (tensor<?x6x6x128xi32>) -> tensor<?x6x6x128xi8>
    %122 = tosa.clamp %121 {max_fp = 0.000000e+00 : f32, max_int = 127 : i64, min_fp = 0.000000e+00 : f32, min_int = -128 : i64} : (tensor<?x6x6x128xi8>) -> tensor<?x6x6x128xi8>
    %123 = tosa.depthwise_conv2d %122, %2, %27 {dilation = array<i64: 1, 1>, pad = array<i64: 1, 1, 1, 1>, quantization_info = #tosa.conv_quant<input_zp = -128, weight_zp = 0>, stride = array<i64: 1, 1>} : (tensor<?x6x6x128xi8>, tensor<3x3x128x1xi8>, tensor<128xi32>) -> tensor<?x6x6x128xi32>
    %124 = tosa.rescale %123 {double_round = true, input_zp = 0 : i32, multiplier = array<i32: 1766807392, 1261167431, 1657994912, 1683603221, 1230693259, 1803315414, 1317830673, 1494626820, 1329015918, 2032637527, 1282794017, 1317348415, 2060475297, 1204089238, 1143066489, 1724017507, 1298617205, 1268361679, 1323114296, 1931784838, 1349355218, 1743438521, 2074278536, 1270603646, 1278923866, 1218299276, 1322211748, 2119141627, 1901634982, 1995157261, 1185270203, 1268590161, 1691962084, 1286053758, 1352950516, 1708676437, 1215228674, 1576956266, 1192359625, 1557219507, 1652330344, 1464217708, 1818566832, 1677854904, 1278955202, 1267651079, 1854771616, 1464240613, 1606830987, 1084547353, 1658331312, 1207045177, 1362686316, 1892280407, 1655522916, 1289763858, 1479704495, 1545666386, 1445484671, 1387081813, 1771245236, 1489549618, 1493894580, 1284537286, 1884813273, 1614094652, 1873950938, 1376849984, 1227168642, 1542691336, 1816838459, 1152172487, 1218847157, 1376464121, 1668944929, 1338562300, 1463360547, 1536601279, 1576626751, 1391291316, 1367863286, 1802160635, 2106513401, 1362357644, 1832269320, 1579546858, 1093807640, 1270543223, 2073887053, 1267952350, 1350264793, 1940305297, 1288646739, 1110823756, 1824378804, 1644659879, 1890082985, 1478725364, 1476638529, 1969653918, 1357154117, 1315262002, 1236256232, 1194253669, 1558012170, 1081293725, 1910943888, 1882552055, 1165298147, 1192616492, 1471419544, 1122584634, 1599295701, 1237678275, 1152410384, 1285000855, 1175671338, 1881482571, 1499837374, 1169848898, 2026176362, 1810436593, 1608835338, 1118328198, 1314943587, 1154411995, 1272563874, 1787351849>, output_zp = -128 : i32, per_channel = true, scale32 = true, shift = array<i32: 36, 36, 37, 37, 36, 39, 45, 36, 40, 36, 37, 37, 37, 36, 37, 36, 39, 35, 36, 36, 36, 42, 37, 36, 36, 40, 37, 37, 37, 37, 36, 40, 36, 36, 36, 36, 37, 36, 36, 36, 37, 38, 36, 36, 36, 36, 37, 36, 36, 35, 36, 36, 36, 38, 36, 36, 36, 36, 36, 36, 39, 35, 38, 51, 38, 39, 36, 36, 36, 39, 40, 40, 36, 39, 36, 36, 36, 36, 38, 36, 36, 39, 37, 36, 37, 36, 36, 40, 53, 36, 40, 36, 50, 35, 36, 37, 36, 36, 36, 36, 42, 36, 36, 36, 36, 35, 40, 36, 38, 37, 36, 35, 36, 38, 41, 36, 36, 36, 38, 36, 37, 36, 37, 36, 42, 36, 36, 36>} : (tensor<?x6x6x128xi32>) -> tensor<?x6x6x128xi8>
    %125 = tosa.clamp %124 {max_fp = 0.000000e+00 : f32, max_int = 127 : i64, min_fp = 0.000000e+00 : f32, min_int = -128 : i64} : (tensor<?x6x6x128xi8>) -> tensor<?x6x6x128xi8>
    %126 = tosa.conv2d %125, %26, %25 {dilation = array<i64: 1, 1>, pad = array<i64: 0, 0, 0, 0>, quantization_info = #tosa.conv_quant<input_zp = -128, weight_zp = 0>, stride = array<i64: 1, 1>} : (tensor<?x6x6x128xi8>, tensor<128x1x1x128xi8>, tensor<128xi32>) -> tensor<?x6x6x128xi32>
    %127 = tosa.rescale %126 {double_round = true, input_zp = 0 : i32, multiplier = array<i32: 1342949925, 1604045540, 1494173656, 1596481160, 1250599509, 1921409027, 1092507093, 1079554607, 1123023153, 1717338520, 1085522498, 1684518593, 2099584395, 1619494383, 1189491618, 1913162024, 1313856025, 1902902319, 2079749112, 1129636418, 1770598039, 1528083860, 1987062994, 1549184442, 1375593442, 1883294577, 1909121928, 1394354643, 1313980380, 1761710868, 1585651735, 1091390095, 1356660803, 1476931207, 1897722436, 1835572507, 1466963939, 1147440143, 1168828419, 1418835488, 2095307965, 1784534839, 1886651704, 1351221336, 1851596160, 1386202845, 1431976415, 1564695521, 1244372613, 1667867264, 1700573132, 2082852091, 1248016970, 1367059439, 1556373327, 491178095, 2077627786, 1233968309, 1410340238, 1600411709, 1767538439, 1213637803, 1176920758, 1274169726, 1728290681, 1770598154, 2075452092, 1505603109, 1299807594, 1895009758, 1754725579, 1117704223, 1345604184, 1534598219, 1817004721, 1160607792, 1131898062, 1143083317, 1855798207, 2052101086, 1683714622, 1220573119, 1225388844, 1623771506, 1105945316, 1513241061, 1297341661, 1907185921, 1385926603, 1669603378, 1155661811, 1249816939, 1178613145, 1858587117, 1261845726, 1936782794, 1260650066, 1849231792, 1078211572, 1371913917, 1824663610, 1188123943, 1135236911, 2115959712, 1706482373, 1147889441, 1625502530, 1305629845, 1232968377, 1418631314, 1232454530, 1289997766, 1099394518, 1365252298, 2011173087, 1268173032, 1088913634, 1633389307, 1684748910, 1178640561, 1533344719, 1522311120, 1601592793, 1696484797, 1690770591, 1948104550, 1175544407, 2099556400>, output_zp = -128 : i32, per_channel = true, scale32 = true, shift = array<i32: 58, 38, 56, 58, 58, 60, 40, 56, 56, 43, 40, 58, 58, 57, 56, 57, 59, 57, 59, 58, 58, 60, 56, 59, 58, 59, 57, 56, 59, 59, 58, 60, 56, 57, 62, 39, 39, 57, 57, 56, 58, 59, 58, 39, 57, 58, 57, 60, 59, 40, 62, 56, 40, 60, 56, 62, 58, 57, 60, 42, 58, 37, 58, 59, 58, 56, 60, 60, 59, 39, 60, 59, 56, 59, 57, 61, 38, 38, 57, 58, 57, 62, 62, 57, 58, 56, 58, 39, 58, 59, 59, 38, 38, 58, 59, 60, 60, 44, 57, 58, 59, 38, 58, 57, 61, 60, 39, 58, 60, 39, 59, 40, 37, 58, 58, 57, 57, 58, 39, 58, 59, 39, 56, 40, 60, 61, 58, 38>} : (tensor<?x6x6x128xi32>) -> tensor<?x6x6x128xi8>
    %128 = tosa.clamp %127 {max_fp = 0.000000e+00 : f32, max_int = 127 : i64, min_fp = 0.000000e+00 : f32, min_int = -128 : i64} : (tensor<?x6x6x128xi8>) -> tensor<?x6x6x128xi8>
    %129 = tosa.depthwise_conv2d %128, %1, %24 {dilation = array<i64: 1, 1>, pad = array<i64: 0, 1, 0, 1>, quantization_info = #tosa.conv_quant<input_zp = -128, weight_zp = 0>, stride = array<i64: 2, 2>} : (tensor<?x6x6x128xi8>, tensor<3x3x128x1xi8>, tensor<128xi32>) -> tensor<?x3x3x128xi32>
    %130 = tosa.rescale %129 {double_round = true, input_zp = 0 : i32, multiplier = array<i32: 1418144952, 1451064627, 1729870503, 1312105996, 1080617039, 1097392361, 1827606788, 1975655843, 1226137063, 2116528314, 1245790839, 1578051225, 1626554554, 2024465765, 1190396868, 1819251440, 1880227370, 1673454364, 1605940847, 1807495178, 1082834986, 1836306873, 1510895925, 1604661513, 1099385740, 1635404924, 1105365590, 1597996967, 1861828168, 1486417829, 1252806910, 1359192898, 1577691096, 1580502629, 2011468600, 1601086317, 1431004643, 1185394347, 1431506931, 1094156167, 1276862066, 1950746396, 1620298798, 1155542226, 1829627222, 1778787115, 1722679386, 1966025368, 1226821663, 1263763469, 1360429594, 1282098331, 1315314179, 1642327784, 2138065910, 1328631129, 1635069746, 1147352555, 1973776708, 2024293683, 1538859160, 1236626037, 1118988178, 1720226452, 1852131154, 1484486973, 1622234339, 1876765844, 1960030221, 1322123178, 2060130913, 1406567560, 1212689808, 1818500398, 1285703354, 1992816820, 1727108012, 1822886004, 1416653861, 1859652095, 1614847239, 1678930588, 1206737491, 1186001701, 1580162958, 1546006969, 1277428312, 1379981842, 1156688005, 1255483550, 2058948519, 2056939939, 2054323527, 1909058185, 1323622586, 1207130411, 1244623645, 1941314197, 1320047678, 1153422462, 1611473475, 1136682417, 1568719790, 1933927671, 1472853368, 1334601707, 1299592573, 2031073906, 1565063334, 1248209547, 1928035583, 1922354581, 1552124677, 1936485575, 2050289733, 1246014928, 1110175283, 1988910749, 2043651764, 1427048285, 1813027042, 1551566653, 1283676228, 1703493769, 2024709165, 1099838602, 1305648618, 2077581752>, output_zp = -128 : i32, per_channel = true, scale32 = true, shift = array<i32: 36, 39, 42, 35, 36, 35, 46, 36, 39, 47, 49, 36, 36, 36, 39, 39, 37, 39, 36, 36, 35, 35, 42, 36, 36, 36, 35, 41, 38, 35, 35, 36, 42, 36, 37, 38, 38, 35, 35, 41, 35, 38, 36, 38, 36, 36, 36, 36, 36, 44, 36, 42, 38, 36, 51, 36, 36, 36, 36, 50, 36, 40, 35, 36, 36, 45, 36, 36, 36, 38, 36, 37, 41, 36, 37, 36, 39, 38, 37, 36, 36, 36, 36, 35, 36, 43, 36, 38, 35, 35, 37, 40, 39, 36, 35, 35, 36, 47, 36, 36, 36, 38, 36, 36, 35, 36, 38, 36, 51, 45, 36, 44, 40, 36, 36, 38, 35, 36, 39, 35, 36, 38, 53, 45, 36, 35, 37, 42>} : (tensor<?x3x3x128xi32>) -> tensor<?x3x3x128xi8>
    %131 = tosa.clamp %130 {max_fp = 0.000000e+00 : f32, max_int = 127 : i64, min_fp = 0.000000e+00 : f32, min_int = -128 : i64} : (tensor<?x3x3x128xi8>) -> tensor<?x3x3x128xi8>
    %132 = tosa.conv2d %131, %23, %22 {dilation = array<i64: 1, 1>, pad = array<i64: 0, 0, 0, 0>, quantization_info = #tosa.conv_quant<input_zp = -128, weight_zp = 0>, stride = array<i64: 1, 1>} : (tensor<?x3x3x128xi8>, tensor<256x1x1x128xi8>, tensor<256xi32>) -> tensor<?x3x3x256xi32>
    %133 = tosa.rescale %132 {double_round = true, input_zp = 0 : i32, multiplier = array<i32: 1282601889, 1278834755, 1916671219, 1166343275, 1790990917, 1415685916, 1544370680, 2095102665, 1192541699, 1895044315, 1106460835, 1452963846, 1263610927, 2034457329, 1075968132, 509174557, 2058551104, 1873844312, 1731657699, 1423300201, 1126165572, 1296447957, 1150060566, 1905150068, 1840535631, 420527431, 1895292069, 2042357153, 1687520303, 1375868804, 1276172734, 1336475778, 1967543018, 1537794235, 2097878931, 1341792708, 2134602082, 1869610120, 1437672449, 1407581309, 452677469, 1122667529, 1205941528, 1692633488, 1335687174, 1124690754, 1617523886, 507555673, 1873327911, 1674141294, 1219180731, 2100614153, 1578027283, 1108751521, 1562358920, 1920643136, 1964026601, 1125296284, 1717696201, 1278434229, 2123699427, 1635499531, 1079096767, 533860378, 1269006540, 1903524998, 2040849884, 1762039564, 1512979721, 1452603625, 1204327941, 1347566916, 1861348889, 1800790682, 1340684483, 1301174989, 1131951634, 1135591187, 1686754666, 1150467611, 1121959385, 1331692734, 1125854027, 2048664654, 1362817268, 1282767256, 1850839054, 1124702386, 1260639806, 1586726084, 1118313905, 1838427944, 1435914018, 1218381384, 1674608499, 1172159269, 2137369458, 1166295191, 1225117787, 1122033622, 1686036150, 1252308487, 1941255316, 1879256521, 1439077326, 1532015285, 1633068075, 349169737, 1412616108, 1793568921, 1906776027, 1105584657, 1560658724, 1543919181, 1238401370, 1795338465, 1726504950, 1958919639, 1321008493, 424478528, 1363504815, 1267421329, 1658098336, 61502278, 1544980433, 1561628550, 2060883725, 1884845802, 1098515446, 1485142076, 1377874544, 2009556279, 1715850937, 1238187178, 1314135247, 1139317572, 1153495929, 1319246654, 1619359073, 1535868511, 1933822401, 1667316206, 1179241965, 1946865046, 1837865015, 1101564582, 1346655028, 1156559365, 1290003835, 1328600848, 1194816383, 2131598510, 1631810338, 1410517164, 1645944168, 1940164725, 1293922556, 1522864541, 1733998766, 321012619, 1169871472, 2061886743, 1117560789, 1658712831, 1990049360, 1196701802, 1785985902, 1431865938, 1455550148, 1361005493, 2146079669, 1953226633, 2059805729, 1316977602, 1406900134, 1857465286, 2067171519, 1498034172, 1242218959, 1594186116, 1079995764, 1288180502, 1915713247, 1617489212, 1546352119, 1075831364, 1420329376, 1158340393, 1868412247, 1696514423, 1757295787, 1363164894, 1326131606, 1507620560, 1170663411, 2050293429, 2010825425, 1500627883, 170209074, 1589063299, 1837233628, 1648578035, 1949282722, 1899413794, 1469278562, 2124530262, 1426011714, 1412095114, 1476168997, 1535932080, 1360260157, 1172339676, 1847174459, 213080694, 1904082741, 1810967560, 1786916164, 1686798527, 1089164660, 1179352802, 1569918528, 1542410579, 2017195013, 2144409553, 1709466383, 1402998454, 1252597730, 1441699932, 1762208783, 1239283845, 1688441972, 1561314264, 1103362947, 1934462235, 1852039594, 1103007468, 1307906873, 1799104562, 1087931151, 1243901745, 1203752788, 1670620580, 1175664795, 1810696839, 1974876357, 1187410288, 327918909, 1719860788, 2097365346, 1680184149, 1901491548, 1557443109, 1853739198, 2120202125, 1911921071, 1963678382>, output_zp = -128 : i32, per_channel = true, scale32 = true, shift = array<i32: 59, 39, 58, 58, 57, 58, 39, 62, 56, 58, 58, 57, 62, 58, 59, 62, 58, 59, 59, 58, 58, 58, 58, 58, 58, 62, 59, 59, 40, 59, 59, 57, 62, 60, 60, 59, 59, 59, 60, 58, 62, 40, 44, 58, 39, 57, 59, 62, 57, 60, 59, 57, 60, 60, 58, 58, 59, 57, 60, 58, 59, 41, 40, 62, 58, 60, 39, 40, 59, 58, 58, 40, 40, 58, 57, 58, 57, 60, 58, 38, 59, 58, 38, 58, 60, 59, 59, 58, 60, 58, 57, 57, 59, 56, 39, 40, 60, 57, 38, 38, 59, 57, 59, 39, 58, 59, 59, 62, 60, 59, 58, 56, 59, 62, 57, 58, 58, 59, 57, 62, 61, 59, 58, 62, 61, 40, 58, 58, 56, 40, 60, 58, 58, 56, 38, 56, 57, 61, 58, 59, 58, 58, 58, 60, 57, 58, 59, 57, 39, 57, 59, 60, 58, 61, 58, 57, 59, 59, 58, 62, 58, 57, 58, 60, 62, 59, 59, 59, 58, 58, 58, 59, 59, 57, 58, 58, 40, 58, 58, 59, 59, 57, 58, 61, 57, 58, 60, 57, 61, 58, 58, 39, 59, 40, 59, 58, 60, 57, 62, 40, 57, 56, 60, 59, 60, 60, 58, 57, 40, 59, 57, 57, 57, 62, 58, 58, 58, 58, 58, 57, 59, 59, 60, 39, 62, 58, 60, 58, 59, 59, 58, 59, 61, 57, 59, 57, 38, 58, 57, 58, 59, 40, 61, 61, 60, 61, 62, 41, 59, 60, 58, 60, 58, 61, 59, 60>} : (tensor<?x3x3x256xi32>) -> tensor<?x3x3x256xi8>
    %134 = tosa.clamp %133 {max_fp = 0.000000e+00 : f32, max_int = 127 : i64, min_fp = 0.000000e+00 : f32, min_int = -128 : i64} : (tensor<?x3x3x256xi8>) -> tensor<?x3x3x256xi8>
    %135 = tosa.depthwise_conv2d %134, %0, %21 {dilation = array<i64: 1, 1>, pad = array<i64: 1, 1, 1, 1>, quantization_info = #tosa.conv_quant<input_zp = -128, weight_zp = 0>, stride = array<i64: 1, 1>} : (tensor<?x3x3x256xi8>, tensor<3x3x256x1xi8>, tensor<256xi32>) -> tensor<?x3x3x256xi32>
    %136 = tosa.rescale %135 {double_round = true, input_zp = 0 : i32, multiplier = array<i32: 1337901015, 1261908951, 1221964709, 1251544472, 1807195978, 1169843500, 1224948660, 1242821137, 1887863238, 1711393463, 1083509601, 1803495146, 1668406678, 1235797067, 1427576551, 1098576639, 1118443323, 1212999457, 1906926898, 1526045524, 1694353447, 1082442772, 1980148339, 1349763131, 1725421034, 1288818292, 1163732655, 2049071705, 1128866866, 1886972374, 1396848156, 1650760549, 2001278668, 1254713540, 1099897178, 1157786925, 1769984806, 1126206917, 1928607862, 1601218619, 1194980453, 1820364386, 1735360556, 1336189861, 2095507027, 1245287571, 1936756409, 1999764332, 2143467442, 1363852785, 1689280938, 1244572672, 1109577140, 1742526342, 1126714810, 1568638299, 1267928558, 2029979739, 1283251760, 1323652662, 1673726953, 1247209600, 1272501195, 1260153170, 1613787520, 1328833959, 1684106529, 1350066848, 1659021752, 1237622951, 1419629066, 1969860095, 1106030478, 1591167952, 1452033609, 1365681406, 1256788134, 1825571063, 1589641726, 1184752971, 1911483118, 1603965371, 1351970666, 1188053471, 1273375359, 1705751073, 1986081709, 1498740663, 2099864543, 1086487985, 1948884501, 1102918398, 1104647856, 1678905891, 1300283284, 1668425359, 1946768959, 1377295096, 2094700324, 1316448948, 1317757222, 1916685643, 1450785248, 1388196906, 1335303904, 1950841534, 2067496419, 1088713730, 1216893331, 1642993370, 1468113130, 1484593172, 1980072669, 1690050466, 1286814461, 1663949149, 1668713319, 1971980921, 1866519486, 2118282464, 2015050170, 1868197805, 1359602547, 1988995085, 1224203191, 1508455535, 1429960617, 1853677155, 1774330623, 1114034857, 1161320850, 1556041847, 1111112234, 1934744275, 1573662973, 2146043230, 1799363884, 2107305834, 1372355527, 1602924678, 1587492406, 1469977982, 1712997245, 1130886454, 1095331995, 1672321686, 1864700583, 1402142296, 1212888217, 2057245350, 1568042094, 1487035170, 1755424717, 1434787153, 1916784335, 1272443452, 1424123957, 1782395952, 1459151370, 2072674413, 1771123437, 1113214945, 1469660773, 1107588594, 2078680056, 1883777264, 1962156885, 2044389809, 1652697391, 1794407238, 2063772000, 1762112519, 2078961789, 2032131135, 1764744540, 1872814976, 1852002232, 1260052120, 1313166375, 1911117035, 1200428009, 1540585328, 1728577082, 1555475080, 1689625131, 1546773917, 1563784496, 1127852402, 1462007003, 1166377225, 1384708836, 1240322434, 1963142478, 2019633940, 1302685183, 1265796787, 1267712116, 1911936193, 1944999874, 1792507382, 1981167143, 1294191310, 1392274670, 1462579809, 1508575172, 1518955880, 1558335620, 1934478394, 1402457713, 1873753393, 1627666583, 1941167516, 1324475122, 1128663539, 1942819229, 1282201442, 1569182611, 2101485119, 1162155858, 1798374706, 1458193611, 1845566348, 2030193538, 1951413680, 1158975468, 1597709509, 1185663838, 1295352019, 1907233540, 1499876746, 1388582991, 1494792443, 1842275944, 2140522553, 2144267163, 1706443799, 1480357274, 1116568375, 1124258753, 1660446267, 2126015489, 1285146804, 1513878559, 1656184045, 1521214082, 1180476314, 1310565773, 1296964575, 1076136243, 1257916103, 2078280573, 1347527857, 1152332388, 1671751994, 1975608725, 1434688744>, output_zp = -128 : i32, per_channel = true, scale32 = true, shift = array<i32: 35, 37, 35, 35, 35, 35, 39, 35, 35, 36, 35, 36, 36, 36, 36, 34, 36, 36, 36, 35, 36, 36, 36, 35, 37, 35, 35, 37, 37, 36, 35, 36, 36, 36, 35, 35, 36, 35, 36, 36, 35, 38, 47, 35, 38, 38, 36, 36, 36, 34, 36, 35, 35, 36, 35, 37, 35, 36, 35, 35, 38, 38, 37, 35, 35, 36, 40, 37, 36, 35, 36, 39, 39, 36, 36, 35, 35, 37, 36, 37, 36, 35, 39, 35, 34, 35, 36, 36, 36, 35, 37, 36, 35, 39, 39, 38, 37, 36, 38, 39, 36, 35, 35, 37, 36, 36, 36, 35, 35, 36, 36, 34, 36, 36, 37, 35, 36, 36, 47, 36, 36, 36, 36, 36, 35, 37, 36, 36, 35, 37, 35, 34, 34, 38, 39, 36, 39, 37, 35, 35, 35, 36, 36, 36, 37, 36, 36, 35, 36, 36, 36, 36, 36, 34, 36, 34, 36, 35, 35, 35, 37, 40, 36, 35, 36, 37, 36, 36, 35, 35, 36, 36, 36, 37, 35, 36, 38, 35, 36, 36, 35, 37, 35, 36, 36, 36, 35, 35, 36, 35, 36, 37, 36, 39, 36, 36, 35, 37, 35, 38, 38, 34, 36, 35, 36, 36, 36, 36, 38, 36, 36, 36, 34, 35, 35, 35, 36, 37, 35, 36, 36, 36, 36, 38, 35, 36, 35, 35, 36, 36, 36, 36, 36, 35, 35, 37, 39, 35, 34, 36, 36, 39, 35, 35, 36, 35, 35, 38, 35, 35, 35, 35, 35, 36, 35, 35>} : (tensor<?x3x3x256xi32>) -> tensor<?x3x3x256xi8>
    %137 = tosa.clamp %136 {max_fp = 0.000000e+00 : f32, max_int = 127 : i64, min_fp = 0.000000e+00 : f32, min_int = -128 : i64} : (tensor<?x3x3x256xi8>) -> tensor<?x3x3x256xi8>
    %138 = tosa.conv2d %137, %20, %19 {dilation = array<i64: 1, 1>, pad = array<i64: 0, 0, 0, 0>, quantization_info = #tosa.conv_quant<input_zp = -128, weight_zp = 0>, stride = array<i64: 1, 1>} : (tensor<?x3x3x256xi8>, tensor<256x1x1x256xi8>, tensor<256xi32>) -> tensor<?x3x3x256xi32>
    %139 = tosa.rescale %138 {double_round = true, input_zp = 0 : i32, multiplier = array<i32: 1195269592, 1822737987, 1788760242, 1618945875, 1361553010, 1691602879, 1216733459, 1631618880, 1454585423, 1585491650, 1150565303, 1666168586, 1107544806, 1912308236, 1560275582, 1482816792, 1406872252, 1707202174, 1203336995, 1340388143, 1220827166, 1319472259, 1762920260, 1793905956, 1407657594, 1190278767, 1271043016, 1315353242, 1975529272, 1446002371, 1260430549, 1681851563, 2004471384, 1482752003, 1957165355, 1818522937, 1285272414, 1712976283, 1362158275, 1532822047, 1195834530, 1728843091, 1326368734, 1540381914, 1962218668, 1662026680, 1141188069, 1132215918, 1265558945, 2101271620, 1556836064, 1140594551, 1379393528, 1589550238, 1734468124, 1167674126, 1646150183, 1413313870, 1682960366, 1443498360, 1223806984, 1689920298, 1152706010, 1388241912, 1700252657, 1514927519, 1297518416, 1401306317, 1443820126, 1361796182, 1512037074, 1612933802, 1330177005, 1319227877, 1386342681, 1232494425, 1264627192, 1829526197, 1651482635, 1427883442, 1541790443, 1547163585, 1144486141, 1435494172, 1218206171, 1517975395, 1567801299, 1398995705, 1923950064, 1126237028, 1963234829, 1692997602, 1311551389, 1518596887, 1174496971, 1358252032, 1546111336, 1552821436, 1178651471, 1376366117, 1394011782, 1107032547, 1316416511, 1457110990, 1771981905, 2002052265, 1631103109, 2024011920, 1273672124, 1170531632, 1285041353, 1599503309, 1473885453, 1404784951, 1391131631, 1237687490, 1400278894, 1500302967, 1502626294, 1322561431, 1609312632, 1338805107, 1491482193, 1525359181, 1634228733, 1295441772, 1292052269, 1124858411, 1624567032, 1512457658, 1349133834, 1654696179, 1537880325, 1799819331, 1376195001, 1536601859, 1105948933, 1290359152, 1376453794, 1145343901, 1430615123, 1654849614, 1430554210, 1550361990, 1283768337, 1146090611, 1327417350, 1376678800, 1626897383, 1822490456, 1278954077, 1959019415, 1612330597, 1664442529, 1353231053, 1090324569, 1724950170, 1709773033, 1235453413, 1465919775, 1212736027, 1440366318, 1459887479, 1694739038, 1429786549, 1520243864, 1911343422, 1436421808, 1307140396, 2067068990, 1320996076, 1237402175, 1126045567, 1561199585, 1264069036, 1179438872, 1096093107, 1340396135, 1621291485, 1456901000, 1330013034, 1536056298, 1521207709, 1745023068, 2138947918, 1564369289, 1375629700, 1578687334, 1882781084, 1526791446, 1410411436, 2142414321, 1267965349, 1281917304, 1202109876, 1641144099, 1192643632, 1346412083, 1586215109, 1313116623, 1997506971, 1465943268, 1730768480, 1546386963, 1354530469, 1197539756, 2003830879, 1077337670, 1082385170, 1163267857, 1480903150, 1419457337, 1210817783, 1927962996, 1435625446, 1382602348, 1401444857, 1128095569, 1245602547, 1153702673, 1186002076, 1349202983, 1512923535, 1219738102, 1287320479, 1339429989, 1977200348, 1202683290, 1623475425, 1571507603, 1420698262, 1758183627, 1357961874, 1802618466, 1930736700, 1364163348, 1531487026, 1388095259, 1584988959, 1773536966, 1354051514, 1241965755, 1753440938, 1105221720, 1199919396, 1205570345, 1332278475, 1324376497, 2041074362, 1914955146, 1296560627, 1448076715, 1587873712, 1739441632, 1805338400, 1553402722>, output_zp = -128 : i32, per_channel = true, scale32 = true, shift = array<i32: 56, 56, 56, 56, 56, 56, 56, 56, 56, 56, 56, 56, 56, 39, 56, 56, 56, 56, 56, 56, 56, 55, 56, 56, 56, 56, 56, 56, 57, 56, 56, 56, 57, 56, 39, 56, 56, 39, 56, 55, 56, 56, 56, 39, 57, 56, 56, 56, 56, 56, 39, 56, 56, 56, 55, 56, 38, 56, 56, 56, 56, 56, 56, 56, 56, 56, 56, 56, 56, 56, 56, 56, 56, 38, 56, 55, 56, 56, 56, 56, 56, 55, 56, 56, 56, 56, 56, 38, 55, 55, 56, 56, 56, 56, 56, 38, 56, 56, 55, 39, 56, 56, 56, 56, 57, 56, 56, 57, 56, 55, 56, 56, 56, 56, 56, 56, 56, 56, 56, 56, 56, 56, 56, 56, 56, 56, 56, 56, 56, 56, 56, 56, 56, 56, 56, 56, 55, 56, 55, 56, 56, 56, 56, 36, 56, 56, 56, 55, 56, 39, 56, 56, 56, 56, 56, 56, 56, 56, 56, 56, 56, 56, 56, 56, 56, 56, 56, 56, 56, 56, 56, 55, 56, 56, 56, 56, 56, 36, 56, 56, 56, 56, 56, 56, 57, 56, 56, 56, 56, 39, 56, 57, 56, 56, 56, 56, 56, 56, 56, 56, 37, 37, 56, 56, 56, 56, 57, 38, 55, 56, 56, 56, 56, 56, 39, 56, 56, 56, 56, 56, 56, 56, 38, 56, 56, 56, 57, 56, 56, 56, 56, 56, 55, 56, 56, 56, 56, 56, 56, 36, 56, 56, 56, 56, 56, 56, 56, 56, 56, 38, 56, 56, 56, 39, 56, 56>} : (tensor<?x3x3x256xi32>) -> tensor<?x3x3x256xi8>
    %140 = tosa.clamp %139 {max_fp = 0.000000e+00 : f32, max_int = 127 : i64, min_fp = 0.000000e+00 : f32, min_int = -128 : i64} : (tensor<?x3x3x256xi8>) -> tensor<?x3x3x256xi8>
    %141 = tosa.avg_pool2d %140 {acc_type = i32, kernel = array<i64: 3, 3>, pad = array<i64: 0, 0, 0, 0>, quantization_info = #tosa.unary_quant<input_zp = 0, output_zp = 0>, stride = array<i64: 3, 3>} : (tensor<?x3x3x256xi8>) -> tensor<?x1x1x256xi8>
    %142 = tosa.reshape %141 {new_shape = array<i64: -1, 256>} : (tensor<?x1x1x256xi8>) -> tensor<?x256xi8>
    %143 = tosa.fully_connected %142, %18, %17 {quantization_info = #tosa.conv_quant<input_zp = -128, weight_zp = 0>} : (tensor<?x256xi8>, tensor<2x256xi8>, tensor<2xi32>) -> tensor<?x2xi32>
    %144 = tosa.rescale %143 {double_round = true, input_zp = 0 : i32, multiplier = array<i32: 1387987940>, output_zp = -5 : i32, per_channel = false, scale32 = true, shift = array<i32: 38>} : (tensor<?x2xi32>) -> tensor<?x2xi8>
    %145 = tosa.cast %144 : (tensor<?x2xi8>) -> tensor<?x2xf32>
    %146 = tosa.sub %145, %13 : (tensor<?x2xf32>, tensor<1x1xf32>) -> tensor<?x2xf32>
    %147 = tosa.mul %146, %14 {shift = 0 : i8} : (tensor<?x2xf32>, tensor<1x1xf32>) -> tensor<?x2xf32>
    %148 = tosa.reduce_max %147 {axis = 1 : i32} : (tensor<?x2xf32>) -> tensor<?x1xf32>
    %149 = tosa.sub %147, %148 : (tensor<?x2xf32>, tensor<?x1xf32>) -> tensor<?x2xf32>
    %150 = tosa.exp %149 : (tensor<?x2xf32>) -> tensor<?x2xf32>
    %151 = tosa.reduce_sum %150 {axis = 1 : i32} : (tensor<?x2xf32>) -> tensor<?x1xf32>
    %152 = tosa.reciprocal %151 : (tensor<?x1xf32>) -> tensor<?x1xf32>
    %153 = tosa.mul %150, %152 {shift = 0 : i8} : (tensor<?x2xf32>, tensor<?x1xf32>) -> tensor<?x2xf32>
    %154 = tosa.mul %153, %15 {shift = 0 : i8} : (tensor<?x2xf32>, tensor<1x1xf32>) -> tensor<?x2xf32>
    %155 = tosa.add %154, %16 : (tensor<?x2xf32>, tensor<1x1xf32>) -> tensor<?x2xf32>
    %156 = tosa.cast %155 : (tensor<?x2xf32>) -> tensor<?x2xi8>
    return %156 : tensor<?x2xi8>
  }
}

