#map = affine_map<(d0, d1) -> ()>
#map1 = affine_map<(d0, d1) -> (d0, d1)>
#map2 = affine_map<(d0, d1) -> (d1, d0)>
#map3 = affine_map<(d0, d1, d2) -> (d0, d2)>
#map4 = affine_map<(d0, d1, d2) -> (d2, d1)>
#map5 = affine_map<(d0, d1, d2) -> ()>
#map6 = affine_map<(d0, d1, d2) -> (d0, d1)>
#map7 = affine_map<(d0, d1) -> (d1)>
module attributes {tf_saved_model.semantics} {
  func.func @main(%arg0: tensor<?x28x28xi8> {ml_program.identifier = "serving_default_flatten_1_input:0", tf_saved_model.index_path = ["flatten_1_input"]}) -> (tensor<?x10xi8> {ml_program.identifier = "StatefulPartitionedCall:0", tf_saved_model.index_path = ["dense_3"]}) attributes {tf_saved_model.exported_names = ["serving_default"]} {
    %c1560650607_i64 = arith.constant 1560650607 : i64
    %c1099511627776_i64 = arith.constant 1099511627776 : i64
    %c41_i64 = arith.constant 41 : i64
    %c549755813888_i64 = arith.constant 549755813888 : i64
    %c1775896262_i64 = arith.constant 1775896262 : i64
    %c40_i64 = arith.constant 40 : i64
    %c22_i32 = arith.constant 22 : i32
    %c127_i8 = arith.constant 127 : i8
    %c-128_i8 = arith.constant -128 : i8
    %c127_i32 = arith.constant 127 : i32
    %c-1073741824_i64 = arith.constant -1073741824 : i64
    %c1073741824_i64 = arith.constant 1073741824 : i64
    %c-128_i32 = arith.constant -128 : i32
    %c0_i32 = arith.constant 0 : i32
    %c0 = arith.constant 0 : index
    %cst = arith.constant dense<[-461, -260, 175, -134, 239, 111, -4, -171, 324, -77]> : tensor<10xi32>
    %cst_0 = arith.constant dense<"…"> : tensor<10x128xi8>
    %cst_1 = arith.constant dense<"…"> : tensor<128xi32>
    %cst_2 = arith.constant dense<"…"> : tensor<128x784xi8>
    %collapsed = tensor.collapse_shape %arg0 [[0, 1, 2]] : tensor<?x28x28xi8> into tensor<?xi8>
    %expanded = tensor.expand_shape %collapsed [[0, 1]] : tensor<?xi8> into tensor<?x784xi8>
    %dim = tensor.dim %expanded, %c0 : tensor<?x784xi8>
    %0 = tensor.empty(%dim) : tensor<?x128xi32>
    %1 = linalg.generic {indexing_maps = [#map, #map1], iterator_types = ["parallel", "parallel"]} ins(%c0_i32 : i32) outs(%0 : tensor<?x128xi32>) {
    ^bb0(%in: i32, %out: i32):
      linalg.yield %in : i32
    } -> tensor<?x128xi32>
    %2 = tensor.empty() : tensor<784x128xi8>
    %3 = linalg.generic {indexing_maps = [#map2, #map1], iterator_types = ["parallel", "parallel"]} ins(%cst_2 : tensor<128x784xi8>) outs(%2 : tensor<784x128xi8>) {
    ^bb0(%in: i8, %out: i8):
      linalg.yield %in : i8
    } -> tensor<784x128xi8>
    %4 = tensor.empty(%dim) : tensor<?x128xi32>
    %5 = linalg.generic {indexing_maps = [#map3, #map4, #map5, #map5, #map6], iterator_types = ["parallel", "parallel", "reduction"]} ins(%expanded, %3, %c-128_i32, %c0_i32 : tensor<?x784xi8>, tensor<784x128xi8>, i32, i32) outs(%1 : tensor<?x128xi32>) {
    ^bb0(%in: i8, %in_7: i8, %in_8: i32, %in_9: i32, %out: i32):
      %20 = arith.extsi %in : i8 to i32
      %21 = arith.subi %20, %in_8 : i32
      %22 = arith.extsi %in_7 : i8 to i32
      %23 = arith.subi %22, %in_9 : i32
      %24 = arith.muli %21, %23 : i32
      %25 = arith.addi %out, %24 : i32
      linalg.yield %25 : i32
    } -> tensor<?x128xi32>
    %6 = linalg.generic {indexing_maps = [#map7, #map1, #map1], iterator_types = ["parallel", "parallel"]} ins(%cst_1, %5 : tensor<128xi32>, tensor<?x128xi32>) outs(%4 : tensor<?x128xi32>) {
    ^bb0(%in: i32, %in_7: i32, %out: i32):
      %20 = arith.addi %in, %in_7 : i32
      linalg.yield %20 : i32
    } -> tensor<?x128xi32>
    %dim_3 = tensor.dim %6, %c0 : tensor<?x128xi32>
    %7 = tensor.empty(%dim_3) : tensor<?x128xi8>
    %8 = linalg.generic {indexing_maps = [#map1, #map1], iterator_types = ["parallel", "parallel"]} ins(%6 : tensor<?x128xi32>) outs(%7 : tensor<?x128xi8>) {
    ^bb0(%in: i32, %out: i8):
      %20 = arith.extsi %in : i32 to i64
      %21 = arith.muli %20, %c1560650607_i64 : i64
      %22 = arith.addi %21, %c1099511627776_i64 : i64
      %23 = arith.cmpi sge, %in, %c0_i32 : i32
      %24 = arith.select %23, %c1073741824_i64, %c-1073741824_i64 : i64
      %25 = arith.addi %24, %22 : i64
      %26 = arith.shrsi %25, %c41_i64 : i64
      %27 = arith.trunci %26 : i64 to i32
      %28 = arith.addi %27, %c-128_i32 : i32
      %29 = arith.cmpi slt, %28, %c-128_i32 : i32
      %30 = arith.select %29, %c-128_i32, %28 : i32
      %31 = arith.cmpi sgt, %28, %c127_i32 : i32
      %32 = arith.select %31, %c127_i32, %30 : i32
      %33 = arith.trunci %32 : i32 to i8
      linalg.yield %33 : i8
    } -> tensor<?x128xi8>
    %dim_4 = tensor.dim %8, %c0 : tensor<?x128xi8>
    %9 = tensor.empty(%dim_4) : tensor<?x128xi8>
    %10 = linalg.generic {indexing_maps = [#map1, #map1], iterator_types = ["parallel", "parallel"]} ins(%8 : tensor<?x128xi8>) outs(%9 : tensor<?x128xi8>) {
    ^bb0(%in: i8, %out: i8):
      %20 = arith.cmpi slt, %in, %c-128_i8 : i8
      %21 = arith.select %20, %c-128_i8, %in : i8
      %22 = arith.cmpi sgt, %in, %c127_i8 : i8
      %23 = arith.select %22, %c127_i8, %21 : i8
      linalg.yield %23 : i8
    } -> tensor<?x128xi8>
    %dim_5 = tensor.dim %10, %c0 : tensor<?x128xi8>
    %11 = tensor.empty(%dim_5) : tensor<?x10xi32>
    %12 = linalg.generic {indexing_maps = [#map, #map1], iterator_types = ["parallel", "parallel"]} ins(%c0_i32 : i32) outs(%11 : tensor<?x10xi32>) {
    ^bb0(%in: i32, %out: i32):
      linalg.yield %in : i32
    } -> tensor<?x10xi32>
    %13 = tensor.empty() : tensor<128x10xi8>
    %14 = linalg.generic {indexing_maps = [#map2, #map1], iterator_types = ["parallel", "parallel"]} ins(%cst_0 : tensor<10x128xi8>) outs(%13 : tensor<128x10xi8>) {
    ^bb0(%in: i8, %out: i8):
      linalg.yield %in : i8
    } -> tensor<128x10xi8>
    %15 = tensor.empty(%dim_5) : tensor<?x10xi32>
    %16 = linalg.generic {
        indexing_maps = [#map3, #map4, #map5, #map5, #map6], 
        iterator_types = ["parallel", "parallel", "reduction"]} 
        ins(%10, %14, %c-128_i32, %c0_i32 : tensor<?x128xi8>, tensor<128x10xi8>, i32, i32) 
        outs(%12 : tensor<?x10xi32>) {
    ^bb0(%in: i8, %in_7: i8, %in_8: i32, %in_9: i32, %out: i32):
      %20 = arith.extsi %in : i8 to i32
      %21 = arith.subi %20, %in_8 : i32
      %22 = arith.extsi %in_7 : i8 to i32
      %23 = arith.subi %22, %in_9 : i32
      %24 = arith.muli %21, %23 : i32
      %25 = arith.addi %out, %24 : i32
      linalg.yield %25 : i32
    } -> tensor<?x10xi32>
    %17 = linalg.generic {indexing_maps = [#map7, #map1, #map1], iterator_types = ["parallel", "parallel"]} ins(%cst, %16 : tensor<10xi32>, tensor<?x10xi32>) outs(%15 : tensor<?x10xi32>) {
    ^bb0(%in: i32, %in_7: i32, %out: i32):
      %20 = arith.addi %in, %in_7 : i32
      linalg.yield %20 : i32
    } -> tensor<?x10xi32>
    %dim_6 = tensor.dim %17, %c0 : tensor<?x10xi32>
    %18 = tensor.empty(%dim_6) : tensor<?x10xi8>
    %19 = linalg.generic {
        indexing_maps = [#map1, #map1], 
        iterator_types = ["parallel", "parallel"]} 
        ins(%17 : tensor<?x10xi32>) outs(%18 : tensor<?x10xi8>) {
    ^bb0(%in: i32, %out: i8):
      %20 = arith.extsi %in : i32 to i64
      %21 = arith.muli %20, %c1775896262_i64 : i64
      %22 = arith.addi %21, %c549755813888_i64 : i64
      %23 = arith.cmpi sge, %in, %c0_i32 : i32
      %24 = arith.select %23, %c1073741824_i64, %c-1073741824_i64 : i64
      %25 = arith.addi %24, %22 : i64
      %26 = arith.shrsi %25, %c40_i64 : i64
      %27 = arith.trunci %26 : i64 to i32
      %28 = arith.addi %27, %c22_i32 : i32
      %29 = arith.cmpi slt, %28, %c-128_i32 : i32
      %30 = arith.select %29, %c-128_i32, %28 : i32
      %31 = arith.cmpi sgt, %28, %c127_i32 : i32
      %32 = arith.select %31, %c127_i32, %30 : i32
      %33 = arith.trunci %32 : i32 to i8
      linalg.yield %33 : i8
    } -> tensor<?x10xi8>
    return %19 : tensor<?x10xi8>
  }
}

