#map = affine_map<(d0, d1, d2, d3) -> ()>
#map1 = affine_map<(d0, d1, d2, d3) -> (d0, d1, d2, d3)>
#map2 = affine_map<(d0, d1, d2, d3, d4, d5, d6) -> (d0, d1 + d4, d2 + d5, d6)>
#map3 = affine_map<(d0, d1, d2, d3, d4, d5, d6) -> (d3, d4, d5, d6)>
#map4 = affine_map<(d0, d1, d2, d3, d4, d5, d6) -> ()>
#map5 = affine_map<(d0, d1, d2, d3, d4, d5, d6) -> (d0, d1, d2, d3)>
#map6 = affine_map<(d0, d1, d2, d3) -> (d3)>
#map7 = affine_map<(d0, d1, d2, d3) -> (0, d1, d2, d3)>
#map8 = affine_map<(d0, d1, d2, d3, d4, d5, d6) -> (d0, d1 * 2 + d4, d2 * 2 + d5, d6)>
#map9 = affine_map<(d0, d1, d2, d3, d4, d5) -> (d0, d1 * 8 + d4, d2 * 8 + d5, d3)>
#map10 = affine_map<(d0, d1, d2, d3, d4, d5) -> (d4, d5)>
#map11 = affine_map<(d0, d1, d2, d3, d4, d5) -> (d0, d1, d2, d3)>
#map12 = affine_map<(d0, d1) -> ()>
#map13 = affine_map<(d0, d1) -> (d0, d1)>
#map14 = affine_map<(d0, d1) -> (d1, d0)>
#map15 = affine_map<(d0, d1, d2) -> (d0, d2)>
#map16 = affine_map<(d0, d1, d2) -> (d2, d1)>
#map17 = affine_map<(d0, d1, d2) -> ()>
#map18 = affine_map<(d0, d1, d2) -> (d0, d1)>
#map19 = affine_map<(d0, d1) -> (d1)>
#map20 = affine_map<(d0, d1) -> (0, 0)>
#map21 = affine_map<(d0) -> ()>
#map22 = affine_map<(d0) -> (d0)>
#map23 = affine_map<(d0, d1) -> (d0)>
#map24 = affine_map<(d0, d1) -> (0, d1)>
#map25 = affine_map<(d0, d1) -> (d0, 0)>
module {
  func.func @main(%arg0: tensor<?x32x32x3xi8> {ml_program.identifier = "input_1_int8"}) -> (tensor<?x10xi8> {ml_program.identifier = "Identity_int8"}) {
    %c1623821475_i64 = arith.constant 1623821475 : i64
    %c1098017566_i64 = arith.constant 1098017566 : i64
    %c1699529983_i64 = arith.constant 1699529983 : i64
    %c140737488355328_i64 = arith.constant 140737488355328 : i64
    %c1140768826_i64 = arith.constant 1140768826 : i64
    %c48_i64 = arith.constant 48 : i64
    %c512_i64 = arith.constant 512 : i64
    %c10_i64 = arith.constant 10 : i64
    %c4294967296_i64 = arith.constant 4294967296 : i64
    %c1657902019_i64 = arith.constant 1657902019 : i64
    %c33_i64 = arith.constant 33 : i64
    %c1024_i64 = arith.constant 1024 : i64
    %c11_i64 = arith.constant 11 : i64
    %c281474976710656_i64 = arith.constant 281474976710656 : i64
    %c1835721671_i64 = arith.constant 1835721671 : i64
    %c49_i64 = arith.constant 49 : i64
    %c1073741825_i64 = arith.constant 1073741825 : i64
    %c34359738368_i64 = arith.constant 34359738368 : i64
    %c1552512760_i64 = arith.constant 1552512760 : i64
    %c36_i64 = arith.constant 36 : i64
    %cst = arith.constant 1.270000e+02 : f32
    %cst_0 = arith.constant -1.280000e+02 : f32
    %cst_1 = arith.constant 1.000000e+00 : f32
    %cst_2 = arith.constant 0.000000e+00 : f32
    %cst_3 = arith.constant -3.40282347E+38 : f32
    %c24_i32 = arith.constant 24 : i32
    %c38_i32 = arith.constant 38 : i32
    %cst_4 = arith.constant dense<[40, 40, 40, 40, 40, 39, 39, 40, 39, 40, 40, 39, 40, 40, 39, 40, 39, 39, 39, 39, 40, 40, 40, 40, 40, 40, 39, 40, 40, 41, 40, 40, 39, 40, 40, 39, 40, 40, 40, 39, 39, 40, 40, 40, 40, 39, 40, 40, 40, 40, 40, 40, 40, 39, 40, 39, 39, 41, 40, 39, 39, 40, 40, 40]> : tensor<64xi8>
    %cst_5 = arith.constant dense<[1814794596, 1570734062, 1627315952, 2143168091, 1814367499, 1076510205, 1455899111, 1428374600, 1117860191, 1680323913, 1626002483, 1098431426, 1899245860, 1101196586, 1085889598, 2103869975, 1105840534, 1221799215, 1124883075, 1256635973, 1830992750, 1263824137, 1458083676, 1545228998, 1669470158, 1814055302, 1902939566, 1582194009, 2094558514, 2059716800, 1850450363, 2047663988, 1194708058, 1666229877, 1330200816, 1389210885, 1773436891, 1822285206, 1438369610, 1357067698, 1297107387, 1919782753, 1852601449, 1092256073, 2064157112, 1109499135, 1298531693, 1432182068, 1937311116, 1738984731, 1584059876, 1538955809, 1365930203, 1128931314, 1873082436, 1107572974, 1319622691, 2137760960, 1846914949, 1134394270, 1080901438, 1090826241, 1713576853, 1721837148]> : tensor<64xi32>
    %c-2_i32 = arith.constant -2 : i32
    %cst_6 = arith.constant dense<[40, 40, 40, 41, 40, 40, 40, 40, 40, 40, 40, 40, 40, 40, 40, 40, 40, 40, 40, 40, 40, 40, 40, 40, 40, 40, 40, 40, 40, 40, 40, 40, 40, 40, 41, 40, 40, 40, 40, 40, 40, 40, 40, 40, 40, 40, 40, 40, 40, 40, 40, 40, 40, 40, 40, 40, 40, 40, 40, 40, 40, 40, 40, 40]> : tensor<64xi8>
    %cst_7 = arith.constant dense<[1422834502, 1284469496, 1570285376, 2104193880, 1381425027, 1651192153, 1339409408, 2013191977, 1283536408, 1524538748, 1540202896, 1687874503, 1323163120, 1250028808, 1557401180, 1338022651, 1513169645, 2084158517, 1380848385, 1312426446, 1309627184, 1342137059, 1378725403, 1383426646, 1612967486, 1721359574, 1851443597, 1398489208, 1880548870, 1271885153, 1396360996, 1398835327, 1558440208, 1733623411, 2125023802, 2034522505, 1826671991, 1394902762, 1237301378, 1559604489, 1445071565, 1456644370, 1723580183, 1336788368, 1841014153, 1445671943, 1125906191, 1166146155, 1399099108, 1311927852, 1446909846, 1543616081, 1145319317, 1585283703, 1471739519, 1393376136, 1396380710, 1811326606, 1273388043, 1649748000, 1281973037, 1223122151, 1364719437, 1721365609]> : tensor<64xi32>
    %cst_8 = arith.constant dense<[40, 40, 39, 39, 39, 40, 40, 40, 40, 40, 40, 40, 40, 40, 40, 40, 40, 40, 40, 40, 40, 40, 40, 39, 39, 40, 39, 40, 40, 40, 40, 40, 40, 40, 40, 40, 40, 39, 40, 40, 40, 40, 39, 40, 39, 40, 39, 39, 39, 39, 40, 40, 40, 40, 39, 40, 40, 40, 40, 40, 40, 40, 40, 40]> : tensor<64xi8>
    %cst_9 = arith.constant dense<[1303824501, 1413808204, 1224025635, 1405559199, 1201501554, 1516172826, 1972020396, 1486600787, 2051128262, 1945612945, 2090751654, 1698969950, 1918731613, 2009424445, 1879174327, 1388276179, 2057699587, 1804821546, 1806022353, 1590250764, 1828088002, 1908873908, 1276816466, 1519395017, 1128884416, 1973682628, 1177063273, 1650164283, 1817982877, 1926463985, 1755898876, 1545223441, 2067091197, 1552718574, 1631385973, 1437156334, 2059378824, 1172338487, 2025933473, 1810011949, 1512456516, 1661560032, 1334137718, 1952255645, 1173736175, 1988085124, 1260807904, 1171256120, 1407376636, 1481029076, 1191193681, 1285400073, 1865407742, 1620035492, 1214679413, 1820396706, 2001044785, 1935723144, 1641426069, 1615638122, 1678104988, 1533287826, 1769293854, 1663317112]> : tensor<64xi32>
    %c-17_i32 = arith.constant -17 : i32
    %cst_10 = arith.constant dense<[39, 40, 39, 39, 38, 40, 39, 39, 40, 40, 39, 38, 39, 39, 39, 38, 40, 39, 38, 39, 39, 40, 39, 40, 39, 39, 39, 39, 38, 40, 40, 39]> : tensor<32xi8>
    %cst_11 = arith.constant dense<[1296653837, 1658550166, 1525493596, 1374771179, 1371756383, 1393382082, 1692263162, 1471092235, 1260067214, 2098027133, 1206857990, 1163693274, 1836199595, 1186378682, 1220705447, 1291003318, 1951181526, 1438059294, 1137948637, 1229299522, 1657195154, 1408603345, 1433438765, 1996595027, 1348416706, 1443428788, 1098714636, 1503644709, 1465331870, 1769218086, 1390497529, 1479771244]> : tensor<32xi32>
    %cst_12 = arith.constant dense<[40, 40, 41, 40, 40, 40, 40, 40, 40, 40, 40, 40, 39, 40, 40, 40, 40, 40, 40, 40, 40, 40, 40, 40, 40, 40, 40, 40, 40, 40, 40, 40]> : tensor<32xi8>
    %cst_13 = arith.constant dense<[1611878712, 1745461596, 1911644490, 1123517849, 1541269319, 1366545066, 1742998675, 1554065078, 1243652860, 1170813938, 1959213353, 1274195131, 1338682468, 1700487132, 1449782977, 1466157352, 1136999832, 1326930360, 1319581908, 1322784387, 1681531693, 1278861430, 1242622026, 1695011091, 1236923239, 1631515620, 1662792591, 1546675177, 1617630835, 1433552690, 1407623281, 1370585298]> : tensor<32xi32>
    %cst_14 = arith.constant dense<[39, 39, 39, 39, 39, 39, 39, 40, 39, 39, 39, 39, 40, 40, 39, 39, 39, 40, 39, 40, 39, 40, 40, 39, 39, 39, 39, 39, 39, 39, 40, 39]> : tensor<32xi8>
    %cst_15 = arith.constant dense<[1511721700, 2034875370, 1345580395, 1164799555, 1274136460, 1640627527, 1377844223, 2118754499, 1665245057, 1188122951, 1288847525, 2091372943, 2049837295, 2018215251, 1253288395, 1225104572, 1273389448, 1983511071, 1363111741, 1605971321, 1174027756, 2033472868, 2106376702, 1352964412, 1621452813, 1632898274, 1278605534, 1765705207, 1550116817, 1314742912, 2110947433, 1617901797]> : tensor<32xi32>
    %c1 = arith.constant 1 : index
    %c2147483647_i32 = arith.constant 2147483647 : i32
    %c-2147483648_i32 = arith.constant -2147483648 : i32
    %c4_i32 = arith.constant 4 : i32
    %cst_16 = arith.constant dense<[40, 40, 39, 39, 40, 40, 40, 40, 41, 40, 40, 39, 40, 39, 39, 40]> : tensor<16xi8>
    %cst_17 = arith.constant dense<[1137482404, 1764230389, 1264136033, 1639979363, 1872268361, 1454349802, 1863080452, 1702652878, 2064353696, 1851550016, 1740932771, 1571031712, 1090201673, 1460867901, 1208447830, 1582504508]> : tensor<16xi32>
    %cst_18 = arith.constant dense<[39, 40, 40, 40, 39, 39, 39, 39, 40, 38, 39, 39, 39, 39, 39, 39]> : tensor<16xi8>
    %cst_19 = arith.constant dense<[1459272781, 1201775990, 2061439064, 2119972472, 1182070367, 1623648584, 1080680068, 1607924482, 1846379479, 1100039831, 1145730024, 1557705724, 1631878637, 1509916379, 1154404215, 1150593874]> : tensor<16xi32>
    %c127_i8 = arith.constant 127 : i8
    %c127_i32 = arith.constant 127 : i32
    %c-1073741824_i64 = arith.constant -1073741824 : i64
    %c1073741824_i64 = arith.constant 1073741824 : i64
    %c31_i32 = arith.constant 31 : i32
    %c1_i64 = arith.constant 1 : i64
    %cst_20 = arith.constant dense<[39, 41, 40, 39, 40, 40, 40, 39, 40, 40, 41, 40, 39, 42, 41, 38]> : tensor<16xi8>
    %cst_21 = arith.constant dense<[1242405367, 1572401305, 1958940506, 1298758956, 2105523684, 1488287030, 2099891493, 1638298993, 1454413568, 1464338136, 1402045708, 1370583300, 1101019486, 1611122667, 1494439611, 1164674270]> : tensor<16xi32>
    %c-128_i32 = arith.constant -128 : i32
    %c0_i32 = arith.constant 0 : i32
    %c-128_i8 = arith.constant -128 : i8
    %cst_22 = arith.constant dense<2.400000e+01> : tensor<1x1xf32>
    %cst_23 = arith.constant dense<0.171853513> : tensor<1x1xf32>
    %cst_24 = arith.constant dense<2.560000e+02> : tensor<1x1xf32>
    %cst_25 = arith.constant dense<-1.280000e+02> : tensor<1x1xf32>
    %cst_26 = arith.constant dense<[-23, -40, 5, 18, 12, -34, 44, -28, -2, 46]> : tensor<10xi32>
    %cst_27 = arith.constant dense<"…"> : tensor<10x64xi8>
    %cst_28 = arith.constant dense<[-2650, 403, -2426, -1401, -782, -3582, -1114, -875, -947, -1639, -334, 69, -2289, -1901, -39, -201, -329, -1503, -345, 620, -900, -1737, 329, -1242, -555, -1698, -90, -6268, -1430, -1961, -1939, -670, -1204, 1041, -106, -3097, -1151, -1328, -1770, 298, -631, -2027, -180, -4442, 614, -805, -1149, -2273, 128, -1446, -2325, -2405, 73, -3105, -3223, -2626, 87, -903, -349, -536, -1563, 722, -1595, -246]> : tensor<64xi32>
    %cst_29 = arith.constant dense<"…"> : tensor<64x1x1x32xi8>
    %cst_30 = arith.constant dense<[2657, -129, -3216, 1208, 10360, -2758, 813, -3137, 13510, 3899, 3688, 7788, 883, 10341, 7110, -3494, 1351, 3344, 5877, -2208, 536, 3624, 9052, 115, -3384, 1724, 6798, 4375, 7101, -1963, 8284, 17333, 17998, 5358, -4305, -2374, 3944, 5432, -313, 10294, -1009, 10418, 10637, -2736, 5654, -671, 3498, 1016, 1264, -4221, 5231, 4246, 12691, 2990, 12495, 13032, 4339, 7077, 9512, 4626, -4347, 7065, -1728, 8055]> : tensor<64xi32>
    %cst_31 = arith.constant dense<"…"> : tensor<64x3x3x64xi8>
    %cst_32 = arith.constant dense<[18257, 34241, 24216, -13894, -2520, 8776, 20195, -44184, 5794, 7245, 31267, -4198, 11341, 4682, 7529, 37231, -329, -11601, 4410, 22046, 1, 21649, -18278, -20767, 25009, 17855, 6845, 22214, -13041, -21249, -10192, -46027, -30259, -510, 16649, -25472, 25677, -44783, -5167, 43743, 8053, 35223, 24523, -7278, -3573, -6759, 30328, 1786, -22914, -1920, 11268, 16038, -18429, -8961, -14121, 23306, -25427, 17912, -18220, 17095, -8326, -49181, 12130, 28629]> : tensor<64xi32>
    %cst_33 = arith.constant dense<"…"> : tensor<64x3x3x32xi8>
    %cst_34 = arith.constant dense<[-117, 33, 1320, -1086, -363, -2567, -162, 1169, 6058, -1220, -1044, -330, -1365, -368, 632, 363, 274, -731, 1141, 1571, -1968, 1722, 1234, -1831, 163, 466, -2742, -75, 830, -3342, 1670, 2106]> : tensor<32xi32>
    %cst_35 = arith.constant dense<"…"> : tensor<32x1x1x16xi8>
    %cst_36 = arith.constant dense<[9237, -2805, 7816, -6433, 4053, -2872, 20467, -272, 28414, -15653, 2245, 13857, 5291, 10979, -11540, -6841, 28261, 5415, 2091, 18040, -13951, 10849, 11347, 916, -1403, 6593, -6975, -6591, 18740, -2009, 11821, 6893]> : tensor<32xi32>
    %cst_37 = arith.constant dense<"…"> : tensor<32x3x3x32xi8>
    %cst_38 = arith.constant dense<[10692, 1609, 15068, -15202, 20910, 11386, -8000, 22468, 9265, 7960, -2823, 9980, 1113, -8213, 18091, 4395, 5798, -5389, -14398, 1231, 3858, -6201, 4093, 7956, 3232, 764, 26485, 1480, 5560, 12065, -1654, 6881]> : tensor<32xi32>
    %cst_39 = arith.constant dense<"…"> : tensor<32x3x3x16xi8>
    %cst_40 = arith.constant dense<[8288, 1510, -1004, -4121, 547, 404, -2165, -5739, -120, 6576, 6860, -828, -1964, 530, 2611, -7180]> : tensor<16xi32>
    %cst_41 = arith.constant dense<"…"> : tensor<16x3x3x16xi8>
    %cst_42 = arith.constant dense<[18377, -13074, 18642, 8931, 22592, 2229, -4671, 1859, 13852, 42, -28659, -5238, 1985, 649, 1093, 7186]> : tensor<16xi32>
    %cst_43 = arith.constant dense<"…"> : tensor<16x3x3x16xi8>
    %cst_44 = arith.constant dense<[6836, 11436, 9908, 3365, 6658, 3309, 6877, 5073, 3511, 5800, 5789, 14659, 9415, -11951, -35108, 8659]> : tensor<16xi32>
    %cst_45 = arith.constant dense<"…"> : tensor<16x3x3x3xi8>
    %c0 = arith.constant 0 : index
    %dim = tensor.dim %arg0, %c0 : tensor<?x32x32x3xi8>
    %padded = tensor.pad %arg0 low[0, 1, 1, 0] high[0, 1, 1, 0] {
    ^bb0(%arg1: index, %arg2: index, %arg3: index, %arg4: index):
      tensor.yield %c-128_i8 : i8
    } : tensor<?x32x32x3xi8> to tensor<?x34x34x3xi8>
    %0 = tensor.empty(%dim) : tensor<?x32x32x16xi32>
    %1 = linalg.generic {indexing_maps = [#map, #map1], iterator_types = ["parallel", "parallel", "parallel", "parallel"]} ins(%c0_i32 : i32) outs(%0 : tensor<?x32x32x16xi32>) {
    ^bb0(%in: i32, %out: i32):
      linalg.yield %in : i32
    } -> tensor<?x32x32x16xi32>
    %2 = tensor.empty(%dim) : tensor<?x32x32x16xi32>
    %3 = linalg.generic {indexing_maps = [#map2, #map3, #map4, #map4, #map5], iterator_types = ["parallel", "parallel", "parallel", "parallel", "reduction", "reduction", "reduction"]} ins(%padded, %cst_45, %c-128_i32, %c0_i32 : tensor<?x34x34x3xi8>, tensor<16x3x3x3xi8>, i32, i32) outs(%1 : tensor<?x32x32x16xi32>) {
    ^bb0(%in: i8, %in_123: i8, %in_124: i32, %in_125: i32, %out: i32):
      %173 = arith.extsi %in : i8 to i32
      %174 = arith.subi %173, %in_124 : i32
      %175 = arith.extsi %in_123 : i8 to i32
      %176 = arith.subi %175, %in_125 : i32
      %177 = arith.muli %174, %176 : i32
      %178 = arith.addi %out, %177 : i32
      linalg.yield %178 : i32
    } -> tensor<?x32x32x16xi32>
    %4 = linalg.generic {indexing_maps = [#map6, #map1, #map1], iterator_types = ["parallel", "parallel", "parallel", "parallel"]} ins(%cst_44, %3 : tensor<16xi32>, tensor<?x32x32x16xi32>) outs(%2 : tensor<?x32x32x16xi32>) {
    ^bb0(%in: i32, %in_123: i32, %out: i32):
      %173 = arith.addi %in, %in_123 : i32
      linalg.yield %173 : i32
    } -> tensor<?x32x32x16xi32>
    %dim_46 = tensor.dim %4, %c0 : tensor<?x32x32x16xi32>
    %5 = tensor.empty(%dim_46) : tensor<?x32x32x16xi8>
    %6 = linalg.generic {indexing_maps = [#map1, #map6, #map6, #map1], iterator_types = ["parallel", "parallel", "parallel", "parallel"]} ins(%4, %cst_21, %cst_20 : tensor<?x32x32x16xi32>, tensor<16xi32>, tensor<16xi8>) outs(%5 : tensor<?x32x32x16xi8>) {
    ^bb0(%in: i32, %in_123: i32, %in_124: i8, %out: i8):
      %173 = arith.extui %in_124 : i8 to i32
      %174 = arith.extsi %in : i32 to i64
      %175 = arith.extsi %in_123 : i32 to i64
      %176 = arith.muli %174, %175 : i64
      %177 = arith.extui %in_124 : i8 to i64
      %178 = arith.shli %c1_i64, %177 : i64
      %179 = arith.shrui %178, %c1_i64 : i64
      %180 = arith.addi %176, %179 : i64
      %181 = arith.cmpi sge, %in, %c0_i32 : i32
      %182 = arith.select %181, %c1073741824_i64, %c-1073741824_i64 : i64
      %183 = arith.addi %182, %180 : i64
      %184 = arith.cmpi sgt, %173, %c31_i32 : i32
      %185 = arith.select %184, %183, %180 : i64
      %186 = arith.shrsi %185, %177 : i64
      %187 = arith.trunci %186 : i64 to i32
      %188 = arith.addi %187, %c-128_i32 : i32
      %189 = arith.cmpi slt, %188, %c-128_i32 : i32
      %190 = arith.select %189, %c-128_i32, %188 : i32
      %191 = arith.cmpi sgt, %188, %c127_i32 : i32
      %192 = arith.select %191, %c127_i32, %190 : i32
      %193 = arith.trunci %192 : i32 to i8
      linalg.yield %193 : i8
    } -> tensor<?x32x32x16xi8>
    %dim_47 = tensor.dim %6, %c0 : tensor<?x32x32x16xi8>
    %7 = tensor.empty(%dim_47) : tensor<?x32x32x16xi8>
    %8 = linalg.generic {indexing_maps = [#map1, #map1], iterator_types = ["parallel", "parallel", "parallel", "parallel"]} ins(%6 : tensor<?x32x32x16xi8>) outs(%7 : tensor<?x32x32x16xi8>) {
    ^bb0(%in: i8, %out: i8):
      %173 = arith.cmpi slt, %in, %c-128_i8 : i8
      %174 = arith.select %173, %c-128_i8, %in : i8
      %175 = arith.cmpi sgt, %in, %c127_i8 : i8
      %176 = arith.select %175, %c127_i8, %174 : i8
      linalg.yield %176 : i8
    } -> tensor<?x32x32x16xi8>
    %dim_48 = tensor.dim %8, %c0 : tensor<?x32x32x16xi8>
    %padded_49 = tensor.pad %8 low[0, 1, 1, 0] high[0, 1, 1, 0] {
    ^bb0(%arg1: index, %arg2: index, %arg3: index, %arg4: index):
      tensor.yield %c-128_i8 : i8
    } : tensor<?x32x32x16xi8> to tensor<?x34x34x16xi8>
    %9 = tensor.empty(%dim_48) : tensor<?x32x32x16xi32>
    %10 = linalg.generic {indexing_maps = [#map, #map1], iterator_types = ["parallel", "parallel", "parallel", "parallel"]} ins(%c0_i32 : i32) outs(%9 : tensor<?x32x32x16xi32>) {
    ^bb0(%in: i32, %out: i32):
      linalg.yield %in : i32
    } -> tensor<?x32x32x16xi32>
    %11 = tensor.empty(%dim_48) : tensor<?x32x32x16xi32>
    %12 = linalg.generic {indexing_maps = [#map2, #map3, #map4, #map4, #map5], iterator_types = ["parallel", "parallel", "parallel", "parallel", "reduction", "reduction", "reduction"]} ins(%padded_49, %cst_43, %c-128_i32, %c0_i32 : tensor<?x34x34x16xi8>, tensor<16x3x3x16xi8>, i32, i32) outs(%10 : tensor<?x32x32x16xi32>) {
    ^bb0(%in: i8, %in_123: i8, %in_124: i32, %in_125: i32, %out: i32):
      %173 = arith.extsi %in : i8 to i32
      %174 = arith.subi %173, %in_124 : i32
      %175 = arith.extsi %in_123 : i8 to i32
      %176 = arith.subi %175, %in_125 : i32
      %177 = arith.muli %174, %176 : i32
      %178 = arith.addi %out, %177 : i32
      linalg.yield %178 : i32
    } -> tensor<?x32x32x16xi32>
    %13 = linalg.generic {indexing_maps = [#map6, #map1, #map1], iterator_types = ["parallel", "parallel", "parallel", "parallel"]} ins(%cst_42, %12 : tensor<16xi32>, tensor<?x32x32x16xi32>) outs(%11 : tensor<?x32x32x16xi32>) {
    ^bb0(%in: i32, %in_123: i32, %out: i32):
      %173 = arith.addi %in, %in_123 : i32
      linalg.yield %173 : i32
    } -> tensor<?x32x32x16xi32>
    %dim_50 = tensor.dim %13, %c0 : tensor<?x32x32x16xi32>
    %14 = tensor.empty(%dim_50) : tensor<?x32x32x16xi8>
    %15 = linalg.generic {indexing_maps = [#map1, #map6, #map6, #map1], iterator_types = ["parallel", "parallel", "parallel", "parallel"]} ins(%13, %cst_19, %cst_18 : tensor<?x32x32x16xi32>, tensor<16xi32>, tensor<16xi8>) outs(%14 : tensor<?x32x32x16xi8>) {
    ^bb0(%in: i32, %in_123: i32, %in_124: i8, %out: i8):
      %173 = arith.extui %in_124 : i8 to i32
      %174 = arith.extsi %in : i32 to i64
      %175 = arith.extsi %in_123 : i32 to i64
      %176 = arith.muli %174, %175 : i64
      %177 = arith.extui %in_124 : i8 to i64
      %178 = arith.shli %c1_i64, %177 : i64
      %179 = arith.shrui %178, %c1_i64 : i64
      %180 = arith.addi %176, %179 : i64
      %181 = arith.cmpi sge, %in, %c0_i32 : i32
      %182 = arith.select %181, %c1073741824_i64, %c-1073741824_i64 : i64
      %183 = arith.addi %182, %180 : i64
      %184 = arith.cmpi sgt, %173, %c31_i32 : i32
      %185 = arith.select %184, %183, %180 : i64
      %186 = arith.shrsi %185, %177 : i64
      %187 = arith.trunci %186 : i64 to i32
      %188 = arith.addi %187, %c-128_i32 : i32
      %189 = arith.cmpi slt, %188, %c-128_i32 : i32
      %190 = arith.select %189, %c-128_i32, %188 : i32
      %191 = arith.cmpi sgt, %188, %c127_i32 : i32
      %192 = arith.select %191, %c127_i32, %190 : i32
      %193 = arith.trunci %192 : i32 to i8
      linalg.yield %193 : i8
    } -> tensor<?x32x32x16xi8>
    %dim_51 = tensor.dim %15, %c0 : tensor<?x32x32x16xi8>
    %16 = tensor.empty(%dim_51) : tensor<?x32x32x16xi8>
    %17 = linalg.generic {indexing_maps = [#map1, #map1], iterator_types = ["parallel", "parallel", "parallel", "parallel"]} ins(%15 : tensor<?x32x32x16xi8>) outs(%16 : tensor<?x32x32x16xi8>) {
    ^bb0(%in: i8, %out: i8):
      %173 = arith.cmpi slt, %in, %c-128_i8 : i8
      %174 = arith.select %173, %c-128_i8, %in : i8
      %175 = arith.cmpi sgt, %in, %c127_i8 : i8
      %176 = arith.select %175, %c127_i8, %174 : i8
      linalg.yield %176 : i8
    } -> tensor<?x32x32x16xi8>
    %dim_52 = tensor.dim %17, %c0 : tensor<?x32x32x16xi8>
    %padded_53 = tensor.pad %17 low[0, 1, 1, 0] high[0, 1, 1, 0] {
    ^bb0(%arg1: index, %arg2: index, %arg3: index, %arg4: index):
      tensor.yield %c-128_i8 : i8
    } : tensor<?x32x32x16xi8> to tensor<?x34x34x16xi8>
    %18 = tensor.empty(%dim_52) : tensor<?x32x32x16xi32>
    %19 = linalg.generic {indexing_maps = [#map, #map1], iterator_types = ["parallel", "parallel", "parallel", "parallel"]} ins(%c0_i32 : i32) outs(%18 : tensor<?x32x32x16xi32>) {
    ^bb0(%in: i32, %out: i32):
      linalg.yield %in : i32
    } -> tensor<?x32x32x16xi32>
    %20 = tensor.empty(%dim_52) : tensor<?x32x32x16xi32>
    %21 = linalg.generic {indexing_maps = [#map2, #map3, #map4, #map4, #map5], iterator_types = ["parallel", "parallel", "parallel", "parallel", "reduction", "reduction", "reduction"]} ins(%padded_53, %cst_41, %c-128_i32, %c0_i32 : tensor<?x34x34x16xi8>, tensor<16x3x3x16xi8>, i32, i32) outs(%19 : tensor<?x32x32x16xi32>) {
    ^bb0(%in: i8, %in_123: i8, %in_124: i32, %in_125: i32, %out: i32):
      %173 = arith.extsi %in : i8 to i32
      %174 = arith.subi %173, %in_124 : i32
      %175 = arith.extsi %in_123 : i8 to i32
      %176 = arith.subi %175, %in_125 : i32
      %177 = arith.muli %174, %176 : i32
      %178 = arith.addi %out, %177 : i32
      linalg.yield %178 : i32
    } -> tensor<?x32x32x16xi32>
    %22 = linalg.generic {indexing_maps = [#map6, #map1, #map1], iterator_types = ["parallel", "parallel", "parallel", "parallel"]} ins(%cst_40, %21 : tensor<16xi32>, tensor<?x32x32x16xi32>) outs(%20 : tensor<?x32x32x16xi32>) {
    ^bb0(%in: i32, %in_123: i32, %out: i32):
      %173 = arith.addi %in, %in_123 : i32
      linalg.yield %173 : i32
    } -> tensor<?x32x32x16xi32>
    %dim_54 = tensor.dim %22, %c0 : tensor<?x32x32x16xi32>
    %23 = tensor.empty(%dim_54) : tensor<?x32x32x16xi8>
    %24 = linalg.generic {indexing_maps = [#map1, #map6, #map6, #map1], iterator_types = ["parallel", "parallel", "parallel", "parallel"]} ins(%22, %cst_17, %cst_16 : tensor<?x32x32x16xi32>, tensor<16xi32>, tensor<16xi8>) outs(%23 : tensor<?x32x32x16xi8>) {
    ^bb0(%in: i32, %in_123: i32, %in_124: i8, %out: i8):
      %173 = arith.extui %in_124 : i8 to i32
      %174 = arith.extsi %in : i32 to i64
      %175 = arith.extsi %in_123 : i32 to i64
      %176 = arith.muli %174, %175 : i64
      %177 = arith.extui %in_124 : i8 to i64
      %178 = arith.shli %c1_i64, %177 : i64
      %179 = arith.shrui %178, %c1_i64 : i64
      %180 = arith.addi %176, %179 : i64
      %181 = arith.cmpi sge, %in, %c0_i32 : i32
      %182 = arith.select %181, %c1073741824_i64, %c-1073741824_i64 : i64
      %183 = arith.addi %182, %180 : i64
      %184 = arith.cmpi sgt, %173, %c31_i32 : i32
      %185 = arith.select %184, %183, %180 : i64
      %186 = arith.shrsi %185, %177 : i64
      %187 = arith.trunci %186 : i64 to i32
      %188 = arith.addi %187, %c4_i32 : i32
      %189 = arith.cmpi slt, %188, %c-128_i32 : i32
      %190 = arith.select %189, %c-128_i32, %188 : i32
      %191 = arith.cmpi sgt, %188, %c127_i32 : i32
      %192 = arith.select %191, %c127_i32, %190 : i32
      %193 = arith.trunci %192 : i32 to i8
      linalg.yield %193 : i8
    } -> tensor<?x32x32x16xi8>
    %dim_55 = tensor.dim %8, %c0 : tensor<?x32x32x16xi8>
    %25 = tensor.empty(%dim_55) : tensor<?x32x32x16xi32>
    %26 = linalg.generic {indexing_maps = [#map1, #map1], iterator_types = ["parallel", "parallel", "parallel", "parallel"]} ins(%8 : tensor<?x32x32x16xi8>) outs(%25 : tensor<?x32x32x16xi32>) {
    ^bb0(%in: i8, %out: i32):
      %173 = arith.extsi %in : i8 to i32
      %174 = arith.subi %173, %c-128_i32 : i32
      %175 = arith.extsi %174 : i32 to i64
      %176 = arith.muli %175, %c1073741824_i64 : i64
      %177 = arith.addi %176, %c512_i64 : i64
      %178 = arith.shrsi %177, %c10_i64 : i64
      %179 = arith.trunci %178 : i64 to i32
      %180 = arith.cmpi slt, %179, %c-2147483648_i32 : i32
      %181 = arith.select %180, %c-2147483648_i32, %179 : i32
      %182 = arith.cmpi sgt, %179, %c2147483647_i32 : i32
      %183 = arith.select %182, %c2147483647_i32, %181 : i32
      linalg.yield %183 : i32
    } -> tensor<?x32x32x16xi32>
    %dim_56 = tensor.dim %26, %c0 : tensor<?x32x32x16xi32>
    %27 = tensor.empty(%dim_56) : tensor<?x32x32x16xi32>
    %28 = linalg.generic {indexing_maps = [#map1, #map1], iterator_types = ["parallel", "parallel", "parallel", "parallel"]} ins(%26 : tensor<?x32x32x16xi32>) outs(%27 : tensor<?x32x32x16xi32>) {
    ^bb0(%in: i32, %out: i32):
      %173 = arith.extsi %in : i32 to i64
      %174 = arith.muli %173, %c1623821475_i64 : i64
      %175 = arith.addi %174, %c4294967296_i64 : i64
      %176 = arith.cmpi sge, %in, %c0_i32 : i32
      %177 = arith.select %176, %c1073741824_i64, %c-1073741824_i64 : i64
      %178 = arith.addi %177, %175 : i64
      %179 = arith.shrsi %178, %c33_i64 : i64
      %180 = arith.trunci %179 : i64 to i32
      %181 = arith.cmpi slt, %180, %c-2147483648_i32 : i32
      %182 = arith.select %181, %c-2147483648_i32, %180 : i32
      %183 = arith.cmpi sgt, %180, %c2147483647_i32 : i32
      %184 = arith.select %183, %c2147483647_i32, %182 : i32
      linalg.yield %184 : i32
    } -> tensor<?x32x32x16xi32>
    %dim_57 = tensor.dim %24, %c0 : tensor<?x32x32x16xi8>
    %29 = tensor.empty(%dim_57) : tensor<?x32x32x16xi32>
    %30 = linalg.generic {indexing_maps = [#map1, #map1], iterator_types = ["parallel", "parallel", "parallel", "parallel"]} ins(%24 : tensor<?x32x32x16xi8>) outs(%29 : tensor<?x32x32x16xi32>) {
    ^bb0(%in: i8, %out: i32):
      %173 = arith.extsi %in : i8 to i32
      %174 = arith.subi %173, %c4_i32 : i32
      %175 = arith.extsi %174 : i32 to i64
      %176 = arith.muli %175, %c1073741824_i64 : i64
      %177 = arith.addi %176, %c1024_i64 : i64
      %178 = arith.shrsi %177, %c11_i64 : i64
      %179 = arith.trunci %178 : i64 to i32
      %180 = arith.cmpi slt, %179, %c-2147483648_i32 : i32
      %181 = arith.select %180, %c-2147483648_i32, %179 : i32
      %182 = arith.cmpi sgt, %179, %c2147483647_i32 : i32
      %183 = arith.select %182, %c2147483647_i32, %181 : i32
      linalg.yield %183 : i32
    } -> tensor<?x32x32x16xi32>
    %dim_58 = tensor.dim %28, %c0 : tensor<?x32x32x16xi32>
    %dim_59 = tensor.dim %30, %c0 : tensor<?x32x32x16xi32>
    %31 = arith.maxui %dim_58, %dim_59 : index
    %dim_60 = tensor.dim %28, %c0 : tensor<?x32x32x16xi32>
    %32 = arith.cmpi eq, %dim_60, %c1 : index
    %33 = scf.if %32 -> (tensor<?x32x32x16xi32>) {
      %173 = tensor.empty(%31) : tensor<?x32x32x16xi32>
      %174 = linalg.generic {indexing_maps = [#map7, #map1], iterator_types = ["parallel", "parallel", "parallel", "parallel"]} ins(%28 : tensor<?x32x32x16xi32>) outs(%173 : tensor<?x32x32x16xi32>) {
      ^bb0(%in: i32, %out: i32):
        linalg.yield %in : i32
      } -> tensor<?x32x32x16xi32>
      scf.yield %174 : tensor<?x32x32x16xi32>
    } else {
      scf.yield %28 : tensor<?x32x32x16xi32>
    }
    %dim_61 = tensor.dim %30, %c0 : tensor<?x32x32x16xi32>
    %34 = arith.cmpi eq, %dim_61, %c1 : index
    %35 = scf.if %34 -> (tensor<?x32x32x16xi32>) {
      %173 = tensor.empty(%31) : tensor<?x32x32x16xi32>
      %174 = linalg.generic {indexing_maps = [#map7, #map1], iterator_types = ["parallel", "parallel", "parallel", "parallel"]} ins(%30 : tensor<?x32x32x16xi32>) outs(%173 : tensor<?x32x32x16xi32>) {
      ^bb0(%in: i32, %out: i32):
        linalg.yield %in : i32
      } -> tensor<?x32x32x16xi32>
      scf.yield %174 : tensor<?x32x32x16xi32>
    } else {
      scf.yield %30 : tensor<?x32x32x16xi32>
    }
    %36 = tensor.empty(%31) : tensor<?x32x32x16xi32>
    %37 = linalg.generic {indexing_maps = [#map1, #map1, #map1], iterator_types = ["parallel", "parallel", "parallel", "parallel"]} ins(%33, %35 : tensor<?x32x32x16xi32>, tensor<?x32x32x16xi32>) outs(%36 : tensor<?x32x32x16xi32>) {
    ^bb0(%in: i32, %in_123: i32, %out: i32):
      %173 = arith.addi %in, %in_123 : i32
      linalg.yield %173 : i32
    } -> tensor<?x32x32x16xi32>
    %dim_62 = tensor.dim %37, %c0 : tensor<?x32x32x16xi32>
    %38 = tensor.empty(%dim_62) : tensor<?x32x32x16xi8>
    %39 = linalg.generic {indexing_maps = [#map1, #map1], iterator_types = ["parallel", "parallel", "parallel", "parallel"]} ins(%37 : tensor<?x32x32x16xi32>) outs(%38 : tensor<?x32x32x16xi8>) {
    ^bb0(%in: i32, %out: i8):
      %173 = arith.extsi %in : i32 to i64
      %174 = arith.muli %173, %c1098017566_i64 : i64
      %175 = arith.addi %174, %c140737488355328_i64 : i64
      %176 = arith.cmpi sge, %in, %c0_i32 : i32
      %177 = arith.select %176, %c1073741824_i64, %c-1073741824_i64 : i64
      %178 = arith.addi %177, %175 : i64
      %179 = arith.shrsi %178, %c48_i64 : i64
      %180 = arith.trunci %179 : i64 to i32
      %181 = arith.addi %180, %c-128_i32 : i32
      %182 = arith.cmpi slt, %181, %c-128_i32 : i32
      %183 = arith.select %182, %c-128_i32, %181 : i32
      %184 = arith.cmpi sgt, %181, %c127_i32 : i32
      %185 = arith.select %184, %c127_i32, %183 : i32
      %186 = arith.trunci %185 : i32 to i8
      linalg.yield %186 : i8
    } -> tensor<?x32x32x16xi8>
    %dim_63 = tensor.dim %39, %c0 : tensor<?x32x32x16xi8>
    %40 = tensor.empty(%dim_63) : tensor<?x32x32x16xi8>
    %41 = linalg.generic {indexing_maps = [#map1, #map1], iterator_types = ["parallel", "parallel", "parallel", "parallel"]} ins(%39 : tensor<?x32x32x16xi8>) outs(%40 : tensor<?x32x32x16xi8>) {
    ^bb0(%in: i8, %out: i8):
      %173 = arith.cmpi slt, %in, %c-128_i8 : i8
      %174 = arith.select %173, %c-128_i8, %in : i8
      %175 = arith.cmpi sgt, %in, %c127_i8 : i8
      %176 = arith.select %175, %c127_i8, %174 : i8
      linalg.yield %176 : i8
    } -> tensor<?x32x32x16xi8>
    %dim_64 = tensor.dim %41, %c0 : tensor<?x32x32x16xi8>
    %padded_65 = tensor.pad %41 low[0, 0, 0, 0] high[0, 1, 1, 0] {
    ^bb0(%arg1: index, %arg2: index, %arg3: index, %arg4: index):
      tensor.yield %c-128_i8 : i8
    } : tensor<?x32x32x16xi8> to tensor<?x33x33x16xi8>
    %42 = tensor.empty(%dim_64) : tensor<?x16x16x32xi32>
    %43 = linalg.generic {indexing_maps = [#map, #map1], iterator_types = ["parallel", "parallel", "parallel", "parallel"]} ins(%c0_i32 : i32) outs(%42 : tensor<?x16x16x32xi32>) {
    ^bb0(%in: i32, %out: i32):
      linalg.yield %in : i32
    } -> tensor<?x16x16x32xi32>
    %44 = tensor.empty(%dim_64) : tensor<?x16x16x32xi32>
    %45 = linalg.generic {indexing_maps = [#map8, #map3, #map4, #map4, #map5], iterator_types = ["parallel", "parallel", "parallel", "parallel", "reduction", "reduction", "reduction"]} ins(%padded_65, %cst_39, %c-128_i32, %c0_i32 : tensor<?x33x33x16xi8>, tensor<32x3x3x16xi8>, i32, i32) outs(%43 : tensor<?x16x16x32xi32>) {
    ^bb0(%in: i8, %in_123: i8, %in_124: i32, %in_125: i32, %out: i32):
      %173 = arith.extsi %in : i8 to i32
      %174 = arith.subi %173, %in_124 : i32
      %175 = arith.extsi %in_123 : i8 to i32
      %176 = arith.subi %175, %in_125 : i32
      %177 = arith.muli %174, %176 : i32
      %178 = arith.addi %out, %177 : i32
      linalg.yield %178 : i32
    } -> tensor<?x16x16x32xi32>
    %46 = linalg.generic {indexing_maps = [#map6, #map1, #map1], iterator_types = ["parallel", "parallel", "parallel", "parallel"]} ins(%cst_38, %45 : tensor<32xi32>, tensor<?x16x16x32xi32>) outs(%44 : tensor<?x16x16x32xi32>) {
    ^bb0(%in: i32, %in_123: i32, %out: i32):
      %173 = arith.addi %in, %in_123 : i32
      linalg.yield %173 : i32
    } -> tensor<?x16x16x32xi32>
    %dim_66 = tensor.dim %46, %c0 : tensor<?x16x16x32xi32>
    %47 = tensor.empty(%dim_66) : tensor<?x16x16x32xi8>
    %48 = linalg.generic {indexing_maps = [#map1, #map6, #map6, #map1], iterator_types = ["parallel", "parallel", "parallel", "parallel"]} ins(%46, %cst_15, %cst_14 : tensor<?x16x16x32xi32>, tensor<32xi32>, tensor<32xi8>) outs(%47 : tensor<?x16x16x32xi8>) {
    ^bb0(%in: i32, %in_123: i32, %in_124: i8, %out: i8):
      %173 = arith.extui %in_124 : i8 to i32
      %174 = arith.extsi %in : i32 to i64
      %175 = arith.extsi %in_123 : i32 to i64
      %176 = arith.muli %174, %175 : i64
      %177 = arith.extui %in_124 : i8 to i64
      %178 = arith.shli %c1_i64, %177 : i64
      %179 = arith.shrui %178, %c1_i64 : i64
      %180 = arith.addi %176, %179 : i64
      %181 = arith.cmpi sge, %in, %c0_i32 : i32
      %182 = arith.select %181, %c1073741824_i64, %c-1073741824_i64 : i64
      %183 = arith.addi %182, %180 : i64
      %184 = arith.cmpi sgt, %173, %c31_i32 : i32
      %185 = arith.select %184, %183, %180 : i64
      %186 = arith.shrsi %185, %177 : i64
      %187 = arith.trunci %186 : i64 to i32
      %188 = arith.addi %187, %c-128_i32 : i32
      %189 = arith.cmpi slt, %188, %c-128_i32 : i32
      %190 = arith.select %189, %c-128_i32, %188 : i32
      %191 = arith.cmpi sgt, %188, %c127_i32 : i32
      %192 = arith.select %191, %c127_i32, %190 : i32
      %193 = arith.trunci %192 : i32 to i8
      linalg.yield %193 : i8
    } -> tensor<?x16x16x32xi8>
    %dim_67 = tensor.dim %48, %c0 : tensor<?x16x16x32xi8>
    %49 = tensor.empty(%dim_67) : tensor<?x16x16x32xi8>
    %50 = linalg.generic {indexing_maps = [#map1, #map1], iterator_types = ["parallel", "parallel", "parallel", "parallel"]} ins(%48 : tensor<?x16x16x32xi8>) outs(%49 : tensor<?x16x16x32xi8>) {
    ^bb0(%in: i8, %out: i8):
      %173 = arith.cmpi slt, %in, %c-128_i8 : i8
      %174 = arith.select %173, %c-128_i8, %in : i8
      %175 = arith.cmpi sgt, %in, %c127_i8 : i8
      %176 = arith.select %175, %c127_i8, %174 : i8
      linalg.yield %176 : i8
    } -> tensor<?x16x16x32xi8>
    %dim_68 = tensor.dim %50, %c0 : tensor<?x16x16x32xi8>
    %padded_69 = tensor.pad %50 low[0, 1, 1, 0] high[0, 1, 1, 0] {
    ^bb0(%arg1: index, %arg2: index, %arg3: index, %arg4: index):
      tensor.yield %c-128_i8 : i8
    } : tensor<?x16x16x32xi8> to tensor<?x18x18x32xi8>
    %51 = tensor.empty(%dim_68) : tensor<?x16x16x32xi32>
    %52 = linalg.generic {indexing_maps = [#map, #map1], iterator_types = ["parallel", "parallel", "parallel", "parallel"]} ins(%c0_i32 : i32) outs(%51 : tensor<?x16x16x32xi32>) {
    ^bb0(%in: i32, %out: i32):
      linalg.yield %in : i32
    } -> tensor<?x16x16x32xi32>
    %53 = tensor.empty(%dim_68) : tensor<?x16x16x32xi32>
    %54 = linalg.generic {indexing_maps = [#map2, #map3, #map4, #map4, #map5], iterator_types = ["parallel", "parallel", "parallel", "parallel", "reduction", "reduction", "reduction"]} ins(%padded_69, %cst_37, %c-128_i32, %c0_i32 : tensor<?x18x18x32xi8>, tensor<32x3x3x32xi8>, i32, i32) outs(%52 : tensor<?x16x16x32xi32>) {
    ^bb0(%in: i8, %in_123: i8, %in_124: i32, %in_125: i32, %out: i32):
      %173 = arith.extsi %in : i8 to i32
      %174 = arith.subi %173, %in_124 : i32
      %175 = arith.extsi %in_123 : i8 to i32
      %176 = arith.subi %175, %in_125 : i32
      %177 = arith.muli %174, %176 : i32
      %178 = arith.addi %out, %177 : i32
      linalg.yield %178 : i32
    } -> tensor<?x16x16x32xi32>
    %55 = linalg.generic {indexing_maps = [#map6, #map1, #map1], iterator_types = ["parallel", "parallel", "parallel", "parallel"]} ins(%cst_36, %54 : tensor<32xi32>, tensor<?x16x16x32xi32>) outs(%53 : tensor<?x16x16x32xi32>) {
    ^bb0(%in: i32, %in_123: i32, %out: i32):
      %173 = arith.addi %in, %in_123 : i32
      linalg.yield %173 : i32
    } -> tensor<?x16x16x32xi32>
    %dim_70 = tensor.dim %55, %c0 : tensor<?x16x16x32xi32>
    %56 = tensor.empty(%dim_70) : tensor<?x16x16x32xi8>
    %57 = linalg.generic {indexing_maps = [#map1, #map6, #map6, #map1], iterator_types = ["parallel", "parallel", "parallel", "parallel"]} ins(%55, %cst_13, %cst_12 : tensor<?x16x16x32xi32>, tensor<32xi32>, tensor<32xi8>) outs(%56 : tensor<?x16x16x32xi8>) {
    ^bb0(%in: i32, %in_123: i32, %in_124: i8, %out: i8):
      %173 = arith.extui %in_124 : i8 to i32
      %174 = arith.extsi %in : i32 to i64
      %175 = arith.extsi %in_123 : i32 to i64
      %176 = arith.muli %174, %175 : i64
      %177 = arith.extui %in_124 : i8 to i64
      %178 = arith.shli %c1_i64, %177 : i64
      %179 = arith.shrui %178, %c1_i64 : i64
      %180 = arith.addi %176, %179 : i64
      %181 = arith.cmpi sge, %in, %c0_i32 : i32
      %182 = arith.select %181, %c1073741824_i64, %c-1073741824_i64 : i64
      %183 = arith.addi %182, %180 : i64
      %184 = arith.cmpi sgt, %173, %c31_i32 : i32
      %185 = arith.select %184, %183, %180 : i64
      %186 = arith.shrsi %185, %177 : i64
      %187 = arith.trunci %186 : i64 to i32
      %188 = arith.addi %187, %c4_i32 : i32
      %189 = arith.cmpi slt, %188, %c-128_i32 : i32
      %190 = arith.select %189, %c-128_i32, %188 : i32
      %191 = arith.cmpi sgt, %188, %c127_i32 : i32
      %192 = arith.select %191, %c127_i32, %190 : i32
      %193 = arith.trunci %192 : i32 to i8
      linalg.yield %193 : i8
    } -> tensor<?x16x16x32xi8>
    %dim_71 = tensor.dim %41, %c0 : tensor<?x32x32x16xi8>
    %58 = tensor.empty(%dim_71) : tensor<?x16x16x32xi32>
    %59 = linalg.generic {indexing_maps = [#map, #map1], iterator_types = ["parallel", "parallel", "parallel", "parallel"]} ins(%c0_i32 : i32) outs(%58 : tensor<?x16x16x32xi32>) {
    ^bb0(%in: i32, %out: i32):
      linalg.yield %in : i32
    } -> tensor<?x16x16x32xi32>
    %60 = tensor.empty(%dim_71) : tensor<?x16x16x32xi32>
    %61 = linalg.generic {indexing_maps = [#map8, #map3, #map4, #map4, #map5], iterator_types = ["parallel", "parallel", "parallel", "parallel", "reduction", "reduction", "reduction"]} ins(%41, %cst_35, %c-128_i32, %c0_i32 : tensor<?x32x32x16xi8>, tensor<32x1x1x16xi8>, i32, i32) outs(%59 : tensor<?x16x16x32xi32>) {
    ^bb0(%in: i8, %in_123: i8, %in_124: i32, %in_125: i32, %out: i32):
      %173 = arith.extsi %in : i8 to i32
      %174 = arith.subi %173, %in_124 : i32
      %175 = arith.extsi %in_123 : i8 to i32
      %176 = arith.subi %175, %in_125 : i32
      %177 = arith.muli %174, %176 : i32
      %178 = arith.addi %out, %177 : i32
      linalg.yield %178 : i32
    } -> tensor<?x16x16x32xi32>
    %62 = linalg.generic {indexing_maps = [#map6, #map1, #map1], iterator_types = ["parallel", "parallel", "parallel", "parallel"]} ins(%cst_34, %61 : tensor<32xi32>, tensor<?x16x16x32xi32>) outs(%60 : tensor<?x16x16x32xi32>) {
    ^bb0(%in: i32, %in_123: i32, %out: i32):
      %173 = arith.addi %in, %in_123 : i32
      linalg.yield %173 : i32
    } -> tensor<?x16x16x32xi32>
    %dim_72 = tensor.dim %62, %c0 : tensor<?x16x16x32xi32>
    %63 = tensor.empty(%dim_72) : tensor<?x16x16x32xi8>
    %64 = linalg.generic {indexing_maps = [#map1, #map6, #map6, #map1], iterator_types = ["parallel", "parallel", "parallel", "parallel"]} ins(%62, %cst_11, %cst_10 : tensor<?x16x16x32xi32>, tensor<32xi32>, tensor<32xi8>) outs(%63 : tensor<?x16x16x32xi8>) {
    ^bb0(%in: i32, %in_123: i32, %in_124: i8, %out: i8):
      %173 = arith.extui %in_124 : i8 to i32
      %174 = arith.extsi %in : i32 to i64
      %175 = arith.extsi %in_123 : i32 to i64
      %176 = arith.muli %174, %175 : i64
      %177 = arith.extui %in_124 : i8 to i64
      %178 = arith.shli %c1_i64, %177 : i64
      %179 = arith.shrui %178, %c1_i64 : i64
      %180 = arith.addi %176, %179 : i64
      %181 = arith.cmpi sge, %in, %c0_i32 : i32
      %182 = arith.select %181, %c1073741824_i64, %c-1073741824_i64 : i64
      %183 = arith.addi %182, %180 : i64
      %184 = arith.cmpi sgt, %173, %c31_i32 : i32
      %185 = arith.select %184, %183, %180 : i64
      %186 = arith.shrsi %185, %177 : i64
      %187 = arith.trunci %186 : i64 to i32
      %188 = arith.addi %187, %c-17_i32 : i32
      %189 = arith.cmpi slt, %188, %c-128_i32 : i32
      %190 = arith.select %189, %c-128_i32, %188 : i32
      %191 = arith.cmpi sgt, %188, %c127_i32 : i32
      %192 = arith.select %191, %c127_i32, %190 : i32
      %193 = arith.trunci %192 : i32 to i8
      linalg.yield %193 : i8
    } -> tensor<?x16x16x32xi8>
    %dim_73 = tensor.dim %64, %c0 : tensor<?x16x16x32xi8>
    %65 = tensor.empty(%dim_73) : tensor<?x16x16x32xi32>
    %66 = linalg.generic {indexing_maps = [#map1, #map1], iterator_types = ["parallel", "parallel", "parallel", "parallel"]} ins(%64 : tensor<?x16x16x32xi8>) outs(%65 : tensor<?x16x16x32xi32>) {
    ^bb0(%in: i8, %out: i32):
      %173 = arith.extsi %in : i8 to i32
      %174 = arith.subi %173, %c-17_i32 : i32
      %175 = arith.extsi %174 : i32 to i64
      %176 = arith.muli %175, %c1073741824_i64 : i64
      %177 = arith.addi %176, %c512_i64 : i64
      %178 = arith.shrsi %177, %c10_i64 : i64
      %179 = arith.trunci %178 : i64 to i32
      %180 = arith.cmpi slt, %179, %c-2147483648_i32 : i32
      %181 = arith.select %180, %c-2147483648_i32, %179 : i32
      %182 = arith.cmpi sgt, %179, %c2147483647_i32 : i32
      %183 = arith.select %182, %c2147483647_i32, %181 : i32
      linalg.yield %183 : i32
    } -> tensor<?x16x16x32xi32>
    %dim_74 = tensor.dim %66, %c0 : tensor<?x16x16x32xi32>
    %67 = tensor.empty(%dim_74) : tensor<?x16x16x32xi32>
    %68 = linalg.generic {indexing_maps = [#map1, #map1], iterator_types = ["parallel", "parallel", "parallel", "parallel"]} ins(%66 : tensor<?x16x16x32xi32>) outs(%67 : tensor<?x16x16x32xi32>) {
    ^bb0(%in: i32, %out: i32):
      %173 = arith.extsi %in : i32 to i64
      %174 = arith.muli %173, %c1699529983_i64 : i64
      %175 = arith.addi %174, %c4294967296_i64 : i64
      %176 = arith.cmpi sge, %in, %c0_i32 : i32
      %177 = arith.select %176, %c1073741824_i64, %c-1073741824_i64 : i64
      %178 = arith.addi %177, %175 : i64
      %179 = arith.shrsi %178, %c33_i64 : i64
      %180 = arith.trunci %179 : i64 to i32
      %181 = arith.cmpi slt, %180, %c-2147483648_i32 : i32
      %182 = arith.select %181, %c-2147483648_i32, %180 : i32
      %183 = arith.cmpi sgt, %180, %c2147483647_i32 : i32
      %184 = arith.select %183, %c2147483647_i32, %182 : i32
      linalg.yield %184 : i32
    } -> tensor<?x16x16x32xi32>
    %dim_75 = tensor.dim %57, %c0 : tensor<?x16x16x32xi8>
    %69 = tensor.empty(%dim_75) : tensor<?x16x16x32xi32>
    %70 = linalg.generic {indexing_maps = [#map1, #map1], iterator_types = ["parallel", "parallel", "parallel", "parallel"]} ins(%57 : tensor<?x16x16x32xi8>) outs(%69 : tensor<?x16x16x32xi32>) {
    ^bb0(%in: i8, %out: i32):
      %173 = arith.extsi %in : i8 to i32
      %174 = arith.subi %173, %c4_i32 : i32
      %175 = arith.extsi %174 : i32 to i64
      %176 = arith.muli %175, %c1073741824_i64 : i64
      %177 = arith.addi %176, %c1024_i64 : i64
      %178 = arith.shrsi %177, %c11_i64 : i64
      %179 = arith.trunci %178 : i64 to i32
      %180 = arith.cmpi slt, %179, %c-2147483648_i32 : i32
      %181 = arith.select %180, %c-2147483648_i32, %179 : i32
      %182 = arith.cmpi sgt, %179, %c2147483647_i32 : i32
      %183 = arith.select %182, %c2147483647_i32, %181 : i32
      linalg.yield %183 : i32
    } -> tensor<?x16x16x32xi32>
    %dim_76 = tensor.dim %68, %c0 : tensor<?x16x16x32xi32>
    %dim_77 = tensor.dim %70, %c0 : tensor<?x16x16x32xi32>
    %71 = arith.maxui %dim_76, %dim_77 : index
    %dim_78 = tensor.dim %68, %c0 : tensor<?x16x16x32xi32>
    %72 = arith.cmpi eq, %dim_78, %c1 : index
    %73 = scf.if %72 -> (tensor<?x16x16x32xi32>) {
      %173 = tensor.empty(%71) : tensor<?x16x16x32xi32>
      %174 = linalg.generic {indexing_maps = [#map7, #map1], iterator_types = ["parallel", "parallel", "parallel", "parallel"]} ins(%68 : tensor<?x16x16x32xi32>) outs(%173 : tensor<?x16x16x32xi32>) {
      ^bb0(%in: i32, %out: i32):
        linalg.yield %in : i32
      } -> tensor<?x16x16x32xi32>
      scf.yield %174 : tensor<?x16x16x32xi32>
    } else {
      scf.yield %68 : tensor<?x16x16x32xi32>
    }
    %dim_79 = tensor.dim %70, %c0 : tensor<?x16x16x32xi32>
    %74 = arith.cmpi eq, %dim_79, %c1 : index
    %75 = scf.if %74 -> (tensor<?x16x16x32xi32>) {
      %173 = tensor.empty(%71) : tensor<?x16x16x32xi32>
      %174 = linalg.generic {indexing_maps = [#map7, #map1], iterator_types = ["parallel", "parallel", "parallel", "parallel"]} ins(%70 : tensor<?x16x16x32xi32>) outs(%173 : tensor<?x16x16x32xi32>) {
      ^bb0(%in: i32, %out: i32):
        linalg.yield %in : i32
      } -> tensor<?x16x16x32xi32>
      scf.yield %174 : tensor<?x16x16x32xi32>
    } else {
      scf.yield %70 : tensor<?x16x16x32xi32>
    }
    %76 = tensor.empty(%71) : tensor<?x16x16x32xi32>
    %77 = linalg.generic {indexing_maps = [#map1, #map1, #map1], iterator_types = ["parallel", "parallel", "parallel", "parallel"]} ins(%73, %75 : tensor<?x16x16x32xi32>, tensor<?x16x16x32xi32>) outs(%76 : tensor<?x16x16x32xi32>) {
    ^bb0(%in: i32, %in_123: i32, %out: i32):
      %173 = arith.addi %in, %in_123 : i32
      linalg.yield %173 : i32
    } -> tensor<?x16x16x32xi32>
    %dim_80 = tensor.dim %77, %c0 : tensor<?x16x16x32xi32>
    %78 = tensor.empty(%dim_80) : tensor<?x16x16x32xi8>
    %79 = linalg.generic {indexing_maps = [#map1, #map1], iterator_types = ["parallel", "parallel", "parallel", "parallel"]} ins(%77 : tensor<?x16x16x32xi32>) outs(%78 : tensor<?x16x16x32xi8>) {
    ^bb0(%in: i32, %out: i8):
      %173 = arith.extsi %in : i32 to i64
      %174 = arith.muli %173, %c1140768826_i64 : i64
      %175 = arith.addi %174, %c140737488355328_i64 : i64
      %176 = arith.cmpi sge, %in, %c0_i32 : i32
      %177 = arith.select %176, %c1073741824_i64, %c-1073741824_i64 : i64
      %178 = arith.addi %177, %175 : i64
      %179 = arith.shrsi %178, %c48_i64 : i64
      %180 = arith.trunci %179 : i64 to i32
      %181 = arith.addi %180, %c-128_i32 : i32
      %182 = arith.cmpi slt, %181, %c-128_i32 : i32
      %183 = arith.select %182, %c-128_i32, %181 : i32
      %184 = arith.cmpi sgt, %181, %c127_i32 : i32
      %185 = arith.select %184, %c127_i32, %183 : i32
      %186 = arith.trunci %185 : i32 to i8
      linalg.yield %186 : i8
    } -> tensor<?x16x16x32xi8>
    %dim_81 = tensor.dim %79, %c0 : tensor<?x16x16x32xi8>
    %80 = tensor.empty(%dim_81) : tensor<?x16x16x32xi8>
    %81 = linalg.generic {indexing_maps = [#map1, #map1], iterator_types = ["parallel", "parallel", "parallel", "parallel"]} ins(%79 : tensor<?x16x16x32xi8>) outs(%80 : tensor<?x16x16x32xi8>) {
    ^bb0(%in: i8, %out: i8):
      %173 = arith.cmpi slt, %in, %c-128_i8 : i8
      %174 = arith.select %173, %c-128_i8, %in : i8
      %175 = arith.cmpi sgt, %in, %c127_i8 : i8
      %176 = arith.select %175, %c127_i8, %174 : i8
      linalg.yield %176 : i8
    } -> tensor<?x16x16x32xi8>
    %dim_82 = tensor.dim %81, %c0 : tensor<?x16x16x32xi8>
    %padded_83 = tensor.pad %81 low[0, 0, 0, 0] high[0, 1, 1, 0] {
    ^bb0(%arg1: index, %arg2: index, %arg3: index, %arg4: index):
      tensor.yield %c-128_i8 : i8
    } : tensor<?x16x16x32xi8> to tensor<?x17x17x32xi8>
    %82 = tensor.empty(%dim_82) : tensor<?x8x8x64xi32>
    %83 = linalg.generic {indexing_maps = [#map, #map1], iterator_types = ["parallel", "parallel", "parallel", "parallel"]} ins(%c0_i32 : i32) outs(%82 : tensor<?x8x8x64xi32>) {
    ^bb0(%in: i32, %out: i32):
      linalg.yield %in : i32
    } -> tensor<?x8x8x64xi32>
    %84 = tensor.empty(%dim_82) : tensor<?x8x8x64xi32>
    %85 = linalg.generic {indexing_maps = [#map8, #map3, #map4, #map4, #map5], iterator_types = ["parallel", "parallel", "parallel", "parallel", "reduction", "reduction", "reduction"]} ins(%padded_83, %cst_33, %c-128_i32, %c0_i32 : tensor<?x17x17x32xi8>, tensor<64x3x3x32xi8>, i32, i32) outs(%83 : tensor<?x8x8x64xi32>) {
    ^bb0(%in: i8, %in_123: i8, %in_124: i32, %in_125: i32, %out: i32):
      %173 = arith.extsi %in : i8 to i32
      %174 = arith.subi %173, %in_124 : i32
      %175 = arith.extsi %in_123 : i8 to i32
      %176 = arith.subi %175, %in_125 : i32
      %177 = arith.muli %174, %176 : i32
      %178 = arith.addi %out, %177 : i32
      linalg.yield %178 : i32
    } -> tensor<?x8x8x64xi32>
    %86 = linalg.generic {indexing_maps = [#map6, #map1, #map1], iterator_types = ["parallel", "parallel", "parallel", "parallel"]} ins(%cst_32, %85 : tensor<64xi32>, tensor<?x8x8x64xi32>) outs(%84 : tensor<?x8x8x64xi32>) {
    ^bb0(%in: i32, %in_123: i32, %out: i32):
      %173 = arith.addi %in, %in_123 : i32
      linalg.yield %173 : i32
    } -> tensor<?x8x8x64xi32>
    %dim_84 = tensor.dim %86, %c0 : tensor<?x8x8x64xi32>
    %87 = tensor.empty(%dim_84) : tensor<?x8x8x64xi8>
    %88 = linalg.generic {indexing_maps = [#map1, #map6, #map6, #map1], iterator_types = ["parallel", "parallel", "parallel", "parallel"]} ins(%86, %cst_9, %cst_8 : tensor<?x8x8x64xi32>, tensor<64xi32>, tensor<64xi8>) outs(%87 : tensor<?x8x8x64xi8>) {
    ^bb0(%in: i32, %in_123: i32, %in_124: i8, %out: i8):
      %173 = arith.extui %in_124 : i8 to i32
      %174 = arith.extsi %in : i32 to i64
      %175 = arith.extsi %in_123 : i32 to i64
      %176 = arith.muli %174, %175 : i64
      %177 = arith.extui %in_124 : i8 to i64
      %178 = arith.shli %c1_i64, %177 : i64
      %179 = arith.shrui %178, %c1_i64 : i64
      %180 = arith.addi %176, %179 : i64
      %181 = arith.cmpi sge, %in, %c0_i32 : i32
      %182 = arith.select %181, %c1073741824_i64, %c-1073741824_i64 : i64
      %183 = arith.addi %182, %180 : i64
      %184 = arith.cmpi sgt, %173, %c31_i32 : i32
      %185 = arith.select %184, %183, %180 : i64
      %186 = arith.shrsi %185, %177 : i64
      %187 = arith.trunci %186 : i64 to i32
      %188 = arith.addi %187, %c-128_i32 : i32
      %189 = arith.cmpi slt, %188, %c-128_i32 : i32
      %190 = arith.select %189, %c-128_i32, %188 : i32
      %191 = arith.cmpi sgt, %188, %c127_i32 : i32
      %192 = arith.select %191, %c127_i32, %190 : i32
      %193 = arith.trunci %192 : i32 to i8
      linalg.yield %193 : i8
    } -> tensor<?x8x8x64xi8>
    %dim_85 = tensor.dim %88, %c0 : tensor<?x8x8x64xi8>
    %89 = tensor.empty(%dim_85) : tensor<?x8x8x64xi8>
    %90 = linalg.generic {indexing_maps = [#map1, #map1], iterator_types = ["parallel", "parallel", "parallel", "parallel"]} ins(%88 : tensor<?x8x8x64xi8>) outs(%89 : tensor<?x8x8x64xi8>) {
    ^bb0(%in: i8, %out: i8):
      %173 = arith.cmpi slt, %in, %c-128_i8 : i8
      %174 = arith.select %173, %c-128_i8, %in : i8
      %175 = arith.cmpi sgt, %in, %c127_i8 : i8
      %176 = arith.select %175, %c127_i8, %174 : i8
      linalg.yield %176 : i8
    } -> tensor<?x8x8x64xi8>
    %dim_86 = tensor.dim %90, %c0 : tensor<?x8x8x64xi8>
    %padded_87 = tensor.pad %90 low[0, 1, 1, 0] high[0, 1, 1, 0] {
    ^bb0(%arg1: index, %arg2: index, %arg3: index, %arg4: index):
      tensor.yield %c-128_i8 : i8
    } : tensor<?x8x8x64xi8> to tensor<?x10x10x64xi8>
    %91 = tensor.empty(%dim_86) : tensor<?x8x8x64xi32>
    %92 = linalg.generic {indexing_maps = [#map, #map1], iterator_types = ["parallel", "parallel", "parallel", "parallel"]} ins(%c0_i32 : i32) outs(%91 : tensor<?x8x8x64xi32>) {
    ^bb0(%in: i32, %out: i32):
      linalg.yield %in : i32
    } -> tensor<?x8x8x64xi32>
    %93 = tensor.empty(%dim_86) : tensor<?x8x8x64xi32>
    %94 = linalg.generic {indexing_maps = [#map2, #map3, #map4, #map4, #map5], iterator_types = ["parallel", "parallel", "parallel", "parallel", "reduction", "reduction", "reduction"]} ins(%padded_87, %cst_31, %c-128_i32, %c0_i32 : tensor<?x10x10x64xi8>, tensor<64x3x3x64xi8>, i32, i32) outs(%92 : tensor<?x8x8x64xi32>) {
    ^bb0(%in: i8, %in_123: i8, %in_124: i32, %in_125: i32, %out: i32):
      %173 = arith.extsi %in : i8 to i32
      %174 = arith.subi %173, %in_124 : i32
      %175 = arith.extsi %in_123 : i8 to i32
      %176 = arith.subi %175, %in_125 : i32
      %177 = arith.muli %174, %176 : i32
      %178 = arith.addi %out, %177 : i32
      linalg.yield %178 : i32
    } -> tensor<?x8x8x64xi32>
    %95 = linalg.generic {indexing_maps = [#map6, #map1, #map1], iterator_types = ["parallel", "parallel", "parallel", "parallel"]} ins(%cst_30, %94 : tensor<64xi32>, tensor<?x8x8x64xi32>) outs(%93 : tensor<?x8x8x64xi32>) {
    ^bb0(%in: i32, %in_123: i32, %out: i32):
      %173 = arith.addi %in, %in_123 : i32
      linalg.yield %173 : i32
    } -> tensor<?x8x8x64xi32>
    %dim_88 = tensor.dim %95, %c0 : tensor<?x8x8x64xi32>
    %96 = tensor.empty(%dim_88) : tensor<?x8x8x64xi8>
    %97 = linalg.generic {indexing_maps = [#map1, #map6, #map6, #map1], iterator_types = ["parallel", "parallel", "parallel", "parallel"]} ins(%95, %cst_7, %cst_6 : tensor<?x8x8x64xi32>, tensor<64xi32>, tensor<64xi8>) outs(%96 : tensor<?x8x8x64xi8>) {
    ^bb0(%in: i32, %in_123: i32, %in_124: i8, %out: i8):
      %173 = arith.extui %in_124 : i8 to i32
      %174 = arith.extsi %in : i32 to i64
      %175 = arith.extsi %in_123 : i32 to i64
      %176 = arith.muli %174, %175 : i64
      %177 = arith.extui %in_124 : i8 to i64
      %178 = arith.shli %c1_i64, %177 : i64
      %179 = arith.shrui %178, %c1_i64 : i64
      %180 = arith.addi %176, %179 : i64
      %181 = arith.cmpi sge, %in, %c0_i32 : i32
      %182 = arith.select %181, %c1073741824_i64, %c-1073741824_i64 : i64
      %183 = arith.addi %182, %180 : i64
      %184 = arith.cmpi sgt, %173, %c31_i32 : i32
      %185 = arith.select %184, %183, %180 : i64
      %186 = arith.shrsi %185, %177 : i64
      %187 = arith.trunci %186 : i64 to i32
      %188 = arith.addi %187, %c-2_i32 : i32
      %189 = arith.cmpi slt, %188, %c-128_i32 : i32
      %190 = arith.select %189, %c-128_i32, %188 : i32
      %191 = arith.cmpi sgt, %188, %c127_i32 : i32
      %192 = arith.select %191, %c127_i32, %190 : i32
      %193 = arith.trunci %192 : i32 to i8
      linalg.yield %193 : i8
    } -> tensor<?x8x8x64xi8>
    %dim_89 = tensor.dim %81, %c0 : tensor<?x16x16x32xi8>
    %98 = tensor.empty(%dim_89) : tensor<?x8x8x64xi32>
    %99 = linalg.generic {indexing_maps = [#map, #map1], iterator_types = ["parallel", "parallel", "parallel", "parallel"]} ins(%c0_i32 : i32) outs(%98 : tensor<?x8x8x64xi32>) {
    ^bb0(%in: i32, %out: i32):
      linalg.yield %in : i32
    } -> tensor<?x8x8x64xi32>
    %100 = tensor.empty(%dim_89) : tensor<?x8x8x64xi32>
    %101 = linalg.generic {indexing_maps = [#map8, #map3, #map4, #map4, #map5], iterator_types = ["parallel", "parallel", "parallel", "parallel", "reduction", "reduction", "reduction"]} ins(%81, %cst_29, %c-128_i32, %c0_i32 : tensor<?x16x16x32xi8>, tensor<64x1x1x32xi8>, i32, i32) outs(%99 : tensor<?x8x8x64xi32>) {
    ^bb0(%in: i8, %in_123: i8, %in_124: i32, %in_125: i32, %out: i32):
      %173 = arith.extsi %in : i8 to i32
      %174 = arith.subi %173, %in_124 : i32
      %175 = arith.extsi %in_123 : i8 to i32
      %176 = arith.subi %175, %in_125 : i32
      %177 = arith.muli %174, %176 : i32
      %178 = arith.addi %out, %177 : i32
      linalg.yield %178 : i32
    } -> tensor<?x8x8x64xi32>
    %102 = linalg.generic {indexing_maps = [#map6, #map1, #map1], iterator_types = ["parallel", "parallel", "parallel", "parallel"]} ins(%cst_28, %101 : tensor<64xi32>, tensor<?x8x8x64xi32>) outs(%100 : tensor<?x8x8x64xi32>) {
    ^bb0(%in: i32, %in_123: i32, %out: i32):
      %173 = arith.addi %in, %in_123 : i32
      linalg.yield %173 : i32
    } -> tensor<?x8x8x64xi32>
    %dim_90 = tensor.dim %102, %c0 : tensor<?x8x8x64xi32>
    %103 = tensor.empty(%dim_90) : tensor<?x8x8x64xi8>
    %104 = linalg.generic {indexing_maps = [#map1, #map6, #map6, #map1], iterator_types = ["parallel", "parallel", "parallel", "parallel"]} ins(%102, %cst_5, %cst_4 : tensor<?x8x8x64xi32>, tensor<64xi32>, tensor<64xi8>) outs(%103 : tensor<?x8x8x64xi8>) {
    ^bb0(%in: i32, %in_123: i32, %in_124: i8, %out: i8):
      %173 = arith.extui %in_124 : i8 to i32
      %174 = arith.extsi %in : i32 to i64
      %175 = arith.extsi %in_123 : i32 to i64
      %176 = arith.muli %174, %175 : i64
      %177 = arith.extui %in_124 : i8 to i64
      %178 = arith.shli %c1_i64, %177 : i64
      %179 = arith.shrui %178, %c1_i64 : i64
      %180 = arith.addi %176, %179 : i64
      %181 = arith.cmpi sge, %in, %c0_i32 : i32
      %182 = arith.select %181, %c1073741824_i64, %c-1073741824_i64 : i64
      %183 = arith.addi %182, %180 : i64
      %184 = arith.cmpi sgt, %173, %c31_i32 : i32
      %185 = arith.select %184, %183, %180 : i64
      %186 = arith.shrsi %185, %177 : i64
      %187 = arith.trunci %186 : i64 to i32
      %188 = arith.addi %187, %c38_i32 : i32
      %189 = arith.cmpi slt, %188, %c-128_i32 : i32
      %190 = arith.select %189, %c-128_i32, %188 : i32
      %191 = arith.cmpi sgt, %188, %c127_i32 : i32
      %192 = arith.select %191, %c127_i32, %190 : i32
      %193 = arith.trunci %192 : i32 to i8
      linalg.yield %193 : i8
    } -> tensor<?x8x8x64xi8>
    %dim_91 = tensor.dim %104, %c0 : tensor<?x8x8x64xi8>
    %105 = tensor.empty(%dim_91) : tensor<?x8x8x64xi32>
    %106 = linalg.generic {indexing_maps = [#map1, #map1], iterator_types = ["parallel", "parallel", "parallel", "parallel"]} ins(%104 : tensor<?x8x8x64xi8>) outs(%105 : tensor<?x8x8x64xi32>) {
    ^bb0(%in: i8, %out: i32):
      %173 = arith.extsi %in : i8 to i32
      %174 = arith.subi %173, %c38_i32 : i32
      %175 = arith.extsi %174 : i32 to i64
      %176 = arith.muli %175, %c1073741824_i64 : i64
      %177 = arith.addi %176, %c512_i64 : i64
      %178 = arith.shrsi %177, %c10_i64 : i64
      %179 = arith.trunci %178 : i64 to i32
      %180 = arith.cmpi slt, %179, %c-2147483648_i32 : i32
      %181 = arith.select %180, %c-2147483648_i32, %179 : i32
      %182 = arith.cmpi sgt, %179, %c2147483647_i32 : i32
      %183 = arith.select %182, %c2147483647_i32, %181 : i32
      linalg.yield %183 : i32
    } -> tensor<?x8x8x64xi32>
    %dim_92 = tensor.dim %106, %c0 : tensor<?x8x8x64xi32>
    %107 = tensor.empty(%dim_92) : tensor<?x8x8x64xi32>
    %108 = linalg.generic {indexing_maps = [#map1, #map1], iterator_types = ["parallel", "parallel", "parallel", "parallel"]} ins(%106 : tensor<?x8x8x64xi32>) outs(%107 : tensor<?x8x8x64xi32>) {
    ^bb0(%in: i32, %out: i32):
      %173 = arith.extsi %in : i32 to i64
      %174 = arith.muli %173, %c1657902019_i64 : i64
      %175 = arith.addi %174, %c4294967296_i64 : i64
      %176 = arith.cmpi sge, %in, %c0_i32 : i32
      %177 = arith.select %176, %c1073741824_i64, %c-1073741824_i64 : i64
      %178 = arith.addi %177, %175 : i64
      %179 = arith.shrsi %178, %c33_i64 : i64
      %180 = arith.trunci %179 : i64 to i32
      %181 = arith.cmpi slt, %180, %c-2147483648_i32 : i32
      %182 = arith.select %181, %c-2147483648_i32, %180 : i32
      %183 = arith.cmpi sgt, %180, %c2147483647_i32 : i32
      %184 = arith.select %183, %c2147483647_i32, %182 : i32
      linalg.yield %184 : i32
    } -> tensor<?x8x8x64xi32>
    %dim_93 = tensor.dim %97, %c0 : tensor<?x8x8x64xi8>
    %109 = tensor.empty(%dim_93) : tensor<?x8x8x64xi32>
    %110 = linalg.generic {indexing_maps = [#map1, #map1], iterator_types = ["parallel", "parallel", "parallel", "parallel"]} ins(%97 : tensor<?x8x8x64xi8>) outs(%109 : tensor<?x8x8x64xi32>) {
    ^bb0(%in: i8, %out: i32):
      %173 = arith.extsi %in : i8 to i32
      %174 = arith.subi %173, %c-2_i32 : i32
      %175 = arith.extsi %174 : i32 to i64
      %176 = arith.muli %175, %c1073741824_i64 : i64
      %177 = arith.addi %176, %c1024_i64 : i64
      %178 = arith.shrsi %177, %c11_i64 : i64
      %179 = arith.trunci %178 : i64 to i32
      %180 = arith.cmpi slt, %179, %c-2147483648_i32 : i32
      %181 = arith.select %180, %c-2147483648_i32, %179 : i32
      %182 = arith.cmpi sgt, %179, %c2147483647_i32 : i32
      %183 = arith.select %182, %c2147483647_i32, %181 : i32
      linalg.yield %183 : i32
    } -> tensor<?x8x8x64xi32>
    %dim_94 = tensor.dim %108, %c0 : tensor<?x8x8x64xi32>
    %dim_95 = tensor.dim %110, %c0 : tensor<?x8x8x64xi32>
    %111 = arith.maxui %dim_94, %dim_95 : index
    %dim_96 = tensor.dim %108, %c0 : tensor<?x8x8x64xi32>
    %112 = arith.cmpi eq, %dim_96, %c1 : index
    %113 = scf.if %112 -> (tensor<?x8x8x64xi32>) {
      %173 = tensor.empty(%111) : tensor<?x8x8x64xi32>
      %174 = linalg.generic {indexing_maps = [#map7, #map1], iterator_types = ["parallel", "parallel", "parallel", "parallel"]} ins(%108 : tensor<?x8x8x64xi32>) outs(%173 : tensor<?x8x8x64xi32>) {
      ^bb0(%in: i32, %out: i32):
        linalg.yield %in : i32
      } -> tensor<?x8x8x64xi32>
      scf.yield %174 : tensor<?x8x8x64xi32>
    } else {
      scf.yield %108 : tensor<?x8x8x64xi32>
    }
    %dim_97 = tensor.dim %110, %c0 : tensor<?x8x8x64xi32>
    %114 = arith.cmpi eq, %dim_97, %c1 : index
    %115 = scf.if %114 -> (tensor<?x8x8x64xi32>) {
      %173 = tensor.empty(%111) : tensor<?x8x8x64xi32>
      %174 = linalg.generic {indexing_maps = [#map7, #map1], iterator_types = ["parallel", "parallel", "parallel", "parallel"]} ins(%110 : tensor<?x8x8x64xi32>) outs(%173 : tensor<?x8x8x64xi32>) {
      ^bb0(%in: i32, %out: i32):
        linalg.yield %in : i32
      } -> tensor<?x8x8x64xi32>
      scf.yield %174 : tensor<?x8x8x64xi32>
    } else {
      scf.yield %110 : tensor<?x8x8x64xi32>
    }
    %116 = tensor.empty(%111) : tensor<?x8x8x64xi32>
    %117 = linalg.generic {indexing_maps = [#map1, #map1, #map1], iterator_types = ["parallel", "parallel", "parallel", "parallel"]} ins(%113, %115 : tensor<?x8x8x64xi32>, tensor<?x8x8x64xi32>) outs(%116 : tensor<?x8x8x64xi32>) {
    ^bb0(%in: i32, %in_123: i32, %out: i32):
      %173 = arith.addi %in, %in_123 : i32
      linalg.yield %173 : i32
    } -> tensor<?x8x8x64xi32>
    %dim_98 = tensor.dim %117, %c0 : tensor<?x8x8x64xi32>
    %118 = tensor.empty(%dim_98) : tensor<?x8x8x64xi8>
    %119 = linalg.generic {indexing_maps = [#map1, #map1], iterator_types = ["parallel", "parallel", "parallel", "parallel"]} ins(%117 : tensor<?x8x8x64xi32>) outs(%118 : tensor<?x8x8x64xi8>) {
    ^bb0(%in: i32, %out: i8):
      %173 = arith.extsi %in : i32 to i64
      %174 = arith.muli %173, %c1835721671_i64 : i64
      %175 = arith.addi %174, %c281474976710656_i64 : i64
      %176 = arith.cmpi sge, %in, %c0_i32 : i32
      %177 = arith.select %176, %c1073741824_i64, %c-1073741824_i64 : i64
      %178 = arith.addi %177, %175 : i64
      %179 = arith.shrsi %178, %c49_i64 : i64
      %180 = arith.trunci %179 : i64 to i32
      %181 = arith.addi %180, %c-128_i32 : i32
      %182 = arith.cmpi slt, %181, %c-128_i32 : i32
      %183 = arith.select %182, %c-128_i32, %181 : i32
      %184 = arith.cmpi sgt, %181, %c127_i32 : i32
      %185 = arith.select %184, %c127_i32, %183 : i32
      %186 = arith.trunci %185 : i32 to i8
      linalg.yield %186 : i8
    } -> tensor<?x8x8x64xi8>
    %dim_99 = tensor.dim %119, %c0 : tensor<?x8x8x64xi8>
    %120 = tensor.empty(%dim_99) : tensor<?x8x8x64xi8>
    %121 = linalg.generic {indexing_maps = [#map1, #map1], iterator_types = ["parallel", "parallel", "parallel", "parallel"]} ins(%119 : tensor<?x8x8x64xi8>) outs(%120 : tensor<?x8x8x64xi8>) {
    ^bb0(%in: i8, %out: i8):
      %173 = arith.cmpi slt, %in, %c-128_i8 : i8
      %174 = arith.select %173, %c-128_i8, %in : i8
      %175 = arith.cmpi sgt, %in, %c127_i8 : i8
      %176 = arith.select %175, %c127_i8, %174 : i8
      linalg.yield %176 : i8
    } -> tensor<?x8x8x64xi8>
    %dim_100 = tensor.dim %121, %c0 : tensor<?x8x8x64xi8>
    %122 = tensor.empty(%dim_100) : tensor<?x1x1x64xi32>
    %123 = linalg.generic {indexing_maps = [#map, #map1], iterator_types = ["parallel", "parallel", "parallel", "parallel"]} ins(%c0_i32 : i32) outs(%122 : tensor<?x1x1x64xi32>) {
    ^bb0(%in: i32, %out: i32):
      linalg.yield %in : i32
    } -> tensor<?x1x1x64xi32>
    %124 = tensor.empty() : tensor<8x8xi32>
    %125 = linalg.generic {indexing_maps = [#map9, #map10, #map11], iterator_types = ["parallel", "parallel", "parallel", "parallel", "reduction", "reduction"]} ins(%121, %124 : tensor<?x8x8x64xi8>, tensor<8x8xi32>) outs(%123 : tensor<?x1x1x64xi32>) {
    ^bb0(%in: i8, %in_123: i32, %out: i32):
      %173 = arith.extsi %in : i8 to i32
      %174 = arith.addi %out, %173 : i32
      linalg.yield %174 : i32
    } -> tensor<?x1x1x64xi32>
    %126 = tensor.empty(%dim_100) : tensor<?x1x1x64xi8>
    %127 = linalg.generic {indexing_maps = [#map1, #map1], iterator_types = ["parallel", "parallel", "parallel", "parallel"]} ins(%125 : tensor<?x1x1x64xi32>) outs(%126 : tensor<?x1x1x64xi8>) {
    ^bb0(%in: i32, %out: i8):
      %173 = arith.extsi %in : i32 to i64
      %174 = arith.muli %173, %c1073741825_i64 : i64
      %175 = arith.addi %174, %c34359738368_i64 : i64
      %176 = arith.shrsi %175, %c36_i64 : i64
      %177 = arith.trunci %176 : i64 to i32
      %178 = arith.cmpi slt, %177, %c-128_i32 : i32
      %179 = arith.select %178, %c-128_i32, %177 : i32
      %180 = arith.cmpi sgt, %177, %c127_i32 : i32
      %181 = arith.select %180, %c127_i32, %179 : i32
      %182 = arith.trunci %181 : i32 to i8
      linalg.yield %182 : i8
    } -> tensor<?x1x1x64xi8>
    %collapsed = tensor.collapse_shape %127 [[0, 1, 2, 3]] : tensor<?x1x1x64xi8> into tensor<?xi8>
    %expanded = tensor.expand_shape %collapsed [[0, 1]] : tensor<?xi8> into tensor<?x64xi8>
    %dim_101 = tensor.dim %expanded, %c0 : tensor<?x64xi8>
    %128 = tensor.empty(%dim_101) : tensor<?x10xi32>
    %129 = linalg.generic {indexing_maps = [#map12, #map13], iterator_types = ["parallel", "parallel"]} ins(%c0_i32 : i32) outs(%128 : tensor<?x10xi32>) {
    ^bb0(%in: i32, %out: i32):
      linalg.yield %in : i32
    } -> tensor<?x10xi32>
    %130 = tensor.empty() : tensor<64x10xi8>
    %131 = linalg.generic {indexing_maps = [#map14, #map13], iterator_types = ["parallel", "parallel"]} ins(%cst_27 : tensor<10x64xi8>) outs(%130 : tensor<64x10xi8>) {
    ^bb0(%in: i8, %out: i8):
      linalg.yield %in : i8
    } -> tensor<64x10xi8>
    %132 = tensor.empty(%dim_101) : tensor<?x10xi32>
    %133 = linalg.generic {indexing_maps = [#map15, #map16, #map17, #map17, #map18], iterator_types = ["parallel", "parallel", "reduction"]} ins(%expanded, %131, %c-128_i32, %c0_i32 : tensor<?x64xi8>, tensor<64x10xi8>, i32, i32) outs(%129 : tensor<?x10xi32>) {
    ^bb0(%in: i8, %in_123: i8, %in_124: i32, %in_125: i32, %out: i32):
      %173 = arith.extsi %in : i8 to i32
      %174 = arith.subi %173, %in_124 : i32
      %175 = arith.extsi %in_123 : i8 to i32
      %176 = arith.subi %175, %in_125 : i32
      %177 = arith.muli %174, %176 : i32
      %178 = arith.addi %out, %177 : i32
      linalg.yield %178 : i32
    } -> tensor<?x10xi32>
    %134 = linalg.generic {indexing_maps = [#map19, #map13, #map13], iterator_types = ["parallel", "parallel"]} ins(%cst_26, %133 : tensor<10xi32>, tensor<?x10xi32>) outs(%132 : tensor<?x10xi32>) {
    ^bb0(%in: i32, %in_123: i32, %out: i32):
      %173 = arith.addi %in, %in_123 : i32
      linalg.yield %173 : i32
    } -> tensor<?x10xi32>
    %dim_102 = tensor.dim %134, %c0 : tensor<?x10xi32>
    %135 = tensor.empty(%dim_102) : tensor<?x10xi8>
    %136 = linalg.generic {indexing_maps = [#map13, #map13], iterator_types = ["parallel", "parallel"]} ins(%134 : tensor<?x10xi32>) outs(%135 : tensor<?x10xi8>) {
    ^bb0(%in: i32, %out: i8):
      %173 = arith.extsi %in : i32 to i64
      %174 = arith.muli %173, %c1552512760_i64 : i64
      %175 = arith.addi %174, %c34359738368_i64 : i64
      %176 = arith.cmpi sge, %in, %c0_i32 : i32
      %177 = arith.select %176, %c1073741824_i64, %c-1073741824_i64 : i64
      %178 = arith.addi %177, %175 : i64
      %179 = arith.shrsi %178, %c36_i64 : i64
      %180 = arith.trunci %179 : i64 to i32
      %181 = arith.addi %180, %c24_i32 : i32
      %182 = arith.cmpi slt, %181, %c-128_i32 : i32
      %183 = arith.select %182, %c-128_i32, %181 : i32
      %184 = arith.cmpi sgt, %181, %c127_i32 : i32
      %185 = arith.select %184, %c127_i32, %183 : i32
      %186 = arith.trunci %185 : i32 to i8
      linalg.yield %186 : i8
    } -> tensor<?x10xi8>
    %dim_103 = tensor.dim %136, %c0 : tensor<?x10xi8>
    %137 = tensor.empty(%dim_103) : tensor<?x10xf32>
    %138 = linalg.generic {indexing_maps = [#map13, #map13], iterator_types = ["parallel", "parallel"]} ins(%136 : tensor<?x10xi8>) outs(%137 : tensor<?x10xf32>) {
    ^bb0(%in: i8, %out: f32):
      %173 = arith.sitofp %in : i8 to f32
      linalg.yield %173 : f32
    } -> tensor<?x10xf32>
    %dim_104 = tensor.dim %138, %c0 : tensor<?x10xf32>
    %139 = tensor.empty(%dim_104) : tensor<?x10xf32>
    %140 = linalg.generic {indexing_maps = [#map13, #map20, #map13], iterator_types = ["parallel", "parallel"]} ins(%138, %cst_22 : tensor<?x10xf32>, tensor<1x1xf32>) outs(%139 : tensor<?x10xf32>) {
    ^bb0(%in: f32, %in_123: f32, %out: f32):
      %173 = arith.subf %in, %in_123 : f32
      linalg.yield %173 : f32
    } -> tensor<?x10xf32>
    %dim_105 = tensor.dim %140, %c0 : tensor<?x10xf32>
    %141 = tensor.empty(%dim_105) : tensor<?x10xf32>
    %142 = linalg.generic {indexing_maps = [#map13, #map20, #map13], iterator_types = ["parallel", "parallel"]} ins(%140, %cst_23 : tensor<?x10xf32>, tensor<1x1xf32>) outs(%141 : tensor<?x10xf32>) {
    ^bb0(%in: f32, %in_123: f32, %out: f32):
      %173 = arith.mulf %in, %in_123 : f32
      linalg.yield %173 : f32
    } -> tensor<?x10xf32>
    %dim_106 = tensor.dim %142, %c0 : tensor<?x10xf32>
    %143 = tensor.empty(%dim_106) : tensor<?xf32>
    %144 = linalg.generic {indexing_maps = [#map21, #map22], iterator_types = ["parallel"]} ins(%cst_3 : f32) outs(%143 : tensor<?xf32>) {
    ^bb0(%in: f32, %out: f32):
      linalg.yield %in : f32
    } -> tensor<?xf32>
    %145 = linalg.generic {indexing_maps = [#map13, #map23], iterator_types = ["parallel", "reduction"]} ins(%142 : tensor<?x10xf32>) outs(%144 : tensor<?xf32>) {
    ^bb0(%in: f32, %out: f32):
      %173 = arith.maximumf %in, %out : f32
      linalg.yield %173 : f32
    } -> tensor<?xf32>
    %expanded_107 = tensor.expand_shape %145 [[0, 1]] : tensor<?xf32> into tensor<?x1xf32>
    %dim_108 = tensor.dim %142, %c0 : tensor<?x10xf32>
    %dim_109 = tensor.dim %expanded_107, %c0 : tensor<?x1xf32>
    %146 = arith.maxui %dim_108, %dim_109 : index
    %dim_110 = tensor.dim %142, %c0 : tensor<?x10xf32>
    %147 = arith.cmpi eq, %dim_110, %c1 : index
    %148 = scf.if %147 -> (tensor<?x10xf32>) {
      %173 = tensor.empty(%146) : tensor<?x10xf32>
      %174 = linalg.generic {indexing_maps = [#map24, #map13], iterator_types = ["parallel", "parallel"]} ins(%142 : tensor<?x10xf32>) outs(%173 : tensor<?x10xf32>) {
      ^bb0(%in: f32, %out: f32):
        linalg.yield %in : f32
      } -> tensor<?x10xf32>
      scf.yield %174 : tensor<?x10xf32>
    } else {
      scf.yield %142 : tensor<?x10xf32>
    }
    %dim_111 = tensor.dim %expanded_107, %c0 : tensor<?x1xf32>
    %149 = arith.cmpi eq, %dim_111, %c1 : index
    %150 = scf.if %149 -> (tensor<?x1xf32>) {
      %173 = tensor.empty(%146) : tensor<?x1xf32>
      %174 = linalg.generic {indexing_maps = [#map24, #map13], iterator_types = ["parallel", "parallel"]} ins(%expanded_107 : tensor<?x1xf32>) outs(%173 : tensor<?x1xf32>) {
      ^bb0(%in: f32, %out: f32):
        linalg.yield %in : f32
      } -> tensor<?x1xf32>
      scf.yield %174 : tensor<?x1xf32>
    } else {
      scf.yield %expanded_107 : tensor<?x1xf32>
    }
    %151 = tensor.empty(%146) : tensor<?x10xf32>
    %152 = linalg.generic {indexing_maps = [#map13, #map25, #map13], iterator_types = ["parallel", "parallel"]} ins(%148, %150 : tensor<?x10xf32>, tensor<?x1xf32>) outs(%151 : tensor<?x10xf32>) {
    ^bb0(%in: f32, %in_123: f32, %out: f32):
      %173 = arith.subf %in, %in_123 : f32
      linalg.yield %173 : f32
    } -> tensor<?x10xf32>
    %dim_112 = tensor.dim %152, %c0 : tensor<?x10xf32>
    %153 = tensor.empty(%dim_112) : tensor<?x10xf32>
    %154 = linalg.generic {indexing_maps = [#map13, #map13], iterator_types = ["parallel", "parallel"]} ins(%152 : tensor<?x10xf32>) outs(%153 : tensor<?x10xf32>) {
    ^bb0(%in: f32, %out: f32):
      %173 = math.exp %in : f32
      linalg.yield %173 : f32
    } -> tensor<?x10xf32>
    %dim_113 = tensor.dim %154, %c0 : tensor<?x10xf32>
    %155 = tensor.empty(%dim_113) : tensor<?xf32>
    %156 = linalg.generic {indexing_maps = [#map21, #map22], iterator_types = ["parallel"]} ins(%cst_2 : f32) outs(%155 : tensor<?xf32>) {
    ^bb0(%in: f32, %out: f32):
      linalg.yield %in : f32
    } -> tensor<?xf32>
    %157 = linalg.generic {indexing_maps = [#map13, #map23], iterator_types = ["parallel", "reduction"]} ins(%154 : tensor<?x10xf32>) outs(%156 : tensor<?xf32>) {
    ^bb0(%in: f32, %out: f32):
      %173 = arith.addf %in, %out : f32
      linalg.yield %173 : f32
    } -> tensor<?xf32>
    %expanded_114 = tensor.expand_shape %157 [[0, 1]] : tensor<?xf32> into tensor<?x1xf32>
    %dim_115 = tensor.dim %expanded_114, %c0 : tensor<?x1xf32>
    %158 = tensor.empty(%dim_115) : tensor<?x1xf32>
    %159 = linalg.generic {indexing_maps = [#map25, #map13], iterator_types = ["parallel", "parallel"]} ins(%expanded_114 : tensor<?x1xf32>) outs(%158 : tensor<?x1xf32>) {
    ^bb0(%in: f32, %out: f32):
      %173 = arith.divf %cst_1, %in : f32
      linalg.yield %173 : f32
    } -> tensor<?x1xf32>
    %dim_116 = tensor.dim %154, %c0 : tensor<?x10xf32>
    %dim_117 = tensor.dim %159, %c0 : tensor<?x1xf32>
    %160 = arith.maxui %dim_116, %dim_117 : index
    %dim_118 = tensor.dim %154, %c0 : tensor<?x10xf32>
    %161 = arith.cmpi eq, %dim_118, %c1 : index
    %162 = scf.if %161 -> (tensor<?x10xf32>) {
      %173 = tensor.empty(%160) : tensor<?x10xf32>
      %174 = linalg.generic {indexing_maps = [#map24, #map13], iterator_types = ["parallel", "parallel"]} ins(%154 : tensor<?x10xf32>) outs(%173 : tensor<?x10xf32>) {
      ^bb0(%in: f32, %out: f32):
        linalg.yield %in : f32
      } -> tensor<?x10xf32>
      scf.yield %174 : tensor<?x10xf32>
    } else {
      scf.yield %154 : tensor<?x10xf32>
    }
    %dim_119 = tensor.dim %159, %c0 : tensor<?x1xf32>
    %163 = arith.cmpi eq, %dim_119, %c1 : index
    %164 = scf.if %163 -> (tensor<?x1xf32>) {
      %173 = tensor.empty(%160) : tensor<?x1xf32>
      %174 = linalg.generic {indexing_maps = [#map24, #map13], iterator_types = ["parallel", "parallel"]} ins(%159 : tensor<?x1xf32>) outs(%173 : tensor<?x1xf32>) {
      ^bb0(%in: f32, %out: f32):
        linalg.yield %in : f32
      } -> tensor<?x1xf32>
      scf.yield %174 : tensor<?x1xf32>
    } else {
      scf.yield %159 : tensor<?x1xf32>
    }
    %165 = tensor.empty(%160) : tensor<?x10xf32>
    %166 = linalg.generic {indexing_maps = [#map13, #map25, #map13], iterator_types = ["parallel", "parallel"]} ins(%162, %164 : tensor<?x10xf32>, tensor<?x1xf32>) outs(%165 : tensor<?x10xf32>) {
    ^bb0(%in: f32, %in_123: f32, %out: f32):
      %173 = arith.mulf %in, %in_123 : f32
      linalg.yield %173 : f32
    } -> tensor<?x10xf32>
    %dim_120 = tensor.dim %166, %c0 : tensor<?x10xf32>
    %167 = tensor.empty(%dim_120) : tensor<?x10xf32>
    %168 = linalg.generic {indexing_maps = [#map13, #map20, #map13], iterator_types = ["parallel", "parallel"]} ins(%166, %cst_24 : tensor<?x10xf32>, tensor<1x1xf32>) outs(%167 : tensor<?x10xf32>) {
    ^bb0(%in: f32, %in_123: f32, %out: f32):
      %173 = arith.mulf %in, %in_123 : f32
      linalg.yield %173 : f32
    } -> tensor<?x10xf32>
    %dim_121 = tensor.dim %168, %c0 : tensor<?x10xf32>
    %169 = tensor.empty(%dim_121) : tensor<?x10xf32>
    %170 = linalg.generic {indexing_maps = [#map13, #map20, #map13], iterator_types = ["parallel", "parallel"]} ins(%168, %cst_25 : tensor<?x10xf32>, tensor<1x1xf32>) outs(%169 : tensor<?x10xf32>) {
    ^bb0(%in: f32, %in_123: f32, %out: f32):
      %173 = arith.addf %in, %in_123 : f32
      linalg.yield %173 : f32
    } -> tensor<?x10xf32>
    %dim_122 = tensor.dim %170, %c0 : tensor<?x10xf32>
    %171 = tensor.empty(%dim_122) : tensor<?x10xi8>
    %172 = linalg.generic {indexing_maps = [#map13, #map13], iterator_types = ["parallel", "parallel"]} ins(%170 : tensor<?x10xf32>) outs(%171 : tensor<?x10xi8>) {
    ^bb0(%in: f32, %out: i8):
      %173 = math.roundeven %in : f32
      %174 = arith.minimumf %173, %cst : f32
      %175 = arith.maximumf %174, %cst_0 : f32
      %176 = arith.fptosi %175 : f32 to i8
      linalg.yield %176 : i8
    } -> tensor<?x10xi8>
    return %172 : tensor<?x10xi8>
  }
}

